models/0002.HK_lstm_Close.pth (torch, 809156 bytes, 9 tensors)

lstm.weight_ih_l0 f4 [512, 5]
0	0x3d418f2b	0.047255676
1	0xbd587668	-0.052847296
2	0xbced5011	-0.028968843
3	0xbbedd605	-0.007258179
4	0x3d848699	0.06470985
5	0xbc98da74	-0.018658854
6	0x3dcd1eb8	0.10015625
7	0x3e037b09	0.12839903
8	0xbcb66461	-0.022264661
9	0xbc985e2b	-0.01859959
10	0xbd6a9a0a	-0.05727581
11	0x3d8546c0	0.06507635
12	0xbd7118c9	-0.058861528
13	0x3d6633c7	0.056201722
14	0x3d9bbd02	0.0760441
15	0xbdae42de	-0.08508848
16	0xbd6733cd	-0.056445885
17	0xbd8018de	-0.06254743
18	0x3d43ea7e	0.04783105
19	0x3d92a229	0.07159836
20	0xbda14cf8	-0.07876009
21	0x3c4671fd	0.012112138
22	0xbd8b8ca3	-0.06813934
23	0x3ced3b01	0.0289588
24	0x3ce906da	0.02844565
25	0x3d4b44b0	0.049626052
26	0xbd0a5142	-0.0337689
27	0x3c070b53	0.008242446
28	0x3cde8a2e	0.027165499
29	0xbc0b1637	-0.008489183
30	0x3aeee35d	0.0018225719
31	0x3c66c170	0.014084205
32	0x3d7947e5	0.06085958
33	0xbd7b7346	-0.06138923
34	0xbd6e3ea8	-0.058165222
35	0x3d8185e7	0.06324368
36	0x3da4a0a5	0.08038453
37	0x3cf4a231	0.029862495
38	0xbd11f931	-0.035638038
39	0x3dafe6c5	0.08588938
40	0xbd26484f	-0.040596303
41	0xbca5f813	-0.020259893
42	0x3d16d49e	0.03682386
43	0xbc37b75d	-0.011213151
44	0xbc992240	-0.01869309
45	0x3d546530	0.051854312
46	0xbd1215e0	-0.035665393
47	0xbcce4dc7	-0.025183572
48	0x3da865a8	0.082225144
49	0xbbb22a53	-0.0054371743
50	0x3d8bca35	0.06825677
51	0x3d4931cb	0.049119752
52	0xbd7e8a32	-0.062143512
53	0x3d1dabda	0.03849397
54	0x3d1f7977	0.038934197
55	0xbcd8702b	-0.026420673
56	0x3cda9f42	0.026687268
57	0x3d934f98	0.07192916
58	0xbd4bd3e8	-0.049762636
59	0xbd869862	-0.065720335
60	0x3e341462	0.175859
61	0x3e299ae2	0.1656299
62	0x3ddacf49	0.10684068
63	0x3e074442	0.13209632
64	0x3dcfbd0d	0.101434804
65	0xbd959911	-0.07304586
66	0xbc8eaba9	-0.017415838
67	0x3bdf6fba	0.0068187388
68	0xbd987842	-0.07444812
69	0xbd8d1edd	-0.06890652
70	0xbdeb5d33	-0.11492386
71	0x3d4b89b7	0.049691882
72	0xbca8310b	-0.020531198
73	0x3d20d0ea	0.039261736
74	0xbd456db1	-0.048200313
75	0xbd825bd1	-0.06365169
76	0x3d7d8866	0.061897658
77	0x3d5a5399	0.05330238
78	0xbcd802ac	-0.026368462
79	0x3c723b77	0.014784685
80	0x3d96ae98	0.0735752
81	0xbdacb38b	-0.084326826
82	0x3d9624ac	0.07331213
83	0xbd79f97b	-0.06102894
84	0xbdc1a701	-0.094556816
85	0xbddb9048	-0.10720879
86	0x3d83e2fa	0.06439777
87	0x3d89534a	0.06705339
88	0xbd0a6be8	-0.033794314
89	0xbc8197ce	-0.015819456
90	0x3dcb877d	0.09937952
91	0x3d120d20	0.03565705
92	0xbd98db6e	-0.07463728
93	0x3d2e9c61	0.042629603
94	0x3da08ebc	0.078397244
95	0xbd834bca	-0.0641094
96	0x3d374f61	0.044753436
97	0x3d85696b	0.065142475
98	0x3ce6b64f	0.028163103
99	0xbcebb5f5	-0.028773287
100	0x3de6b614	0.112651974
101	0x3da9aa55	0.082844414
102	0xbd48b507	-0.049000766
103	0x3c8e7176	0.017388087
104	0x3dbd2b75	0.092368044
105	0xbc0cd17f	-0.00859487
106	0xbc159359	-0.009129369
107	0x3d8a85e2	0.06763817
108	0x3d13c297	0.036074247
109	0xbd347ee7	-0.044066336
110	0x3dbf4f0f	0.09341251
111	0x3cf92739	0.03041421
112	0x3d4202e7	0.04736605
113	0x3c621c5a	0.013800705
114	0xbbf072cc	-0.0073379036
115	0xbd018621	-0.031622056
116	0xbd82c14d	-0.063845254
117	0x3da3653f	0.079782955
118	0x3db05e5d	0.08611748
119	0xbd7da8f0	-0.06192869
120	0xbd9226d8	-0.07136315
121	0xbd11c5b6	-0.035588942
122	0xbd9de5b1	-0.07709826
123	0xbd4695b7	-0.048482623
124	0x3cbcaea2	0.02303249
125	0x3db9e300	0.090765
126	0x3d8b6a54	0.0680739
127	0x3cb30cfb	0.021856776
128	0x3daafaa2	0.08348586
129	0xbd6593e0	-0.056049228
130	0x3d88547c	0.06656739
131	0xbd741f59	-0.059600208
132	0x3bb8f664	0.0056446064
133	0x3cd39eef	0.025832621
134	0xbd9c6f3e	-0.07638405
135	0x3de0c3e3	0.109748624
136	0x3d4d58af	0.050133403
137	0x3dcbd6f2	0.09953107
138	0x3d861d8e	0.06548606
139	0x3dc5b7d6	0.096542045
140	0x3d6cbdf6	0.05779835
141	0xbd8262ef	-0.06366526
142	0x3d914604	0.070934325
143	0x3cc4f2bf	0.024041532
144	0x3d510e64	0.051039115
145	0xbcd586ea	-0.026065309
146	0x3d8bc9f8	0.06825632
147	0x3d8b3259	0.067967124
148	0x3d2d2967	0.042275812
149	0x3be0af9b	0.0068568713
150	0x3b79b215	0.003810053
151	0xbd629114	-0.05531414
152	0x3d94a4ad	0.07257972
153	0xbd4c515f	-0.04988229
154	0x3cc20378	0.023683295
155	0xbd1338c0	-0.035942793
156	0xbbeb17c4	-0.007174464
157	0x3d7f4f94	0.06233175
158	0xbb4f19bd	-0.0031601035
159	0x3c2d1a1b	0.010565306
160	0x3ddcf8ff	0.1078968
161	0x3d0809af	0.03321236
162	0x3d3b35f5	0.045705754
163	0xbd64ef73	-0.05589242
164	0xbcc27598	-0.023737714
165	0xbc29c83c	-0.010362681
166	0x3be59a34	0.007006908
167	0x3dbfab7c	0.0935888
168	0x3d9c14c2	0.07621147
169	0xbd5b5813	-0.05355079
170	0x3cc23195	0.023705283
171	0x3dd0faa7	0.10204058
172	0xbd0f4d96	-0.0349861
173	0x3e08c468	0.13356173
174	0xbc9b779b	-0.01897793
175	0xbcc175d6	-0.023615759
176	0x3c51faff	0.01281619
177	0x3d5872cc	0.052843854
178	0xbc909695	-0.017649928
179	0x3d910f83	0.07083037
180	0xbc1fe171	-0.009758339
181	0xbd97f741	-0.07420207
182	0x3d54ebea	0.051982798
183	0x3d69f07a	0.057114102
184	0xbd87bb6b	-0.06627544
185	0xbba22ebd	-0.0049494193
186	0xbd3c36d0	-0.04595071
187	0x3dc09da7	0.0940507
188	0xbb69a281	-0.0035649838
189	0x3d0ae258	0.033907264
190	0x3d752996	0.059854113
191	0x3beed939	0.0072890786
192	0x3be8f2b2	0.0071090097
193	0x3d375458	0.04475817
194	0x3d4a9d7f	0.049466606
195	0x3d8aaf56	0.06771724
196	0xbd97c18d	-0.07409964
197	0xbd77c6e5	-0.060492415
198	0x3d9eb139	0.07748646
199	0x3d5008f9	0.050789807
200	0xb9fdf0e8	-0.0004843541
201	0x3d88a93f	0.06672906
202	0x3cbdceb2	0.023169849
203	0xbd69c570	-0.057073057
204	0xbd0aa964	-0.03385295
205	0xbd3bdaa5	-0.045862813
206	0x3cac9786	0.021068346
207	0xbd5684e6	-0.052372836
208	0x3d388f30	0.04505843
209	0x3dcced2a	0.10006173
210	0xbd9c9c64	-0.07647017
211	0xbd760ae5	-0.060068984
212	0xbd9622e9	-0.07330877
213	0x3cf7420b	0.030182859
214	0x3d455672	0.048178144
215	0xbcabd0b6	-0.020973545
216	0xbcebc3a5	-0.028779814
217	0xbcee295f	-0.029072462
218	0x3da98706	0.08277707
219	0x3d11580c	0.03548436
220	0xbdb0f856	-0.08641116
221	0x3d5a496a	0.05329267
222	0x3caa3eeb	0.020781955
223	0xb956411b	-0.00020432884
224	0x3d0b7ec5	0.034056444
225	0xbd032af6	-0.032023393
226	0x3daf7540	0.085672855
227	0x3d7c182c	0.06154649
228	0xbc6cb51b	-0.014447476
229	0x3ceae936	0.028675657
230	0xbca6fb62	-0.02038354
231	0xb9961d57	-0.0002863209
232	0xbd2cfba2	-0.042232163
233	0xbce5302b	-0.02797707
234	0xbdd80e2c	-0.10549578
235	0x3d8d56ed	0.069013454
236	0x3d002450	0.03128463
237	0xbd5f26fe	-0.054480545
238	0xbd17e0ee	-0.037079744
239	0xbc15aa22	-0.009134801
240	0x3d38817a	0.045045353
241	0x3d945274	0.07242289
242	0x3cb0930b	0.02155449
243	0x3bb35808	0.0054731406
244	0xbc7234c8	-0.014783092
245	0x3df29fd9	0.11846895
246	0xbd179a77	-0.037012544
247	0x3d8b9caf	0.068169944
248	0x3c8a8b60	0.016912162
249	0x3c0a2f13	0.008434075
250	0xbd25eeda	-0.04051099
251	0xbba3e8bc	-0.0050021093
252	0x3d902d65	0.07039908
253	0xbc56e937	-0.013117126
254	0x3c8c08b2	0.01709399
255	0xbd0ea154	-0.034821823

lstm.weight_hh_l0 f4 [512, 128]
0	0xbdf43433	-0.11924019
1	0xbc13a3a8	-0.009011187
2	0xbd56b402	-0.052417763
3	0xbcf7b715	-0.030238668
4	0xbcd052dc	-0.025430135
5	0xbc0cce12	-0.008594053
6	0x3cd772a9	0.026299791
7	0x3d1436c9	0.03618506
8	0xbd873e17	-0.066036396
9	0x3cc5e5ab	0.024157366
10	0xbc1e56e3	-0.00966427
11	0xbc1543bd	-0.009110388
12	0xbce1c540	-0.027559876
13	0x3cd5b5c7	0.026087655
14	0x3d8d68de	0.069047675
15	0x3c2fa757	0.010721049
16	0x3d9e2b61	0.077231176
17	0xbd835089	-0.06411845
18	0x3dadf0d0	0.08493197
19	0xbda5413d	-0.08069084
20	0x3d2802d6	0.04101833
21	0xbc83c923	-0.01608712
22	0x3d138f7b	0.036025506
23	0xbd6f5c90	-0.058437884
24	0x3d988396	0.07446973
25	0xbd3973ca	-0.04527644
26	0xbdd29463	-0.10282209
27	0x3dc10330	0.09424436
28	0xbd67bdb3	-0.056577396
29	0xbc869aa0	-0.016431153
30	0xbc614398	-0.013749026
31	0x3d096829	0.0335466
32	0xbdab9ad3	-0.0837914
33	0x3d23bada	0.039973117
34	0x3d01145f	0.031513568
35	0xbd9e0749	-0.07716233
36	0x3d34aecc	0.04411201
37	0x3d2ba1cf	0.04190236
38	0xbd886260	-0.066593885
39	0xbcf8c418	-0.030366942
40	0xbd2ca703	-0.042151462
41	0x39efe1d8	0.000457539
42	0x3d336323	0.043795716
43	0xba61a54c	-0.00086077
44	0x3c6f2eae	0.014598532
45	0x3cd8ad2a	0.026449759
46	0xbd04f6b7	-0.032461848
47	0xbc986872	-0.01860449
48	0xbd115a6b	-0.03548662
49	0xbd9b5d96	-0.075862095
50	0x3d0746f4	0.03302665
51	0x3b8eaec8	0.0043543316
52	0x3d890894	0.06691089
53	0xbd83188a	-0.06401165
54	0xbd7b7033	-0.0613863
55	0x3cecf013	0.02892307
56	0xbd92cbbc	-0.071677655
57	0xbbeff690	-0.0073230937
58	0xbcae8b7e	-0.02130675
59	0xbca3814a	-0.01995911
60	0xbd99dfd5	-0.07513396
61	0xbba99332	-0.0051750178
62	0xbd2d9f63	-0.04238833
63	0x3d1e7bbe	0.03869223
64	0x3dde8e1b	0.10866948
65	0xbd9c15b7	-0.07621329
66	0x3cb97acb	0.02264156
67	0xbd9b762a	-0.075908974
68	0x3dcaaa3d	0.098957516
69	0xbd7f0f68	-0.062270552
70	0x3d87dabf	0.066335194
71	0xbceaddff	-0.02867031
72	0x3d52e377	0.05148646
73	0x3d3eb8d0	0.04656297
74	0x3cc83453	0.024439013
75	0x3cdadea3	0.02671749
76	0xbd78e410	-0.060764372
77	0xbd827915	-0.06370751
78	0xbd1b7492	-0.037952967
79	0x3cd95a79	0.026532399
80	0xbcfc3c58	-0.030790493
81	0x3d51ebca	0.051250257
82	0x3ced69f6	0.02898119
83	0xbd7c1541	-0.061543707
84	0x3c52c16b	0.012863497
85	0x3ce2a3f3	0.027666068
86	0xbd8bb132	-0.06820907
87	0xbc2f60ff	-0.010704278
88	0x3d9b8925	0.075945176
89	0xbbb080fa	-0.005386469
90	0xbdb8a310	-0.09015477
91	0x3dd8b479	0.105812974
92	0xbd7a7f0e	-0.061156325
93	0x3b20d096	0.002453839
94	0x3da9e5c5	0.08295778
95	0xbd483c98	-0.04888591
96	0x3d7e602a	0.062103428
97	0xbd9d5d72	-0.07683839
98	0xbbad2d5a	-0.0052849473
99	0x3d16ff23	0.03686441
100	0x3d9a51bf	0.07535123
101	0x3d3affdb	0.04565416
102	0x3cdee833	0.02721033
103	0x3dccabc3	0.099936984
104	0x3d82efe0	0.06393409
105	0x3d82a522	0.06379153
106	0x3c4c4f32	0.0124700535
107	0xbd445e23	-0.04794134
108	0xbde5f6b9	-0.11228699
109	0xbe0f21fd	-0.13977809
110	0x3ce59147	0.028023375
111	0xbd6fb78f	-0.058524664
112	0x3d947aed	0.07250009
113	0xbd944e9c	-0.07241556
114	0xbb170b80	-0.0023047626
115	0xbd238316	-0.039919935
116	0xbd497113	-0.0491801
117	0xbd4aa3d1	-0.049472634
118	0xbc072479	-0.008248442
119	0xbc69120e	-0.014225496
120	0x3bb5cb97	0.0055479514
121	0x39ce2be0	0.0003932407
122	0x3e082b9d	0.13297887
123	0x3d8926f5	0.066968836
124	0xbda2330b	-0.07919892
125	0x3b8ef0a3	0.004362182
126	0x3d293bdb	0.04131685
127	0xbcf4ded0	-0.029891402
128	0xbddcb6eb	-0.10777076
129	0x3d0f1b0b	0.0349379
130	0xbcc52a68	-0.024068072
131	0x3d551cf6	0.052029572
132	0x3d8adf62	0.06780888
133	0x3de67984	0.11253646
134	0xbd9173c5	-0.071021594
135	0x3d4bf164	0.049790755
136	0x3b10f365	0.002211773
137	0xbc1cd276	-0.009571662
138	0xbcaf5fe9	-0.021408038
139	0x3d68a534	0.056798175
140	0xbb8fdf82	-0.004390658
141	0x3c8b0a6d	0.016972745
142	0xbd2d7936	-0.042351924
143	0xbd26de49	-0.04073933
144	0xba81a80a	-0.0009891998
145	0xbc9bc977	-0.019016964
146	0x3dcb18ed	0.099168636
147	0xbd4fa03e	-0.05068993
148	0xbc1de38f	-0.009636774
149	0xbd5c09a5	-0.053720135
150	0x3d1cc94e	0.038277917
151	0x3c4982d1	0.0122992555
152	0xbd8b3dab	-0.067988716
153	0x3d343888	0.043999225
154	0xbd30df21	-0.043181542
155	0x3de20094	0.110352665
156	0x3cee5009	0.029090898
157	0x3dadf352	0.08493675
158	0x3cedd266	0.02903099
159	0x3d1f95a3	0.038961064
160	0x3d4f82fa	0.05066202
161	0xbd5bc0be	-0.05365061
162	0xbd61f117	-0.05516156
163	0xbded0483	-0.11573126
164	0xbd2fc66d	-0.042913843
165	0xbdd512d9	-0.104039855
166	0xbd3a9d2f	-0.04556006
167	0x3cebd970	0.028790206
168	0xbcd5d69d	-0.026103312
169	0x3c6cb09e	0.014446406
170	0xbcc73d6c	-0.02432128
171	0x3c4bd98b	0.012442003
172	0xbcc8546b	-0.024454316
173	0x3d795638	0.06087324
174	0x3d695294	0.05696352
175	0x3d037ee1	0.032103423
176	0xbd14dad1	-0.036341492
177	0x3d047067	0.032333758
178	0xbd98dd0e	-0.07464038
179	0x3dbf62ed	0.093450405
180	0xbd8304c7	-0.063973956
181	0x3dd1945f	0.10233378
182	0xbd0bffeb	-0.03417961
183	0xbdbb18ce	-0.091355905
184	0x3db69639	0.089153714
185	0x3d8cbee3	0.06872346
186	0xbd939dd6	-0.07207839
187	0xbd42ba79	-0.047541115
188	0xbcb7eb84	-0.02245117
189	0xbb8a1b85	-0.0042147064
190	0x3d7e1101	0.062027935
191	0x3da260af	0.07928597
192	0x3cbc4789	0.02298333
193	0x3d566132	0.052338786
194	0x3da597c9	0.08085591
195	0xbd5beb27	-0.053691056
196	0x3c4df2e4	0.012570117
197	0xbd19964d	-0.037496854
198	0xbdc876f6	-0.09788315
199	0x3d9d80f4	0.076906115
200	0x3d84974a	0.064741686
201	0x3ca238dd	0.019802505
202	0x3da74973	0.08168306
203	0xbcdd12e0	-0.02698654
204	0x3ca75157	0.020424528
205	0xbc83d3e3	-0.016092246
206	0x3ca2c59a	0.019869614
207	0x3d022d6e	0.031781606
208	0xbc217358	-0.00985416
209	0xbd29b715	-0.041434366
210	0xbc021156	-0.0079387035
211	0xbdb42af9	-0.08797259
212	0x3daa84f1	0.08326138
213	0x3aa3741d	0.0012470518
214	0x3d62d07a	0.0553746
215	0xbd405a5e	-0.04696118
216	0xbde60620	-0.11231637
217	0x3d73d7b8	0.059531897
218	0x3bff929d	0.00779946
219	0x3c1ff0d9	0.009762012
220	0xbcb7a875	-0.022419194
221	0x3c8dd92c	0.01731547
222	0xbba8169b	-0.005129648
223	0xbd03f57c	-0.032216534
224	0xbd8bb183	-0.06820967
225	0x3b95b4c0	0.004568666
226	0xbd868f11	-0.065702565
227	0xbda6285c	-0.08113167
228	0xbd55b9d3	-0.05217917
229	0x3dc6d7ad	0.09709106
230	0xbd7a422e	-0.06109827
231	0xbd42adcf	-0.047529038
232	0xbc6e4b24	-0.014544282
233	0xb99849ec	-0.00029046775
234	0xbd94126a	-0.07230075
235	0x3ceb4005	0.02871705
236	0xbde29694	-0.11063877
237	0xbbeb1f1a	-0.0071753385
238	0xbcb7d212	-0.022439037
239	0xbd0eedce	-0.034894757
240	0xbda156e4	-0.07877901
241	0xbdbae02d	-0.091247894
242	0xbc8e181f	-0.017345486
243	0xbbab0306	-0.0052188663
244	0xbd8831b7	-0.06650107
245	0x3d878440	0.066170216
246	0xbd5a5b03	-0.05330945
247	0xbd1f57b2	-0.038901992
248	0x3d6c7d4f	0.05773669
249	0xbdb9dabd	-0.09074924
250	0xbd52b836	-0.05144521
251	0xbdd61aa8	-0.10454303
252	0x3bb55be4	0.005534636
253	0x3cb138fb	0.021633616
254	0xbd10a098	-0.035309404
255	0xbdeaa6d2	-0.114576

lstm.bias_ih_l0 f4 [512]
0	0x3cb4c2ab	0.022065481
1	0xbcaed218	-0.021340415
2	0x3db125e2	0.08649804
3	0x3d02c345	0.031924505
4	0x3d62c5f4	0.055364564
5	0xbd43f721	-0.047843102
6	0x3dacf23b	0.08444639
7	0x3d3b5394	0.045734003
8	0x3db38cbc	0.08767077
9	0x3dab8bf2	0.08376302
10	0x3bad30eb	0.0052853725
11	0xbaa82762	-0.001282912
12	0x3e63ddfb	0.22252648
13	0x3be69a19	0.007037413
14	0xbc9b6cab	-0.018972715
15	0x3d558534	0.052128986
16	0x3ccd2882	0.02504373
17	0x3a88486e	0.0010397562
18	0xbd96af4c	-0.07357654
19	0x3cd2ae7d	0.025717968
20	0x3de6a4bc	0.11261889
21	0xbd54a016	-0.051910482
22	0x3dc3fee1	0.09570099
23	0xbcffc2d1	-0.031220825
24	0x3db3dd67	0.087824635
25	0x3d8ff744	0.07029584
26	0xbd27da78	-0.040979832
27	0xbd4c174b	-0.0498269
28	0x3da00655	0.07813708
29	0x3dbbb56f	0.09165465
30	0x3bc46f90	0.0059947446
31	0x3cc48f29	0.023994045
32	0xbdae810d	-0.08520708
33	0xbd676278	-0.05649039
34	0x3e046f3f	0.12933062
35	0xbcc91192	-0.024544511
36	0x3d39f498	0.04539928
37	0xbd92743a	-0.07151075
38	0x3d679e63	0.056547534
39	0xbd9d58ab	-0.07682928
40	0xbc9e2195	-0.019303123
41	0xbd96a14f	-0.07354986
42	0xbd7739ec	-0.060357973
43	0x3db4aeb7	0.08822387
44	0x3e12f7c5	0.14352329
45	0x3d3c90a4	0.046036378
46	0xbdca8e65	-0.09890441
47	0xbd65e52e	-0.056126766
48	0xbd969a13	-0.07353606
49	0xbc4eadc2	-0.012614669
50	0xbd187a89	-0.037226234
51	0x3cde769b	0.027156165
52	0xbc6a5962	-0.014303537
53	0x3d779e47	0.06045368
54	0x3d8e34e1	0.069436796
55	0xbd73ed26	-0.059552334
56	0xbda44321	-0.08020616
57	0xbda2c4ab	-0.07947668
58	0x3d915ff6	0.07098381
59	0x3d586050	0.052826226
60	0x3d622e81	0.05522013
61	0x3c2b9998	0.010473631
62	0xbd675a56	-0.056482635
63	0xbd12201f	-0.035675164
64	0xbd36a639	-0.044592116
65	0x3d4c10a5	0.04982056
66	0x3df2d4ac	0.1185697
67	0x3d92386a	0.071396664
68	0xbce77972	-0.028256152
69	0xbd911259	-0.07083578
70	0x3da314de	0.079629645
71	0xbd7772f4	-0.060412362
72	0xbd14a9e6	-0.03629484
73	0x3d4528f5	0.048134763
74	0xbd2869f1	-0.04111666
75	0x3cf62868	0.030048564
76	0x3d5ce88c	0.05393271
77	0x3d7a5e4e	0.061125092
78	0x3da8d8f7	0.08244508
79	0x3d3cad8c	0.046063945
80	0xbd3b9e15	-0.045805056
81	0x3cf146f0	0.029452771
82	0xbd2caf6a	-0.042159475
83	0xbc4e9fc1	-0.0126113305
84	0xbdaa13d0	-0.0830456
85	0x3db06172	0.08612336
86	0xbda6f97d	-0.08153055
87	0x3d56a3dd	0.052402366
88	0xbd768837	-0.0601885
89	0x3c7e8a4f	0.015535905
90	0x3d99ed54	0.0751597
91	0xbcca68bc	-0.024708144
92	0x3ce3c527	0.02780397
93	0xbc1c637d	-0.009545204
94	0x3c924648	0.017855778
95	0x3db35744	0.08756879
96	0x3be4b460	0.00697951
97	0x3d349f84	0.04409744
98	0xbd733eee	-0.059386186
99	0x3d7220e5	0.059113402
100	0x3d11ec62	0.035625823
101	0x3d8923b9	0.06696267
102	0x3c6020f8	0.013679735
103	0xbda85f1d	-0.082212664
104	0x3d68639d	0.056735624
105	0xbdb33449	-0.08750207
106	0x3d1fbc38	0.03899786
107	0xbd931831	-0.071823485
108	0x3dc25b59	0.094900794
109	0x3d95fd65	0.07323722
110	0x3d34d8d3	0.044152092
111	0x3dcf1dcd	0.10113106
112	0x3da8bd13	0.08239188
113	0x3e0e797c	0.1391353
114	0x3c7a8b37	0.0152919805
115	0xbbe1f09d	-0.0068951384
116	0xbd358d62	-0.044324286
117	0xbd8f74f0	-0.07004726
118	0x3d60a0d5	0.05484088
119	0xbd764778	-0.06012675
120	0xbced4d26	-0.028967451
121	0x3d147e25	0.036253113
122	0x3d8161d1	0.06317485
123	0xbc00c15e	-0.007858602
124	0x3e0de6fb	0.13857643
125	0x3c8fb1af	0.01754078
126	0x3dc14952	0.09437813
127	0x3d502384	0.05081512
128	0xbd4d6aa3	-0.050150525
129	0xbd089af1	-0.03335089
130	0xbcc4f0bd	-0.024040574
131	0xbcf8fd84	-0.030394323
132	0xbd8d93b7	-0.0691294
133	0x3d98ee8f	0.074673764
134	0x3d181352	0.0371278
135	0xbc1f947d	-0.009739992
136	0xbd33aed3	-0.043867897
137	0x3da740fa	0.0816669
138	0x3d96dda9	0.07366497
139	0x3d0ffa4d	0.035150815
140	0xbc855105	-0.016273985
141	0xbd404c9b	-0.046948057
142	0xbbd6eac7	-0.0065587494
143	0xbd156feb	-0.036483686
144	0xbdb7caf5	-0.08974258
145	0x3d87c316	0.066290066
146	0xbd4820dc	-0.048859462
147	0x3c88b0bd	0.016685838
148	0xbd041245	-0.032243986
149	0xbc764d15	-0.015033026
150	0xbd2efe2f	-0.042722877
151	0x3d919bc0	0.07109785
152	0x3ceb6e76	0.028739195
153	0x3d6bdf03	0.057585727
154	0xbb84ec90	-0.0040565208
155	0x3d158db3	0.036512088
156	0x3d22d31f	0.039752122
157	0xbdc16198	-0.09442443
158	0xbcb09e20	-0.021559775
159	0x3ce9f103	0.028557306
160	0x3cd39364	0.025827117
161	0xbcaec67a	-0.021334875
162	0x3d09b2a7	0.03361764
163	0x3d78f0b6	0.060776435
164	0xbce78521	-0.028261723
165	0x3ca20e4e	0.019782212
166	0xbd4032cf	-0.046923455
167	0x3db48bf8	0.088157594
168	0xbc814c22	-0.015783373
169	0x3ca54ae7	0.020177318
170	0x3d5ba3da	0.053623058
171	0xbd3caeca	-0.04606513
172	0x3d1fe570	0.039037168
173	0xbd381f72	-0.044951864
174	0x3d840ece	0.06448136
175	0x3d082480	0.033237934
176	0x3cee3fd3	0.029083168
177	0xbd491fea	-0.0491027
178	0x3cd2e041	0.025741698
179	0x3cd29772	0.02570698
180	0xbc574bd4	-0.013140637
181	0x3d5a3b13	0.053278994
182	0xbd23fd72	-0.040036626
183	0xbd50ce28	-0.050977856
184	0x3d951f22	0.07281329
185	0x3c20b9a4	0.009809885
186	0xbd93bfe2	-0.07214333
187	0x3d4a9b51	0.049464528
188	0xbdaf618a	-0.08563526
189	0x3bafd86e	0.0053663766
190	0x3d2ef6b5	0.042715747
191	0xbd9cc8fe	-0.07655524
192	0x3d8ad564	0.06778982
193	0xbbbc7ed1	-0.0057524224
194	0x3d39d619	0.045370195
195	0xbd703844	-0.05864741
196	0x3d60471f	0.054755326
197	0x3d901a78	0.070362985
198	0x3ca28047	0.019836558
199	0x3cc09d9e	0.023512658
200	0x3c347cdf	0.0110161
201	0x3cc4377c	0.023952238
202	0xbd605063	-0.054764163
203	0x3c5655b3	0.013081956
204	0x3ca04f7e	0.019569155
205	0xbd8b2792	-0.06794657
206	0xbd92d20f	-0.07168972
207	0xbb761719	-0.0037550388
208	0x3981e1ae	0.00024772942
209	0x3d059d27	0.032620575
210	0x3cb880a2	0.022522274
211	0xbd8d2f92	-0.06893839
212	0x3d89820f	0.0671426
213	0xba389ee7	-0.0007042721
214	0xbd7f9afb	-0.06240366
215	0xbba87488	-0.0051408447
216	0x3cdb0f3c	0.026740663
217	0x3d9b230f	0.07575046
218	0xbd49616a	-0.049165167
219	0x3bc50ef9	0.006013748
220	0xbd93d9bc	-0.07219264
221	0x3d29e36a	0.041476645
222	0xbd1ba20a	-0.03799633
223	0x3da0d98b	0.07853993
224	0x3c51f47a	0.012814635
225	0xbdaf8c24	-0.085716516
226	0x3d924215	0.071415104
227	0xbd517d48	-0.051144868
228	0x3cfff0e1	0.03124279
229	0xbc5fc199	-0.013656997
230	0x3d843e01	0.06457139
231	0x3b9e7ea3	0.0048368736
232	0xbd53e905	-0.051735897
233	0x3ada1cea	0.0016640697
234	0x3d690227	0.05688682
235	0x3da9dd8c	0.0829421
236	0x3dd0a87c	0.10188386
237	0xbd37fbe4	-0.044917956
238	0xbda01b10	-0.07817662
239	0xbae02afe	-0.0017102656
240	0x3cdcc8fa	0.026951302
241	0xbdb6e7a5	-0.089309014
242	0xbd4a5beb	-0.049404066
243	0xbdbf9043	-0.093536876
244	0xbd76b646	-0.060232423
245	0xbcf65f61	-0.030074777
246	0xbc2e38cb	-0.010633658
247	0xbd3ba385	-0.04581024
248	0x3c7d6d1d	0.015467909
249	0xbc8a952a	-0.01691683
250	0x3d1e540c	0.038654372
251	0x3d49f7ff	0.049308773
252	0x3c4d8d57	0.012545905
253	0x3c5026ce	0.012704564
254	0xbc8c0272	-0.01709101
255	0xbd6bf0e2	-0.05760277

lstm.bias_hh_l0 f4 [512]
0	0x3c44e064	0.0120163895
1	0x3db1394d	0.086535074
2	0x3b756eb2	0.0037450013
3	0x3d99a1c6	0.07501559
4	0xbd714bfe	-0.058910362
5	0xbd42425f	-0.047426578
6	0xbd829d77	-0.0637769
7	0x3d5d32d5	0.054003555
8	0xbca78067	-0.02044697
9	0x3cf1d8ae	0.029522266
10	0xbd7c616c	-0.061616346
11	0x3d1fb58c	0.038991496
12	0x3e5d8ed1	0.21636511
13	0xbd1aeacb	-0.037821572
14	0x3d93a3d5	0.07208983
15	0xbc1e09a8	-0.009645857
16	0xbd3bada1	-0.045819882
17	0x3cd8d3fd	0.026468271
18	0xbd9fc183	-0.07800581
19	0xbb258e0e	-0.0025261673
20	0x3de38544	0.11109403
21	0x3d036280	0.03207636
22	0x3d7a3de4	0.06109418
23	0xbcef54ce	-0.029215243
24	0x3c1d3e1b	0.009597327
25	0xbd08bcb6	-0.033383094
26	0x3d548e5e	0.051893584
27	0xbc09aa3f	-0.008402406
28	0xbd671c41	-0.05642343
29	0xbd854705	-0.065076865
30	0x3c936940	0.017994523
31	0x3d388879	0.045052025
32	0xbae63baa	-0.0017565389
33	0xbd81ad5b	-0.06331893
34	0x3dfd5e91	0.12371553
35	0x3d4ba17f	0.04971456
36	0xbd99423b	-0.074833356
37	0xbd71c444	-0.059025064
38	0x3dd49136	0.10379259
39	0x3da3806b	0.07983478
40	0xbd6e110b	-0.058121722
41	0xbd9ec2b8	-0.077519834
42	0x3d141ec4	0.036162153
43	0x3d72af68	0.05924931
44	0x3b44fd2f	0.0030058136
45	0xbd8551b7	-0.065097265
46	0xbd4351fa	-0.0476856
47	0xbb43e7c5	-0.0029892784
48	0xbd502348	-0.050814897
49	0xbd36c9f5	-0.044626195
50	0x3d4286da	0.047491886
51	0x3d27ea2e	0.040994816
52	0x3d613ab9	0.054987643
53	0x3bb40cb7	0.00549468
54	0x3cc609eb	0.024174651
55	0x3d0cf236	0.034410678
56	0x3cd88cfb	0.026434412
57	0x3d95c888	0.07313639
58	0xbca125b7	-0.019671304
59	0xbd1f17da	-0.038841106
60	0x3cb4ade0	0.022055566
61	0x3daac606	0.08338551
62	0x3da0918d	0.078402616
63	0xbd8526ee	-0.06501566
64	0x3d802f78	0.06259054
65	0xbd9d7304	-0.07687953
66	0xbce50c06	-0.027959835
67	0x3d686a0f	0.05674177
68	0xbd8897e7	-0.06669598
69	0x3d26de1d	0.040739167
70	0xbd251875	-0.040306527
71	0x3a925b65	0.0011166154
72	0xbc885c6c	-0.016645633
73	0x3d0d9f3e	0.034575693
74	0x3d04371f	0.03227913
75	0x3d4cb52c	0.049977466
76	0xbda36c05	-0.079795875
77	0x3da21304	0.07913783
78	0xbd8cf7b3	-0.068831824
79	0x3d9dc91e	0.07704376
80	0xbd9f9ded	-0.07793794
81	0xbda236d3	-0.07920613
82	0x3d40b0f5	0.04704376
83	0x3cbd4352	0.02310339
84	0x3d962948	0.073320925
85	0xbc95684c	-0.01823821
86	0x3daa9b41	0.083303936
87	0xbd9ad55e	-0.07560228
88	0xbd5f10c3	-0.054459345
89	0x3d67382a	0.056450047
90	0xbd6dff5f	-0.05810487
91	0xbd6bd885	-0.057579536
92	0xbd8a9f14	-0.06768623
93	0xbc9f568a	-0.019450445
94	0x3d368f46	0.04457023
95	0xbd295783	-0.041343223
96	0x3d42b7df	0.047538634
97	0x3d33ab7e	0.04386472
98	0x37eeeec9	2.8483004e-05
99	0x3c333a9d	0.010939267
100	0xbd7e28ee	-0.062050752
101	0xbd9d527f	-0.076817505
102	0xbd0b85b1	-0.034063045
103	0x3d6b2dc3	0.05741669
104	0xbd924c91	-0.0714351
105	0xbd61e9b6	-0.055154525
106	0x3d843a78	0.064564645
107	0x3daa845a	0.08326025
108	0x3e5fcb15	0.21854813
109	0xbd56c050	-0.052429497
110	0x3d1a8a9f	0.037729856
111	0x3b99cce9	0.0046936166
112	0x3e2a6e85	0.16643722
113	0x3ce1f7e4	0.027584024
114	0x3ded8c90	0.11599076
115	0xbd3e1280	-0.04640436
116	0x3da4eb49	0.080526896
117	0x3cabd48a	0.02097537
118	0xbd2f4e61	-0.042799357
119	0xbd96964b	-0.07352885
120	0xbcee1a66	-0.029065322
121	0x3cac9952	0.021069203
122	0x3e0eaeeb	0.13933913
123	0x3d807e0f	0.06274044
124	0x3cac759e	0.021052178
125	0xba591d9d	-0.0008282306
126	0x3c8123a3	0.015764063
127	0xbd51bebe	-0.051207297
128	0xbbd45f11	-0.0064810594
129	0xbd095abd	-0.0335338
130	0xbd9f1d33	-0.07769241
131	0xbc335fff	-0.01094818
132	0x3dc3b076	0.09555142
133	0x3d1f7084	0.038925663
134	0xbc76819f	-0.0150455525
135	0x3d05772d	0.032584358
136	0x3cee926f	0.02912256
137	0xbca39cc4	-0.019972213
138	0xbb967eb9	-0.0045927432
139	0x3d3c64f4	0.045994714
140	0xbd4fd475	-0.050739724
141	0x3b6c2eb1	0.0036038572
142	0x3d8b3d69	0.067988224
143	0x3cee65dd	0.029101307
144	0xbd586f9b	-0.05284081
145	0x3c117157	0.00887712
146	0x3dab48de	0.08363508
147	0xbbe43923	-0.006964819
148	0x3ca7e926	0.020496916
149	0xbd9816c1	-0.07426215
150	0x3d38b489	0.045094047
151	0x3a11627b	0.0005545986
152	0x3c588b61	0.013216824
153	0x3d95194f	0.07280218
154	0x3d43eacf	0.047831353
155	0x3d0bb86e	0.034111433
156	0xbda26333	-0.07929077
157	0x3d85b232	0.06528129
158	0x3cd941ee	0.026520696
159	0x3bcd4c03	0.006265165
160	0x3daa39c4	0.08311799
161	0x3c8fb5a9	0.017542677
162	0x3cca3cb6	0.024687152
163	0xbb90e168	-0.004421402
164	0x3b8a59cf	0.004222132
165	0xbb83985c	-0.0040159654
166	0xbc7adcf3	-0.015311467
167	0x3d0d0571	0.034429017
168	0xbd41d00e	-0.047317557
169	0x3d304a92	0.043039866
170	0x3d813c81	0.06310368
171	0x3d1d082a	0.038337864
172	0xbd1522f9	-0.036410306
173	0x3d641978	0.05568835
174	0x3d69d5e3	0.057088744
175	0x3d2b3e45	0.04180743
176	0xbd466014	-0.04843147
177	0xbd99b1cc	-0.07504615
178	0xbcd37bea	-0.025815923
179	0xbd570f3a	-0.052504756
180	0xbd03324f	-0.0320304
181	0x3d8f1cbd	0.06987903
182	0xbd012156	-0.031525932
183	0xbdbfdc97	-0.09368246
184	0x3d136702	0.035986908
185	0xbd5f76a2	-0.054556496
186	0xbb4de3c3	-0.0031416274
187	0x3d8868c1	0.06660605
188	0x3d0c0c1a	0.03419123
189	0xbdadb258	-0.08481282
190	0xbd69cd80	-0.057080746
191	0x3da5b6d4	0.08091512
192	0xbd999c45	-0.07500509
193	0x3c2a1f32	0.010383414
194	0x3d31d75d	0.043418277
195	0xbcefda6d	-0.029278958
196	0x3db160b7	0.08661025
197	0xbd2ff34e	-0.042956643
198	0xbd3687de	-0.044563167
199	0xbb62c2db	-0.0034601006
200	0x3c85785c	0.016292743
201	0xbda729e8	-0.0816229
202	0xbc768914	-0.01504733
203	0xbcce733a	-0.025201429
204	0xbd2dfa0d	-0.042474795
205	0x3d939f38	0.07208103
206	0x3d4a23bb	0.04935048
207	0xbca55832	-0.020183656
208	0x3d94bccc	0.07262573
209	0xbce2abdc	-0.02766984
210	0xbbd545cb	-0.006508564
211	0x3d7c098e	0.06153255
212	0x3b1ea2a9	0.002420584
213	0x3d8a1af7	0.067434244
214	0xbce6bec8	-0.028167143
215	0x3d62b5ab	0.055349033
216	0xbd56cd62	-0.052441962
217	0x3cbe082b	0.023197254
218	0x3c903f34	0.017608263
219	0x3d8ec752	0.06971611
220	0xbd717166	-0.058946036
221	0x3dabe5eb	0.08393463
222	0x3d85bfc5	0.06530718
223	0xbc15ff8b	-0.0091551645
224	0x3c66e402	0.014092447
225	0xbd9100d0	-0.07080233
226	0x3c587164	0.013210628
227	0xbd928537	-0.07154315
228	0x3c085c92	0.008322852
229	0xbbacf903	-0.005278708
230	0xbd7411ca	-0.059587277
231	0xbd099f11	-0.033598963
232	0xbcb3e3a8	-0.02195914
233	0xbc0e2457	-0.008675656
234	0xbd57a658	-0.052648872
235	0xbda7b21a	-0.08188267
236	0x3d90b931	0.070665725
237	0x3d537eec	0.051634714
238	0xbd8920e9	-0.0669573
239	0xbd875047	-0.066071086
240	0xbd79c827	-0.060981896
241	0xbdbbceaf	-0.09170281
242	0xbd24f0ac	-0.040268585
243	0xbcbdef1f	-0.02318531
244	0x3cbda415	0.02314953
245	0xbd55306c	-0.05204813
246	0xbd65456b	-0.055974405
247	0x3d14e98f	0.03635555
248	0x3c77a0b8	0.015114002
249	0xbd2894e0	-0.041157603
250	0xbb238fed	-0.0024957613
251	0x3d93a9b6	0.07210104
252	0x3d2b102a	0.041763462
253	0x3dbca490	0.09211075
254	0xbcc66d88	-0.02422215
255	0xbd847344	-0.06467298

lstm.weight_ih_l1 f4 [512, 128]
0	0xbd0ea366	-0.034823798
1	0x3c3926d7	0.011300764
2	0x3d0b0daa	0.033948578
3	0xbda49514	-0.08036247
4	0x3dc4022b	0.09570726
5	0x3db38dd3	0.08767285
6	0xbcb74d3d	-0.022375697
7	0x3d88ab11	0.06673253
8	0xbb50c483	-0.0031855411
9	0x3c3755f1	0.011189924
10	0x3d3286c4	0.043585554
11	0xbd775853	-0.060386967
12	0x3e3d0b08	0.1846124
13	0xbdb1c93a	-0.08680959
14	0xbd1cc24c	-0.038271233
15	0x3aa8bbe3	0.0012873377
16	0x3d701c25	0.05862059
17	0xbd00821f	-0.031374093
18	0x3d824492	0.06360735
19	0x3c8fcd2e	0.017553892
20	0x3d905385	0.0704718
21	0xbdb2e13a	-0.08734365
22	0x3d86e578	0.065867364
23	0xbd98cf4b	-0.07461413
24	0x3d80b83a	0.062851384
25	0x3d21e911	0.03952891
26	0xbdd7447b	-0.105111085
27	0x3d8e6df9	0.06954569
28	0x3db5c9e4	0.08876398
29	0xbaf67d69	-0.0018805686
30	0xbb3c39cc	-0.0028720973
31	0x3d1a25fe	0.03763389
32	0x3c1e9800	0.009679794
33	0x3d9b5680	0.07584858
34	0xbcfce91d	-0.030872876
35	0x3ca0b86d	0.019619191
36	0x3d39844c	0.045292184
37	0x3da4f75a	0.08054991
38	0x3d990e68	0.07473451
39	0x3d65f671	0.056143228
40	0xbdc2fed6	-0.09521262
41	0xbd954f06	-0.07290463
42	0xbcb5deee	-0.022201028
43	0x3ced85f2	0.028994534
44	0xbd60c0be	-0.054871313
45	0x3dc13e0a	0.09435661
46	0x3d244aaf	0.040110286
47	0xbde1c2c8	-0.1102348
48	0x3d66c8ae	0.056343727
49	0xbca29c22	-0.01984984
50	0x3d2e40c8	0.04254225
51	0xbcbe3f38	-0.023223504
52	0xbd952470	-0.072823405
53	0x3d9516f0	0.072797656
54	0x3c4e2938	0.0125830695
55	0x3d006485	0.031345863
56	0xbcea0d55	-0.02857081
57	0xbca3a627	-0.019976689
58	0x3d10ec0c	0.03538136
59	0xbd8f7490	-0.070046544
60	0xbd1eb02b	-0.038742226
61	0x3be96599	0.007122707
62	0xbd66124e	-0.0561698
63	0x3ad48efa	0.0016216927
64	0xbd2971f5	-0.041368444
65	0x3d8cfe1c	0.06884405
66	0xbdaf880d	-0.085708715
67	0xbd9aa50f	-0.07551014
68	0xbd9d92b6	-0.076939985
69	0xbd249e76	-0.040190183
70	0x3d031698	0.03200397
71	0x3d47f6b7	0.04881927
72	0xbd84f503	-0.06492045
73	0xbad5cb0f	-0.0016311127
74	0x3da0ad69	0.07845575
75	0x3d75774d	0.059928227
76	0x3dc89513	0.09794059
77	0x3bdc87e2	0.0067300657
78	0x3dba9154	0.091097504
79	0xbda972e4	-0.08273867
80	0xbc4f8b69	-0.012667515
81	0xbdc643bf	-0.0968089
82	0x3c943aba	0.01809441
83	0x3c28da3a	0.0103059355
84	0xbcd71242	-0.026253823
85	0xba8be595	-0.0010673279
86	0xbd89829f	-0.06714367
87	0x3ba89ece	0.005145884
88	0xbd198f59	-0.037490223
89	0xbd42e679	-0.047583077
90	0xbd742932	-0.0596096
91	0x3d507c2e	0.050899677
92	0xbd3ab66e	-0.045584135
93	0x3da122c0	0.07867956
94	0xbc93c057	-0.01803605
95	0x3c82390c	0.015896343
96	0xbcbe6066	-0.023239326
97	0x3d9f054c	0.07764682
98	0xbc8fa0e3	-0.017532771
99	0x3c5ec4e8	0.013596751
100	0xbbef9f67	-0.0073127034
101	0xbd99015b	-0.07470962
102	0xbd1e731e	-0.038684003
103	0xbd6d7f35	-0.057982642
104	0x3d6ceee2	0.057845004
105	0x3d5216f3	0.051291417
106	0xbc618ae0	-0.013766021
107	0xbd0f75b6	-0.035024367
108	0x3d1b359f	0.037892934
109	0x3cb14ac0	0.021642089
110	0xbd4865b2	-0.04892511
111	0xbd4f93e9	-0.050678167
112	0x3d248b20	0.040171742
113	0xbdbd5f50	-0.09246695
114	0x3de6b3b0	0.112647414
115	0xbde55cd0	-0.11199343
116	0x3d72bdd1	0.059263054
117	0x3d972936	0.07380907
118	0xbcbc7bf7	-0.02300833
119	0xbd87e47e	-0.06635378
120	0xbd3d1337	-0.046160903
121	0x3d55352a	0.052052654
122	0xbde414e5	-0.11136798
123	0xbbbad51d	-0.0057016746
124	0x3ca762b0	0.0204328
125	0xbdc13b51	-0.09435142
126	0x3d89a7e8	0.06721479
127	0x3d5ebc7e	0.05437898
128	0xbc97c9e1	-0.01852888
129	0x3d60803b	0.05480979
130	0xbd88d99c	-0.06682131
131	0x3d74cb2e	0.05976408
132	0xbd3f9d55	-0.046780903
133	0x3d6420c6	0.055695318
134	0xbd80df59	-0.062926
135	0x3d6f2ec3	0.058394205
136	0x3d071918	0.032982916
137	0xbd20f2c1	-0.03929401
138	0xbcc12386	-0.02357651
139	0xbcba1eae	-0.022719707
140	0x3dde693e	0.10859917
141	0xbd1ad051	-0.037796322
142	0x3d8ed9cf	0.069751374
143	0x3d797f4f	0.060912427
144	0xbd8d46f8	-0.06898302
145	0xbd10b2a8	-0.03532663
146	0x3ca90b02	0.020635132
147	0x3db1640b	0.0866166
148	0x3c82fc89	0.015989559
149	0x3d74e854	0.059791878
150	0xbd3556b9	-0.04427216
151	0xbca6eb4d	-0.020375872
152	0x3d31bf52	0.043395348
153	0x3d16154d	0.036641408
154	0xbd574f8f	-0.052566107
155	0xbcf0a79e	-0.029376801
156	0xbd980318	-0.07422465
157	0xbb8c11cb	-0.004274582
158	0x3ddb0cd9	0.1069581
159	0xbd8d633b	-0.06903692
160	0x3db8f8ca	0.09031828
161	0xbd2f126d	-0.04274218
162	0xbc896eb3	-0.016776418
163	0xbda1a557	-0.07892864
164	0x3a153427	0.000569167
165	0x3d832af0	0.06404674
166	0x3d3e8753	0.046515774
167	0xbda059a4	-0.078295976
168	0x3cc9d2a0	0.024636567
169	0xbd560ecb	-0.0522602
170	0xbdbcf41b	-0.09226247
171	0xbd8629fc	-0.06550977
172	0x3d349f14	0.04409702
173	0x3d65e065	0.056122202
174	0x3d17b487	0.0370374
175	0xbb720133	-0.0036926984
176	0xbdbc3b03	-0.09190943
177	0x3daed476	0.085366175
178	0xbd26bbe4	-0.04070653
179	0xbcd9e879	-0.02660011
180	0x3d26c13a	0.04071162
181	0x3d52893c	0.05140041
182	0xbd6272ad	-0.055285145
183	0x3d8f688f	0.07002365
184	0x3cda380e	0.026638057
185	0xbd6177e4	-0.055045977
186	0x3d7eb3a5	0.06218304
187	0x3c2dbc87	0.01060403
188	0xbd61be47	-0.055113103
189	0x3da87912	0.08226217
190	0xbd00d4a8	-0.031452805
191	0xbcc62ba3	-0.02419073
192	0xbbe24b5f	-0.0069059576
193	0x3d5d164c	0.053976342
194	0x3bb5512b	0.0055333576
195	0xbd1f3a3f	-0.038873907
196	0xbd0deae7	-0.03464785
197	0x3d73ffb9	0.059570048
198	0x3c364b97	0.01112642
199	0x3c58db1c	0.0132358335
200	0x3c796721	0.015222342
201	0x3da4081a	0.08009358
202	0xbd1176be	-0.035513632
203	0xbbef2065	-0.007297563
204	0x3dc271ee	0.094943866
205	0xbd6d570a	-0.057944335
206	0x3afe0ab8	0.0019381857
207	0xbb948682	-0.004532636
208	0xbd836e3c	-0.0641751
209	0xbd80d235	-0.06290094
210	0x3cb835b2	0.022486541
211	0xbd99f15f	-0.07516741
212	0x3bd49bc9	0.0064882976
213	0x3d22db3f	0.03975987
214	0x3d896681	0.06709004
215	0x3c7d0ac3	0.01544446
216	0xbdc46d68	-0.0959118
217	0xbdc0d8f6	-0.09416382
218	0xbd1681de	-0.036744945
219	0xbd8b2011	-0.067932256
220	0xbd88f063	-0.06686475
221	0xbc505aba	-0.012716943
222	0x3d029053	0.03187592
223	0xbd5eb45f	-0.054371234
224	0xbde9a84a	-0.11409052
225	0x3d178d3a	0.03699992
226	0xbdaddeb1	-0.08489741
227	0xbca3e2da	-0.020005632
228	0x3d1bad13	0.038006853
229	0xbd5a8146	-0.05334594
230	0x3d4739f2	0.048639245
231	0xbd0161f0	-0.03158754
232	0xbd602a57	-0.05472788
233	0x3d6619c8	0.05617693
234	0x3d2b15c5	0.041768808
235	0x3da0e9a2	0.07857062
236	0x3d856abf	0.06514501
237	0x3da8f9a9	0.08250744
238	0x3d2630bd	0.040573824
239	0xbd7ac89f	-0.061226483
240	0x3d4d08b5	0.05005713
241	0x3d5240c6	0.051331304
242	0x3dd8507e	0.10562228
243	0xbdae5fb7	-0.0851435
244	0x3d4b09c1	0.04956985
245	0x3d081d45	0.03323104
246	0x3d338889	0.043831382
247	0xbb819f55	-0.0039557614
248	0xbd82cdb5	-0.06386892
249	0xbdaff50f	-0.08591663
250	0x3c9a6656	0.018847626
251	0x3ce8627f	0.02836728
252	0x3dcbdf33	0.09954681
253	0xbdac78e2	-0.08421494
254	0xbd263e79	-0.040586922
255	0xbc369b29	-0.0111453915

lstm.weight_hh_l1 f4 [512, 128]
0	0xbda9ed0f	-0.082971685
1	0xbc3c6752	-0.011499243
2	0x3d9964e6	0.07489948
3	0xbc46804d	-0.01211555
4	0xbd8a5524	-0.067545205
5	0x3c9c572b	0.019084534
6	0xbd28705a	-0.04112277
7	0x3d9f8b66	0.0779026
8	0x3c531fcc	0.012885999
9	0xbce2e58e	-0.02769735
10	0xbd1b1b32	-0.037867732
11	0x3ce8a3bf	0.028398393
12	0x3d306e94	0.043074206
13	0xbce8278c	-0.02833917
14	0x3b5bc530	0.003353428
15	0x3d9aa28e	0.07550536
16	0xbd207c65	-0.039181132
17	0xbd983576	-0.07432072
18	0x3c3f338d	0.0116700055
19	0xbd8a8073	-0.06762781
20	0x3d853d58	0.06505841
21	0x3bdd2020	0.0067482144
22	0xbafddb85	-0.001936779
23	0x3d8f0301	0.06982995
24	0xbd59ea46	-0.053201936
25	0x3d948405	0.07251743
26	0xbd2d9a5a	-0.04238353
27	0xb9026a96	-0.00012437472
28	0xbb637f9f	-0.003471352
29	0xbda2bdef	-0.07946383
30	0x3c5cacd5	0.013468941
31	0x3c3ccb51	0.011523084
32	0xbcb17381	-0.021661522
33	0x3ba77ad6	0.0051110787
34	0xbd130204	-0.035890594
35	0xbd98fae5	-0.07469729
36	0x3d8488ed	0.06471429
37	0x3d83a054	0.064270645
38	0x3cd1d569	0.025614457
39	0xbc64c056	-0.013961872
40	0xbdb760ec	-0.08954033
41	0x3ccce1be	0.025009986
42	0xbd303f03	-0.043028843
43	0xbd327ced	-0.04357617
44	0xbdc1995a	-0.094530776
45	0xbd52ab45	-0.051432867
46	0xbc5e1593	-0.013554948
47	0xbc32a28b	-0.010903011
48	0xbde3c7c5	-0.111220874
49	0xbdb519a9	-0.08842785
50	0x3d70cc95	0.058788855
51	0x3d8bffd6	0.06835906
52	0x3b48f67a	0.003066449
53	0xbd8de3ea	-0.06928237
54	0xbd6795c4	-0.056539312
55	0x3cae9b15	0.021314183
56	0x3d5d4288	0.054018527
57	0xbd41f8b0	-0.047356308
58	0xbda4c18f	-0.08044731
59	0xbc43d9ed	-0.011953813
60	0x3d67edde	0.056623332
61	0x3caadb4b	0.02085652
62	0xbc772098	-0.015083455
63	0xbd9be1ec	-0.076114506
64	0xbd5e139f	-0.05421793
65	0xbd89c01d	-0.06726096
66	0x3cf77509	0.030207174
67	0xbd5a147d	-0.053242195
68	0x3c0cb49b	0.008587982
69	0x3db886fb	0.090101205
70	0xbbb3e1ac	-0.0054895487
71	0x3d9686f6	0.073499605
72	0xbbb95faf	-0.0056571583
73	0xbd577d9f	-0.052610036
74	0x3cd97917	0.026546998
75	0x3ca85b5d	0.020551378
76	0x3cc7879a	0.024356652
77	0xbc3babb1	-0.011454509
78	0xbc8a6395	-0.016893188
79	0xbd1adad0	-0.037806332
80	0xbd0c623b	-0.034273367
81	0x3d970405	0.073738135
82	0xbd95c485	-0.07312874
83	0x3d824217	0.06360262
84	0xbccbca31	-0.024876686
85	0x3d0fced1	0.035109345
86	0x3dd3f5ca	0.10349615
87	0xbd742e31	-0.059614364
88	0xbd8bef19	-0.06832714
89	0xbc0838a6	-0.008314287
90	0xbc73a46c	-0.014870744
91	0x3d8403f8	0.064460695
92	0xbd778a44	-0.060434595
93	0xbd3da92b	-0.04630391
94	0x3d916576	0.0709943
95	0xbdb4f865	-0.0883644
96	0xbc4cf9c1	-0.012510718
97	0x3d6719e8	0.05642119
98	0xbd1c0336	-0.038089
99	0x3ccb6bc6	0.024831664
100	0xbd5548dd	-0.05207144
101	0x3ce1f1f3	0.02758119
102	0x3d8459ac	0.06462416
103	0xbd0db336	-0.034594737
104	0x3d487074	0.04893537
105	0x3cbc9001	0.023017885
106	0xbc97deb6	-0.018538814
107	0x3d63bbc5	0.055598993
108	0xbdd83477	-0.10556882
109	0x3da1d880	0.07902622
110	0xbd695a43	-0.056970846
111	0x3bb7032e	0.005585096
112	0xbce48bb6	-0.02789865
113	0x38b41a8c	8.5880136e-05
114	0xbda328d8	-0.07966775
115	0xbcd9f003	-0.026603704
116	0x3db7a0ac	0.089661926
117	0xbdb3d2e4	-0.087804586
118	0xbdc20a19	-0.09474582
119	0x3d868985	0.065691985
120	0xbd26037c	-0.040530667
121	0x3d671a73	0.05642171
122	0xbc1653f2	-0.009175288
123	0xbd0321fe	-0.03201484
124	0xbd9c9ad7	-0.07646721
125	0x3b2e1de8	0.0026568118
126	0x3d4605b6	0.04834529
127	0x3db51b25	0.08843068
128	0x3c688932	0.014192866
129	0x3d895c1a	0.0670702
130	0x3cfcaf84	0.030845411
131	0xbdb7eabb	-0.08980318
132	0xbcb322e1	-0.021867217
133	0xbcbcfa94	-0.023068704
134	0xbdad9eb0	-0.08477533
135	0x3d9f730d	0.07785616
136	0xbd84e809	-0.0648957
137	0xbd46964d	-0.04848318
138	0x3d10c057	0.03533968
139	0xbd07b142	-0.03312803
140	0xbd8be9d4	-0.068317086
141	0xbd9be3f8	-0.07611841
142	0xbd83e930	-0.06440961
143	0xbd4d01e1	-0.05005062
144	0xbb950fa3	-0.004548983
145	0xbd8fd71c	-0.07023451
146	0xbbc1cd3d	-0.005914359
147	0x3da00000	0.078125
148	0x3b833038	0.004003551
149	0xbcaf93fb	-0.021432867
150	0x3d8f72db	0.07004329
151	0x3d237287	0.039904144
152	0xbc2fb21d	-0.010723618
153	0x3bcf691c	0.0063296687
154	0x3b5d1b37	0.0033738145
155	0x3d8bc02e	0.06823765
156	0xbc9a64c9	-0.018846886
157	0x3c939838	0.01801692
158	0xbcaf7d10	-0.02142194
159	0x3d49d65a	0.049276687
160	0x3c8540cb	0.016266247
161	0xbd898e1a	-0.06716557
162	0x3d6799d6	0.056543194
163	0x3d037922	0.032097943
164	0x3ba062db	0.004894597
165	0xbd479060	-0.04872167
166	0xbd926b1e	-0.07149337
167	0xbd6537cb	-0.05596141
168	0xbdac2ca1	-0.0840695
169	0x3b432fd8	0.0029783156
170	0x3c191974	0.009344447
171	0xbc69222e	-0.0142293405
172	0x3d3d114c	0.046159074
173	0x3dad8849	0.0847326
174	0xbd01c4dc	-0.03168188
175	0x3d0cacb8	0.034344405
176	0xbdc4e205	-0.09613422
177	0x3d9c2cc5	0.076257266
178	0x3c3f85de	0.011689631
179	0xbd7b6319	-0.061373804
180	0x3d24a39c	0.040195093
181	0x3c8ad6fc	0.016948216
182	0x3d9f2069	0.077698536
183	0xbd17b53f	-0.037038084
184	0x3db66b7f	0.08907222
185	0xbd126a15	-0.0357457
186	0xbda50131	-0.08056868
187	0x3dafc74c	0.08582935
188	0xbd3394cd	-0.04384308
189	0x3da242e9	0.07922918
190	0xbd8b6c31	-0.06807745
191	0x3c05e73e	0.008172808
192	0xbd1be06e	-0.03805583
193	0x3d1460b4	0.036225036
194	0x3b7cc991	0.0038572291
195	0x3d2885de	0.04114329
196	0xbd051345	-0.03248908
197	0x3d9e6b80	0.07735348
198	0x3d88fc5b	0.06688758
199	0xbcd5f8ea	-0.026119668
200	0x3d14d8b7	0.036339488
201	0x3d3ee8af	0.046608623
202	0xbc41ad7c	-0.011821147
203	0x3d055a22	0.03255666
204	0x3d6ca87b	0.057777863
205	0x3d9b34dd	0.07578442
206	0xbce58eba	-0.028022159
207	0x3cd3287b	0.025776139
208	0x3ccb0edf	0.024787365
209	0x3d0b5b7e	0.0340228
210	0xbceca756	-0.028888386
211	0xbc040350	-0.00805743
212	0x3c884901	0.016636373
213	0x3c34e4ea	0.0110409055
214	0xbd8676d3	-0.06565633
215	0x3d73426e	0.059389524
216	0xbd82350b	-0.063577734
217	0xbda90a53	-0.08253922
218	0x3d95915f	0.07303118
219	0x3d41e69a	0.04733906
220	0xbc92ee3a	-0.01793586
221	0x3d1c26d5	0.03812297
222	0x3d4bdca4	0.049770966
223	0xbd9df8bd	-0.07713459
224	0xbd4eccfa	-0.05048845
225	0x3d35ebfa	0.044414498
226	0xbdac2c30	-0.084068656
227	0x3d50246e	0.050815992
228	0xbc43b058	-0.011943899
229	0xbd3748f1	-0.044747297
230	0xbc544258	-0.012955271
231	0xbb13386e	-0.0022464055
232	0xbd70d0ce	-0.05879288
233	0x3da62f9c	0.081145495
234	0x3cc491df	0.023995338
235	0x3ca99651	0.02070156
236	0xbd460900	-0.048348427
237	0x3d289e47	0.04116657
238	0xbb964861	-0.004586265
239	0x3d0e0329	0.034670983
240	0xbccb5451	-0.024820479
241	0x3d807a4d	0.06273327
242	0xbcd96559	-0.026537584
243	0xbc38cf02	-0.011279823
244	0xbd31e273	-0.04342885
245	0xbd2ec8b4	-0.042671874
246	0x3d8721c2	0.06598236
247	0x3d8db453	0.0691916
248	0x3c2d0ca7	0.010562099
249	0xbdb642e1	-0.08899475
250	0xbda067c6	-0.07832293
251	0x3d10c5c8	0.03534487
252	0xbc2cf7e7	-0.010557151
253	0xbd3b74d0	-0.045765698
254	0xbd2bac7e	-0.04191255
255	0x3d5748c3	0.052559625

lstm.bias_ih_l1 f4 [512]
0	0x3dd845ef	0.10560214
1	0x3d2d41ef	0.042299207
2	0xbcacc559	-0.021090196
3	0x3c45aee5	0.012065624
4	0xbc38b21c	-0.011272933
5	0x3d86ad06	0.0657597
6	0xbc65028b	-0.013977657
7	0xbd6a2b48	-0.057170182
8	0x3d8e575d	0.06950257
9	0xbcbed90e	-0.02329686
10	0x3ccb84e5	0.024843642
11	0xbdb1e8d6	-0.08686988
12	0xbc820f83	-0.015876537
13	0xbc8a4421	-0.01687819
14	0xba9d99fd	-0.0012024041
15	0x3cbb5bcb	0.022870919
16	0x3d437388	0.0477176
17	0x3ca43b3c	0.020047776
18	0x3d81a6ab	0.063306175
19	0xbc9b6445	-0.01896871
20	0xbd4bbb08	-0.049738914
21	0x3d8f5af4	0.0699977
22	0x3c597bac	0.013274115
23	0xba736804	-0.0009285214
24	0x3d250589	0.04028848
25	0xbd25959a	-0.040425874
26	0xbd4ba31a	-0.049716093
27	0x3c2e273f	0.010629474
28	0x3d9cb6de	0.07652067
29	0x3da60823	0.08107021
30	0xbd84a25e	-0.064762816
31	0xbd61b656	-0.05510553
32	0x3dc34950	0.095354676
33	0xbd9ddf2c	-0.07708582
34	0xbd77f3f1	-0.060535375
35	0xbd814d6e	-0.06313597
36	0x3d7c7328	0.06163326
37	0xbcebda1d	-0.028790528
38	0xbd058e16	-0.032606207
39	0x3dcfdc5e	0.101494536
40	0xbcd1e9f3	-0.025624251
41	0x3cea34c6	0.028589617
42	0xbce95ecf	-0.028487591
43	0xbd240cc8	-0.04005125
44	0x3d2b16e3	0.041769873
45	0xbda5b31a	-0.080908015
46	0xbcf38608	-0.029726997
47	0xbcd15de9	-0.025557475
48	0x3d6dbaae	0.05803936
49	0xbbb27eba	-0.005447236
50	0xbb9dee3b	-0.004819659
51	0x3d919cb4	0.07109967
52	0xbd7ccf21	-0.06172097
53	0xbcdd8278	-0.027039751
54	0xbd33273d	-0.043738592
55	0xbd880a1a	-0.06642552
56	0x3d1f9f1d	0.0389701
57	0x3d18cec1	0.03730655
58	0xbc9d62cc	-0.01921215
59	0x3c22c976	0.009935727
60	0xbd958e8a	-0.07302578
61	0x3d25e946	0.04050567
62	0x3a860b6e	0.0010226795
63	0xbd309973	-0.04311509
64	0x3d7bb312	0.06145007
65	0x3d4dfd2b	0.050290268
66	0xbd3ed2d3	-0.046587776
67	0xbd378280	-0.04480219
68	0x3de4527a	0.11148544
69	0xbc57fd5b	-0.013182963
70	0x3c9cfc5b	0.019163301
71	0x3d8c6461	0.06855083
72	0x3d2baa33	0.04191036
73	0x3d2064bd	0.03915857
74	0x3d614317	0.054995622
75	0x3d65a3f2	0.056064554
76	0x3d47db13	0.04879291
77	0x3d4a80c0	0.04943919
78	0x3d0a0bb0	0.033702552
79	0xbd7eb36f	-0.06218284
80	0x3d973a9a	0.07384224
81	0x3d8d160b	0.0688897
82	0xbd3bf59b	-0.045888525
83	0xbd6bbf00	-0.0575552
84	0x3d9f3577	0.077738695
85	0xbc73d8a4	-0.014883194
86	0x3b12a8ce	0.0022378447
87	0x3db09b36	0.08623354
88	0xbb3518bd	-0.0027633153
89	0x3d84c33f	0.06482553
90	0x3d4db290	0.05021912
91	0x3c92d0c9	0.017921822
92	0xbd265f18	-0.040618032
93	0xbd67dc96	-0.05660685
94	0x3d1eff0a	0.038817443
95	0xbd71a70e	-0.058997206
96	0x3d218e03	0.039442074
97	0x3d99985a	0.07499762
98	0x3d07f53d	0.03319286
99	0xbcba6e2b	-0.02275761
100	0xbd8cc3d8	-0.06873292
101	0xbda95264	-0.08267668
102	0x3c4d0df0	0.01251553
103	0x3d0c7211	0.03428847
104	0xbd5395ad	-0.051656414
105	0xbdbd25fc	-0.092357606
106	0x3d69d816	0.05709084
107	0x3da25ee4	0.07928255
108	0xbdb489a4	-0.08815315
109	0x3a4c7643	0.0007799605
110	0xbd3ec936	-0.04657861
111	0x3ceef860	0.029171169
112	0x3d2615ed	0.040548254
113	0xbc2c5ad7	-0.010519705
114	0x3d7f621c	0.062349424
115	0x3a9275cb	0.0011174021
116	0x3dfde0ce	0.12396394
117	0xbd9f2c30	-0.077721
118	0x3da3aead	0.07992301
119	0xbc29c4b8	-0.010361843
120	0xbd10302b	-0.035202187
121	0x3d5507a8	0.052009255
122	0xbd608ed3	-0.054823708
123	0x3d943cce	0.0723816
124	0x3be56866	0.0070009707
125	0xbb36e44a	-0.0027907067
126	0xbd9c74ad	-0.07639442
127	0xbd3d1462	-0.046162017
128	0xbd414b33	-0.047190856
129	0xbd87820e	-0.06616603
130	0xbc596349	-0.0132683
131	0xbd864eb6	-0.06557982
132	0x3d7db71c	0.061942205
133	0x3bbecc54	0.0058226977
134	0x3d296d68	0.041364104
135	0x3cf4e9c1	0.029896619
136	0xbdba5d74	-0.09099856
137	0x3d2de103	0.042450916
138	0x3d914321	0.07092882
139	0xbc96e4f1	-0.018419715
140	0x3d122be7	0.0356864
141	0x3d3bd8c0	0.045861006
142	0x3d9ec414	0.07752243
143	0x3d50f55b	0.05101524
144	0xbca7201e	-0.020401057
145	0x3db13435	0.08652536
146	0x3d7b6f51	0.061385456
147	0x3d1d0f60	0.03834474
148	0xbd2ea331	-0.0426361
149	0xbda33bec	-0.079704136
150	0xbd801834	-0.062546164
151	0xbd1a85fb	-0.03772543
152	0xbd0cb663	-0.034353625
153	0xbd48e486	-0.049046062
154	0xbd947f5d	-0.07250855
155	0xbd273871	-0.04082531
156	0x3d154b44	0.036448732
157	0x3d423526	0.047413968
158	0xbdc0d0e4	-0.09414843
159	0x3cee6b90	0.029104024
160	0xbc1c5c4e	-0.0095434915
161	0x3cbd2a7c	0.023091547
162	0x3c40242d	0.011727375
163	0xbc5f1bf8	-0.013617508
164	0xbaa563af	-0.0012618209
165	0xbc110367	-0.008850909
166	0xbcab3120	-0.020897448
167	0x3b2b70e3	0.0026159815
168	0xbd1fbaf4	-0.03899665
169	0x3ccae35d	0.024766618
170	0x3ac04252	0.0014668202
171	0xbcb1e467	-0.021715356
172	0x3daa9251	0.08328689
173	0xbd9242f2	-0.07141675
174	0x3dbe4ecd	0.09292374
175	0xbd036ef9	-0.032088254
176	0xbc88117c	-0.0166099
177	0xbd1d3c30	-0.038387477
178	0xbc9d3932	-0.019192312
179	0x3c959de6	0.018263768
180	0x3d62f052	0.05540497
181	0x3d90e5ca	0.07075079
182	0xbdb14ba2	-0.08657004
183	0xbd99a94f	-0.07502996
184	0x3d081618	0.033224195
185	0xbd88c4e6	-0.066781804
186	0x3cd3deb7	0.025863035
187	0xbdc26193	-0.09491267
188	0x3da8edb8	0.08248466
189	0xbd2a8c9f	-0.041638013
190	0xbda20d53	-0.07912698
191	0x3d0a412f	0.03375357
192	0xbce199ee	-0.02753922
193	0x3da6e7be	0.0814967
194	0xbd854be6	-0.06508617
195	0x3c8d70b8	0.017265663
196	0x3cc9c39d	0.024629408
197	0x3dad4401	0.08460236
198	0xbd36518d	-0.044511367
199	0x3a9821a4	0.0011606705
200	0xbbc068f2	-0.0058718855
201	0x3d88451a	0.06653805
202	0x3c92d57d	0.017924065
203	0x3d305fa1	0.04305995
204	0xbd64a119	-0.055817697
205	0xbd93a56d	-0.07209287
206	0x3d6b5cdc	0.057461604
207	0xbd454c8b	-0.0481687
208	0xbd3ffec5	-0.046873827
209	0x3d2269bb	0.039651614
210	0x3d11a1fc	0.03555487
211	0xbd5a7e0c	-0.053342864
212	0xbd090cee	-0.033459596
213	0x3b0cb4d5	0.002147009
214	0xbcf9ea27	-0.03050716
215	0x3ca6894f	0.020329146
216	0x3d05708f	0.032578047
217	0xbd90c1c0	-0.07068205
218	0x3bcbeac6	0.0062230555
219	0x3ceeca56	0.029149216
220	0xbd47a552	-0.048741646
221	0xbcbc6151	-0.022995623
222	0x3cb19b14	0.021680392
223	0xbd85e0d3	-0.065370224
224	0xbcb7dde3	-0.022444671
225	0x3d927ed3	0.07153096
226	0xbd7822b3	-0.060579967
227	0xbd7cb2f2	-0.061694093
228	0xbc978029	-0.018493729
229	0xbcd6c196	-0.026215356
230	0xbc3d2cf8	-0.011546366
231	0x3d81c6aa	0.0633672
232	0x3d73bb44	0.059504762
233	0x3d0b5f49	0.034026418
234	0x3cf40f2d	0.029792393
235	0x3d676918	0.05649671
236	0xbdc76822	-0.09736659
237	0x3ce5cb48	0.028051034
238	0x3d24d7f6	0.04024502
239	0xbcdcd432	-0.026956651
240	0xbccd3aa6	-0.02505238
241	0x3d97091d	0.07374785
242	0x3bc9b0fa	0.0061551305
243	0xbc0e2574	-0.008675922
244	0xbd9d0f57	-0.076689415
245	0x3d879405	0.06620029
246	0x3d9d7c0e	0.07689677
247	0x3d5d377d	0.054007996
248	0x3b62cbe3	0.003460639
249	0x3d78e005	0.060760517
250	0x3c5711df	0.013126819
251	0x3bf459f6	0.0074570132
252	0xbd983574	-0.074320704
253	0xbdaa9ff7	-0.08331292
254	0xbcebb386	-0.028772127
255	0xbcb8c10f	-0.022552995
