models/0002.HK_lstm_SMA50_diff.pth (torch, 807217 bytes, 9 tensors)

lstm.weight_ih_l0 f4 [512, 4]
0.032633025 -0.046150416 -0.08367919 0.030325484 -0.014025906 -0.028949732 0.10223841 0.009108578
0.0704894 0.09410277 0.022414278 0.057128936 0.056763757 -0.03837261 -0.0935644 0.1631327
-0.011729223 -0.013385336 -0.018721035 0.07898628 -0.047638576 0.050594557 0.03287065 0.049153797
0.075402945 0.06538729 0.010601096 0.03381588 0.015805114 0.01501035 0.030327057 -0.0018762307
-0.030591995 0.08301047 0.016526092 0.0094801495 0.06329077 0.0076603824 -0.03517055 0.024729336
0.088684425 -0.024966454 -0.04952416 0.0122454 0.090790965 0.10207348 0.10073177 -0.027801925
0.0861196 0.11539116 -0.034265336 0.040577576 0.027335962 0.040385693 0.08542266 0.052262045
-0.0028122792 -0.026720205 0.03070123 0.007507374 0.06608705 0.09951 -0.022067975 0.09641962
-0.04170672 0.06304131 0.08747098 0.091516376 -0.016414791 -0.05052187 0.034798052 -0.0042658984
0.059305206 -0.023020728 0.06929948 -0.026761074 -0.0025368736 -0.037163712 -0.0058277403 0.016117575
-0.012352035 -0.0057553793 0.051914126 0.00055575965 0.04742137 -0.059868593 0.072977096 0.07234667
-0.038123503 -0.06573222 -0.020316564 -0.03291379 0.02579845 0.016897881 -0.015035029 -0.036481876
0.013712447 0.053291038 0.012761753 0.06365054 0.054438893 -0.04915221 0.0174297 0.011776516
-0.050222617 0.071482375 -0.007994611 -0.017157901 0.023762187 0.10967895 -0.04430823 -0.012182255
0.019321322 0.02198527 -0.028129894 0.09574705 0.04028872 0.05819538 -0.049133353 -0.032286
-0.039151665 -0.03794158 -0.030998187 -0.04834881 0.04766898 0.012749414 0.06743719 0.059301883
-0.06742982 -0.048457596 -0.01961826 -0.036405277 0.07335618 -0.009648387 0.022686027 0.0036650822
-0.015884807 0.02774284 -0.03968675 -0.04390792 -0.06332523 0.07219826 0.045611553 0.060456816
0.00023612712 0.0113220345 0.08954906 -0.061000418 -0.07273855 -0.028626211 0.04726435 0.015030502
-0.049635854 -0.018687198 0.003244771 0.069429435 -0.07684995 -0.024319228 -0.021068024 0.018175151
-0.062126677 0.053956106 -0.027167095 0.015517051 0.09149781 0.03789512 0.015889246 0.00839403
0.103145294 0.073077686 -0.081512034 0.06526518 0.010719953 -0.06758362 -0.04885775 -0.041061312
-0.05231144 0.013102546 -0.06275213 -0.10004895 0.07937776 -0.025033455 0.009485272 -0.051686905
0.10694027 0.074983254 0.1024482 -0.06361942 -0.06713528 -0.017161656 -0.021377604 -0.068621226
-0.037221313 0.011031486 0.07874129 0.09706188 0.17976148 0.107482456 0.05047321 0.097845055
0.029491631 0.07607935 0.046415742 0.054873955 -0.055234134 0.05285556 -0.016401349 -0.037827455
0.090406895 -0.04543633 -0.014495664 0.036442842 0.049753293 0.066258304 0.07241805 -0.0033846197
0.05086069 -0.064077176 0.07918409 0.054838687 -0.0024252462 -0.027777143 0.051150437 0.008730006
0.0905316 -0.0037999707 -0.056196865 -0.02269816 0.052100662 0.049940865 0.07756377 0.030850463
-0.026226956 0.043591805 0.030958716 -0.014015231 0.009858837 0.08657115 0.092459895 -0.029990988
-0.017174294 -0.00069582387 -0.0046319696 -0.023268592 -0.035904936 -0.010882757 -0.058373112 0.051457025
0.03971296 0.06750465 -0.06490284 -0.06439579 0.043564305 -0.061306003 0.01827579 0.003134193
00000000: 35aa 053d 3808 3dbd ff5f abbd 266d f83c
00000010: eacc 65bc fd27 edbc 5f62 d13d 253c 153c
00000020: bf5c 903d f4b8 c03d 269e b73c 0800 6a3d
00000030: 1d81 683d 992c 1dbd b19e bfbd 420c 273e
00000040: ed2b 40bc 2b4e 5bbc db5c 99bc 8fc3 a13d
00000050: ab20 43bd 3d3c 4f3d 60a3 063d 7e55 493d
00000060: dc6c 9a3d c6e9 853d 38b0 2d3c 8582 0a3d
00000070: ba79 813c f9ed 753c 7370 f83c dbeb f5ba
00000080: 109c fabc 6501 aa3d ba61 873c a152 1b3c
00000090: 979e 813d f203 fb3b ff0e 10bd 2d95 ca3c
000000a0: 2ea0 b53d 7386 ccbc d8d9 4abd eea0 483c
000000b0: 9df0 b93d e70b d13d 754c ce3d ddc0 e3bc
000000c0: 795f b03d 3352 ec3d cf59 0cbd ac34 263d
000000d0: abef df3c 786b 253d 13f2 ae3d ba10 563d
000000e0: 374e 38bb 55e4 dabc 2581 fb3c 6b00 f63b
000000f0: a658 873d e6cb cb3d e6c7 b4bc a677 c53d
00000100: aad4 2abd cd1b 813d fc23 b33d f06c bb3d
00000110: 5078 86bc 05f0 4ebd 6788 0e3d f3c8 8bbb
00000120: 04ea 723d f795 bcbc e3ec 8d3d 0a3a dbbc
00000130: ad41 26bb fa38 18bd a1f6 bebb 0109 843c
00000140: 3160 4abc 9f97 bcbb e8a3 543d 66b0 113a
00000150: e93c 423d c538 75bd 0475 953d 7e2a 943d
00000160: 6427 1cbd 9d9e 86bd ec6e a6bc 9cd0 06bd
00000170: 4557 d33c 6d6d 8a3c 7b55 76bc 056e 15bd
00000180: 2caa 603c b447 5a3d ac16 513c 375b 823d
00000190: 51fb 5e3d d453 49bd bbc8 8e3c 4af2 403c
000001a0: 3bb6 4dbd 5a65 923d d4fb 02bc ba8e 8cbc
000001b0: eba8 c23c 5b9f e03d 8c7c 35bd 1598 47bc
000001c0: c047 9e3c 741a b43c aa70 e6bc 0817 c43d
000001d0: c905 253d 475e 6e3d 0e40 49bd 533e 04bd
000001e0: 7f5d 20bd a168 1bbd e9ef fdbc 6709 46bd
000001f0: 8c40 433d ebe2 503c 821c 8a3d 88e6 723d
00000200: a518 8abd 797b 46bd 79b6 a0bc b31d 15bd
00000210: c43b 963d 4514 1ebc 0cd8 b93c e031 703b
00000220: db20 82bc f444 e33c 938e 22bd cbd8 33bd
00000230: a8b0 81bd aedc 933d 2ed3 3a3d 91a1 773d
00000240: e498 7739 0e80 393c 7f65 b73d 93db 79bd
00000250: f3f7 94bd 8481 eabc 4398 413d 7f42 763c
00000260: f74e 4bbd e515 99bc 39a6 543b 0531 8e3d
00000270: 8263 9dbd 1e39 c7bc d996 acbc 0ee4 943c
00000280: 8b78 7ebd 1401 5d3d 878d debc 3b3b 7e3c
00000290: 3463 bb3d ea37 1b3d 2a2a 823c 1d87 093c
000002a0: d73d d33d c1a9 953d c8ef a6bd c0a9 853d
000002b0: bea2 2f3c 4869 8abd 101f 48bd e82f 28bd
000002c0: 8544 56bd 10ac 563c 3084 80bd 77e6 ccbd
000002d0: cf90 a23d f612 cdbc 1d68 1b3c a6b5 53bd
000002e0: 8003 db3d d290 993d 5dd0 d13d e64a 82bd
000002f0: 397e 89bd 9a96 8cbc 1620 afbc 4989 8cbd
00000300: 6075 18bd 68bd 343c 1d43 a13d 61c8 c63d
00000310: 6513 383e c31f dc3d ffbc 4e3d fd62 c83d
00000320: 6f98 f13c 7ecf 9b3d 6f1e 3e3d 83c3 603d
00000330: 303d 62bd 127f 583d 1f5c 86bc f6f0 1abd
00000340: 4027 b93d 721b 3abd 397f 6dbc 1745 153d
00000350: 1cca 4b3d 6fb2 873d ea4f 943d 7fd0 5dbb
00000360: 4d53 503d e53a 83bd 452b a23d 889e 603d
00000370: e1f0 1ebb e48c e3bc 1f83 513d 4d08 0f3c
00000380: a268 b93d ee08 79bb af2e 66bd 7ef1 b9bc
00000390: 8167 553d cb8e 4c3d c1d9 9e3d 1cba fc3c
000003a0: ead9 d6bc 528d 323d 229d fd3c 24a0 65bc
000003b0: f686 213c 374c b13d 9d5b bd3d a9af f5bc
000003c0: 1bb1 8cbc f367 36ba c7c7 97bb c69d bebc
000003d0: 0e11 13bd 974d 32bc a518 6fbd 9ac4 523d
000003e0: 0faa 223d e13f 8a3d c8eb 84bd f1e1 83bd
000003f0: 7c70 323d 011c 7bbd 1cb7 953c 0867 4d3b

lstm.weight_hh_l0 f4 [512, 128]
0.02480908 -0.04069877 0.04838299 -0.18212523 -0.008605174 0.0753007 0.027463352 0.06353745
-0.010818824 0.023951532 -0.028572854 -0.0025963995 -0.045169625 0.06755433 -0.0026999062 0.065002896
-0.07891161 0.08378441 0.070492804 0.02459425 0.04754136 -0.064204596 -0.04775204 -0.11251209
-0.048392393 -0.036475755 0.08863679 0.04723278 0.021312144 -0.02305297 -0.07613794 -0.08657553
-0.081974804 -0.0029211068 -0.0329858 0.07352338 -0.08383943 0.015743135 -0.031879954 0.008375616
-0.043622795 -0.08062092 -0.07331832 0.028990302 0.101102054 -0.076937735 -0.0695768 -0.06285419
0.06907248 -0.13950564 -0.06634686 -0.018588034 -0.05547072 0.035398033 -0.115401834 -0.047269434
-0.07251316 -0.025810126 -0.06535496 -0.028401248 0.0853011 -0.03249832 -0.018162766 0.018648494
0.03367041 0.05893703 0.0035082074 -0.042694565 0.041471694 0.07390013 0.022402965 0.04820119
0.03650504 -0.19084054 0.0112656355 0.09208194 0.0041800286 0.048781402 -0.005796032 -0.025097584
-0.05786444 0.07799943 -0.05462011 -0.014091062 -0.123799436 -0.048390113 0.014619657 -0.07868135
-0.11311385 0.105943486 -0.08653094 -0.07566941 0.051768582 0.009346635 -0.03022964 -0.062988296
-0.033540983 -0.079400264 0.1010516 0.056534257 0.06191129 0.06646873 0.0046447525 -0.0206777
0.056197956 0.05458544 0.04043795 0.012973868 -0.08425928 -0.06839598 0.06666596 0.03434786
0.04292082 0.045768164 -0.057399992 -0.0645388 -0.05988143 -0.07563734 -0.06495625 0.05292952
0.0569438 -0.029331911 -0.041184418 0.038954355 -0.02553215 -0.0038178568 0.062136546 0.101441294
0.09695587 0.019272463 -0.009814502 -0.009029606 -0.06509848 -0.030932361 -0.018965092 -0.026522854
0.03297094 -0.06240967 0.031458504 -0.0212794 0.025958475 0.0073554954 -0.053319663 0.05724446
-0.051343065 -0.077610746 0.053918745 -0.05900379 -0.078457564 0.038759224 -0.058602124 -0.069886185
-0.06607639 0.021746539 -0.07969315 0.05589605 -0.04010552 -0.07660107 0.06419212 0.04151085
0.09157 -0.016812958 0.08542211 -0.07742709 0.07659584 -0.08024232 0.054315362 0.07462954
-0.08295811 -0.0010368879 0.005109487 -0.08830621 0.050758492 0.08867397 -0.046491563 0.034201577
-0.044467077 -0.09498689 0.023582287 -0.08237344 -0.064593054 0.046436 0.06304655 0.006401712
-0.045269173 0.061321415 0.04080872 -0.007417153 -0.053139314 0.030980276 -0.014423438 0.034967232
0.08947121 -0.07886172 0.036810722 0.055593047 -0.034446098 0.044603944 -0.0138638485 -0.047512587
-0.009856423 -0.071821064 -0.085675605 -0.060242865 -0.05434521 -0.043700982 0.07980514 0.024552675
-0.05480456 -0.037128307 0.03389384 0.026393196 -0.009755378 -0.011676042 0.09717548 0.015955895
-0.00783404 0.075534314 -0.05352976 0.038867567 -0.031208564 0.04719725 -0.03982582 0.09710154
-0.023475593 0.010329813 -0.07198104 -0.073851936 -0.0629156 0.09337873 -0.004208411 0.07225325
-0.07929629 -0.043976724 0.051789254 0.039197855 -0.030489238 0.039174046 -0.0181878 -0.077376686
0.022806292 0.020308847 0.06805961 -0.050752282 -0.05042984 0.026543481 -0.006577182 -0.047050517
-0.025026092 0.014741458 0.033660997 -0.08730901 0.012450033 0.007182238 0.01328655 0.02552963
00000000: 693c cb3c c1b3 26bd 3e2d 463d 097f 3abe
00000010: b7fc 0cbc 4137 9a3d d3fa e03c ec1f 823d
00000020: 7041 31bc 0136 c43c 9e11 eabc 5b28 2abb
00000030: c903 39bd ed59 8a3d e9f0 30bb 3d20 853d
00000040: 699c a1bd 2997 ab3d 885e 903d e179 c93c
00000050: bbba 423d b37d 83bd a597 43bd bd6c e6bd
00000060: 1a37 46bd 9a67 15bd 3587 b53d 2977 413d
00000070: ce96 ae3c 95d9 bcbc 35ee 9bbd 834e b1bd
00000080: 68e2 a7bd 0a70 3fbb 1e1c 07bd 6d93 963d
00000090: 02b4 abbd bff7 803c 8e94 02bd e139 093c
000000a0: d1ad 32bd 951c a5bd ea27 96bd 127d ed3c
000000b0: 980e cf3d 8891 9dbd 487e 8ebd b3b9 80bd
000000c0: df75 8d3d 91da 0ebe dde0 87bd ef45 98bc
000000d0: 4435 63bd 87fd 103d cc57 ecbd 989d 41bd
000000e0: c881 94bd c26f d3bc d2d8 85bd bca9 e8bc
000000f0: 58b2 ae3d f51c 05bd 15ca 94bc bac4 983c
00000100: fce9 093d f567 713d f4e9 653b 7fe0 2ebd
00000110: 39de 293d f458 973d 6c86 b73c 9c6e 453d
00000120: 4f86 153d b46b 43be 8093 383c 7595 bc3d
00000130: 9ff8 883b 02cf 473d a4ec bdbb 7399 cdbc
00000140: 4303 6dbd 2abe 9f3d 56b9 5fbd 33de 66bc
00000150: 8f8a fdbd b634 46bd 4987 6f3c b023 a1bd
00000160: 3ca8 e7bd e6f8 d83d 2237 b1bd 90f8 9abd
00000170: 4b0b 543d a122 193c 26a4 f7bc 0200 81bd
00000180: 4562 09bd 9b9c a2bd 24f4 ce3d 7790 673d
00000190: b196 7d3d c220 883d 0233 983b 4864 a9bc
000001a0: d42f 663d fb94 5f3d 44a2 253d 5990 543c
000001b0: 2190 acbd 3113 8cbd 2a88 883d 57b0 0c3d
000001c0: becd 2f3d 6677 3b3d 411c 6bbd eb2c 84bd
000001d0: 3b46 75bd c0e7 9abd c807 85bd a0cc 583d
000001e0: e73d 693d 7a49 f0bc feb0 28bd 9a8e 1f3d
000001f0: cd28 d1bc 0235 7abb e482 7e3d 74c0 cf3d
00000200: cd90 c63d 49e1 9d3c 01cd 20bc eaf0 13bc
00000210: 5a52 85bd dd65 fdbc ae5c 9bbc 7546 d9bc
00000220: 890c 073d 48a1 7fbd a2da 003d 2352 aebc
00000230: dea6 d43c 5e06 f13b b865 5abd 2b79 6a3d
00000240: 1b4d 52bd 62f2 9ebd e7d9 5c3d f5ad 71bd
00000250: 5cae a0bd fec1 1e3d c808 70bd 7d20 8fbd
00000260: 0f53 87bd cc25 b23c 2a36 a3bd 42f3 643d
00000270: b045 24bd 06e1 9cbd 2977 833d 4807 2a3d
00000280: 0d89 bb3d 54bb 89bc caf1 ae3d 1892 9ebd
00000290: 48de 9c3d 1656 a4bd c979 5e3d 5fd7 983d
000002a0: f1e5 a9bd 2fe8 87ba 7c6d a73b e3d9 b4bd
000002b0: 23e8 4f3d b39a b53d f06d 3ebd f416 0c3d
000002c0: 1c23 36bd 7d88 c2bd a42f c13c 68b3 a8bd
000002d0: 5d49 84bd ad33 3e3d 8d1e 813d 74c5 d13b
000002e0: 2b6c 39bd 2a2c 7b3d 0b27 273d 970b f3bb
000002f0: 9ca8 59bd 59ca fd3c 4950 6cbc cd39 0f3d
00000300: af3c b73d 4182 a1bd d7c6 163d 89b5 633d
00000310: 5a17 0dbd a0b2 363d 3225 63bc 8f9c 42bd
00000320: d67c 21bc ec16 93bd b176 afbd 39c1 76bd
00000330: 1599 5ebd cdff 32bd e170 a33d b122 c93c
00000340: bf7a 60bd da13 18bd 44d4 0a3d 8b36 d83c
00000350: 05d5 1fbc df4c 3fbc f003 c73d f0b5 823c
00000360: 585a 00bc bcb1 9a3d 0642 5bbd 9933 1f3d
00000370: 1aa9 ffbc e751 413d 6620 23bd 2cdd c63d
00000380: e34f c0bc 603e 293c cc6a 93bd af3f 97bd
00000390: e5d9 80bd 593d bf3d b6e6 89bb 83f9 933d
000003a0: 1866 a2bd f020 34bd f820 543d ee8d 203d
000003b0: 91c4 f9bc f774 203d 95fe 94bc ab77 9ebd
000003c0: 43d4 ba3c bd5e a63c d662 8b3d a0e1 4fbd
000003d0: 858f 4ebd b771 d93c 6785 d7bb 0bb8 40bd
000003e0: 8503 cdbc 2886 713c 1de0 093d 11cf b2bd
000003f0: 39fb 4b3c fb58 eb3b d4af 593c 8423 d13c

lstm.bias_ih_l0 f4 [512]
0.046062045 0.06057548 0.054663196 0.086183496 -0.043662548 0.075326085 -0.07255947 0.036565833
-0.00013323774 0.10009143 0.055357326 -0.0122506935 0.10293499 0.012923603 0.010127043 0.019383518
0.105858944 -0.021675186 0.03225876 0.069014795 0.021701353 -0.07408509 -0.08296222 0.06083042
-0.041511476 0.06541359 0.036274612 0.007857267 -0.027452286 -0.010600709 -0.033563532 0.02293046
-0.047319505 0.040771715 -0.034268558 -0.04861852 -0.03228527 0.051716637 -0.031942338 0.037076168
0.029327305 0.0004917364 0.04451694 0.016062336 -0.09343601 0.0063144797 -0.025406646 0.08338326
-0.037434887 0.045229997 -0.05193183 -0.02772473 -0.049433004 -0.0045622294 -0.008852859 0.0020167925
0.018637674 0.026232742 -0.019179495 0.08451042 0.013561271 0.041006833 -0.02490041 -0.03323683
0.013757817 0.003603666 0.078150205 0.07053904 0.01634966 0.016685592 0.0076494687 -0.06742373
0.049129978 0.39900118 -0.009798686 0.079913974 -0.03133217 0.08703839 0.03588423 0.06700096
-0.01801384 -0.055738512 0.023017984 0.08258006 0.10342422 0.025506457 -0.002317269 0.22280851
-0.0013562439 0.08269548 0.07857484 0.027493896 -0.06783176 0.029979711 0.0027945885 -0.04394251
0.1372325 0.05544459 -0.030996121 -0.08121749 0.01694434 0.04820892 -0.04257225 -0.017851643
0.025025701 0.07499955 0.044554703 -0.050040357 -0.015497271 0.11315179 -0.0568282 0.037251554
0.090702586 0.038653057 -0.035391927 0.08451769 0.026759105 -0.019037921 0.08790937 0.05048606
-0.026471484 0.043023918 0.042440593 -0.07153423 -0.027313171 -0.07759928 0.030390082 0.04394744
-0.042847354 -0.07216843 -0.020983085 -0.008767817 0.011903255 -0.011484018 -0.030567467 -0.057995502
-0.079998896 -0.043074004 -0.027297873 -0.06665095 -0.040337954 0.01613364 -0.07751109 -0.025290236
-0.04593104 0.047630146 0.027497023 -0.06496521 0.030487604 0.035877366 0.006478642 0.054010082
-0.012526933 -0.062745415 0.060380317 0.034651034 0.028904378 0.038719825 -0.03337184 0.06281527
0.050509244 -0.0014466202 -0.06183178 -0.066975 -0.08721916 -0.023427565 0.067984365 0.004541083
-0.04916859 -0.030645942 -0.084686905 -0.037667174 0.0051520187 -0.06943555 0.05158956 0.08107244
0.08571373 -0.02154418 -0.030757647 -0.010526521 0.03071329 -0.0042178486 -0.024289792 -0.084913634
-0.046802394 0.028833196 0.030856183 -0.057846025 0.07032295 -0.046538394 -0.05725745 0.05352518
-0.05905925 0.03245606 0.046457358 -0.06729353 -0.07347338 -0.014772558 0.08302982 -0.012233036
-0.0416111 -0.028088016 -0.035443243 0.036967162 0.085811816 -0.041466735 -0.062602594 0.015385895
0.03354809 0.0023899253 -0.015878951 -0.01696016 0.05331512 0.011209396 0.04299513 0.03642011
0.03417586 -0.05499248 0.05792941 -0.026969709 -0.07197607 -0.077128075 0.018922873 -0.062748685
0.029284826 -0.012576751 -0.08245586 -0.040279593 0.0076922616 0.051969826 0.022590855 0.051597282
-0.018141165 0.024609784 0.06052904 0.05415043 0.018563531 -0.06593751 -0.028638592 -0.078284875
0.030891567 0.05868191 0.040114056 0.0786453 0.080656 -0.08322223 -0.073720075 -0.05787133
-0.023279943 0.071454 0.061790336 -0.07572387 0.08620784 -0.059869006 0.06879099 -0.08068964
00000000: 8eab 3c3d ff1d 783d 84e6 5f3d f980 b03d
00000010: 80d7 32bd 9044 9a3d 0f9a 94bd 0ec6 153d
00000020: bcb5 0bb9 bcfc cc3d 5dbe 623d 22b7 48bc
00000030: 94cf d23d 85bd 533c e6eb 253c 2fca 9e3c
00000040: 93cc d83d 2990 b1bc c321 043d a157 8d3d
00000050: 09c7 b13c ecb9 97bd 19e8 a9bd 5229 793d
00000060: f007 2abd 8ff7 853d b094 143d c4bb 003c
00000070: 9ee3 e0bc 99ae 2dbc ea79 09bd a9d8 bb3c
00000080: 19d2 41bd 3e00 273d 305d 0cbd 3724 47bd
00000090: 8f3d 04bd d3d4 533d f8d5 02bd 2edd 173d
000000a0: d13f f03c dfe7 003a 6557 363d 2995 833c
000000b0: 615b bfbd b2e9 ce3b 9921 d0bc d8c4 aa3d
000000c0: 5355 19bd 1743 393d 78b6 54bd f91e e3bc
000000d0: 437a 4abd c17e 95bb 950b 11bc 2a2c 043b
000000e0: 09ae 983c 0ce6 d63c 511e 9dbc cd13 ad3d
000000f0: 1830 5e3c c8f6 273d f2fb cbbc 5823 08bd
00000100: 7868 613c 7c2b 6c3b 370d a03d c676 903d
00000110: b9ef 853c 39b0 883c 65a8 fa3b 7415 8abd
00000120: 843c 493d e249 cc3e ab8a 20bc f0a9 a33d
00000130: 2956 00bd 2f41 b23d 58fb 123d cd37 893d
00000140: c391 93bc 114e 64bd 3690 bc3c bc1f a93d
00000150: 14d0 d33d ebf2 d03c 53dd 17bb ea27 643e
00000160: fec3 b1ba 3f5c a93d d9eb a03d e13a e13c
00000170: 61eb 8abd 0398 f53c 6a25 373b 10fd 33bd
00000180: ad86 0c3e de19 633d 94eb fdbc 5b55 a6bd
00000190: dbce 8a3c b776 453d 3d60 2ebd 9c3d 92bc
000001a0: b302 cd3c 5d99 993d fe7e 363d 1ef7 4cbd
000001b0: 44e8 7dbc 20bc e73d b0c4 68bd 1695 183d
000001c0: 47c2 b93d ab52 1e3d 20f7 10bd 9c17 ad3d
000001d0: e935 db3c 6af5 9bbc d409 b43d 79ca 4e3d
000001e0: bada d8bc d939 303d 30d6 2d3d 8a80 92bd
000001f0: dfbf dfbc 5fec 9ebd 9ff4 f83c 3b02 343d
00000200: b580 2fbd 0bcd 93bd b8e4 abbc e4a6 0fbc
00000210: df05 433c 7627 3cbc a068 fabc b18c 6dbd
00000220: 76d6 a3bd 5e6e 30bd ca9f dfbc 4b80 88bd
00000230: 6939 25bd b22a 843c 22be 9ebd 782d cfbc
00000240: 3022 3cbd d417 433d 7041 e13c 7b0c 85bd
00000250: 24c1 f93c 25f4 123d ca4a d43b ad39 5d3d
00000260: c43d 4dbc ab80 80bd 5a51 773d 3eee 0d3d
00000270: e0c8 ec3c ae98 1e3d e9b0 08bd 4ba5 803d
00000280: c8e2 4e3d 859c bdba 5243 7dbd 302a 89bd
00000290: f59f b2bd 2aeb bfbc 633b 8b3d 5dcd 943b
000002a0: 0165 49bd 330d fbbc 5470 adbd e548 1abd
000002b0: 44d2 a83b 3a34 8ebd 934f 533d 4f09 a63d
000002c0: ae8a af3d 6c7d b0bc 76f7 fbbc 6e77 2cbc
000002d0: 709a fb3c e135 8abb 63fb c6bc 33e7 adbd
000002e0: deb3 3fbd 9833 ec3c 1bc6 fc3c f4ef 6cbd
000002f0: 7b05 903d 0b9f 3ebd ca86 6abd 383d 5b3d
00000300: 1de8 71bd a5f0 043d 124a 3e3d 31d1 89bd
00000310: 3679 96bd 9908 72bc 8a0b aa3d 126d 48bc
00000320: 6770 2abd d718 e6bc ef2c 11bd e16a 173d
00000330: 1bbe af3d 06d9 29bd ca35 80bd 1f15 7c3c
00000340: b969 093d 4ba0 1c3b 9314 82bc 09f0 8abc
00000350: f560 5a3d 9da7 373c a91b 303d 412d 153d
00000360: fdfb 0b3d cb3f 61bd 6447 6d3d 94ef dcbc
00000370: 3168 93bd 53f5 9dbd 2404 9b3c 6282 80bd
00000380: bbe6 ef3c b80e 4ebc 9ede a8bd 37fc 24bd
00000390: 5e0f fc3b 50de 543d 7510 b93c ac57 533d
000003a0: c89c 94bc 759a c93c 4ced 773d d7cc 5d3d
000003b0: 8c12 983c 3f0a 87bd 7b9b eabc d253 a0bd
000003c0: 5010 fd3c 715c 703d a34e 243d c910 a13d
000003d0: f92e a53d 6b70 aabd 8dfa 96bd 7d0a 6dbd
000003e0: 94b5 bebc 7a56 923d dd17 7d3d 1e15 9bbd
000003f0: bc8d b03d 3439 75bd 4ae2 8c3d 9c40 a5bd

lstm.bias_hh_l0 f4 [512]
0.038103737 -0.015541138 -0.047714006 0.19201763 -0.08469183 -0.008785131 0.063929215 0.020890707
-0.004938288 0.03353854 -0.077468745 0.08790497 0.09908303 0.04933355 0.08281085 -0.0011153131
0.08149753 0.0100974515 -0.034960613 -0.077780336 -0.076956324 -0.06121363 0.079076 0.08237367
0.004128091 0.09487525 0.01153679 0.02951581 0.048944898 0.09176042 -0.042032268 0.0016668086
-0.06889609 -0.0049016867 -0.04205986 0.09121778 0.06745661 -0.04392731 -0.016540186 0.034528136
-0.06421425 -0.0012837402 -0.062873155 -0.04297688 -0.07696599 -0.018266534 0.07479222 0.03709903
0.0660221 -0.012271801 -0.021486403 -0.014543459 0.06272547 0.028841369 -0.018293338 0.031704377
-0.070387654 0.014837333 -0.066852584 0.026995992 -0.024854481 0.05364698 0.063879564 -0.0039338456
-0.022199953 -0.026892653 0.0021280455 0.009920102 -0.07972415 0.017024375 0.09756425 -0.067797
0.057890248 0.34506336 -0.037910398 0.0748516 -0.075420775 -0.017786993 0.020643339 0.080346294
-0.022398125 0.08554787 0.07812152 0.051722486 0.024081219 -0.011059154 -0.039808523 0.23901318
-0.009875214 0.074425384 -0.051734738 -0.009231982 -0.03825129 -0.034438882 0.021605194 -0.06740275
0.080306485 -0.052887954 -0.03970017 -0.042126633 -0.06145555 0.09153854 0.06660462 0.033950783
-0.072854504 0.049661376 -0.07484103 0.04436846 0.024154106 -0.018975262 0.028783076 0.0018037134
-0.014951465 0.037887763 0.070617855 0.06301615 -0.07141476 -0.04186784 0.091162995 0.09515135
0.10119926 -0.01771073 -0.05743523 -0.0055913883 -0.07159808 -0.065893754 0.03841495 0.07147624
0.08134078 0.019209674 0.01601976 -0.044858232 -0.08996408 0.007309065 -0.016597264 0.050856434
-0.031655405 -0.016198028 0.052671887 -0.07891945 -0.052559018 0.055392597 -0.0491955 -0.0475226
0.053391263 -0.061205987 0.06511159 0.032466277 0.061585 0.0024032812 -0.07756609 -0.09660666
0.056181688 -0.050241027 0.05351034 -0.051882003 0.050600108 0.04638233 -0.0050106626 -0.06774711
0.020604786 0.017548544 -0.013524089 0.06706672 0.033384558 -0.07545325 -0.066961125 0.0737655
-0.060282078 -0.0640261 0.0070775608 0.028619345 -0.10452639 -0.05431532 0.077295564 -0.013941457
0.050054096 0.116940536 -0.046154432 -0.06839937 0.070760444 -0.062212374 0.046863787 -0.07795026
-0.0060501336 0.04025244 -0.08946101 -0.059702836 0.038241252 0.061357487 0.041795157 -0.056064203
-0.07166092 0.04083152 0.06685497 0.004600791 0.04092898 0.07668978 -0.010260108 -0.029308548
-0.04005015 -0.02192195 -0.0011056201 0.022232091 -0.07261553 0.01425226 -0.028138416 -0.033615623
0.060681224 -0.06355954 0.08126855 -0.054236572 0.091026954 0.028754352 -0.05744157 0.04849444
0.015888732 0.038722366 -0.012035952 -0.060625803 0.07851713 -0.0033798637 -0.005485364 -0.03811015
0.04958965 -0.06599431 -0.08242105 0.054756947 0.010017122 0.047763463 0.06124657 0.025457347
-0.090583 -0.06786673 0.030393425 -0.053602647 -0.06227998 -0.09383076 -0.008891234 -0.045402125
-0.0560684 0.06360934 -0.06397745 -0.0400619 -0.060527183 0.05629178 -0.09061782 -0.054684035
0.023395028 -0.040555168 -0.095422134 0.041899897 -0.047651075 0.023179121 0.06879782 -0.063356265
00000000: aa12 1c3d 42a0 7ebc c36f 43bd 45a0 443e
00000010: e972 adbd 83ef 0fbc 52ed 823d fd22 ab3c
00000020: 5dd1 a1bb b55f 093d efa7 9ebd 8507 b43d
00000030: 0bec ca3d fa11 4a3d bc98 a93d b32f 92ba
00000040: 2de8 a63d c86f 253c dc32 0fbd 4c4b 9fbd
00000050: 479b 9dbd 25bb 7abd 99f2 a13d 87b3 a83d
00000060: f044 873b f44d c23d ce04 3d3c 24cb f13c
00000070: 727a 483d e3ec bb3d 072a 2cbd d178 da3a
00000080: 6519 8dbd 549e a0bb f646 2cbd 63d0 ba3d
00000090: b126 8a3d 1fed 33bd 497f 87bc 606d 0d3d
000000a0: c382 83bd 2c43 a8ba a4c3 80bd 8608 30bd
000000b0: 58a0 9dbd b3a3 95bc aa2c 993d 27f5 173d
000000c0: 9836 873d aa0f 49bc 4104 b0bc b047 6ebc
000000d0: 3676 803d bc44 ec3c e9db 95bc 73dc 013d
000000e0: 6727 90bd 4918 733c 02ea 88bd b326 dd3c
000000f0: a09b cbbc f0bc 5b3d 4ad3 823d 7de7 80bb
00000100: addc b5bc fb4d dcbc ae76 0b3b ec87 223c
00000110: 6a46 a3bd b476 8b3c c4cf c73d 27d9 8abd
00000120: 531e 6d3d 25ac b03e ef47 1bbd cc4b 993d
00000130: 3576 9abd 07b6 91bc 381c a93c 998c a43d
00000140: 467c b7bc b933 af3d 2dfe 9f3d f5da 533d
00000150: fa45 c53c 7431 35bc 430e 23bd dfbf 743e
00000160: a6cb 21bc 566c 983d cee7 53bd bd41 17bc
00000170: 62ad 1cbd c90f 0dbd 60fd b03c 740a 8abd
00000180: ba77 a43d 0aa1 58bd a59c 22bd fa8c 2cbd
00000190: d1b8 7bbd 8f78 bb3d 0168 883d fa0f 0b3d
000001a0: be34 95bd ba69 4b3d 4146 99bd b4bb 353d
000001b0: d5de c53c 0272 9bbc 7cca eb3c 946a ec3a
000001c0: fdf6 74bc 3330 1b3d 18a0 903d 9c0e 813d
000001d0: e741 92bd 9d7d 2bbd aab3 ba3d b6de c23d
000001e0: 8f41 cf3d 1816 91bc 3441 6bbd f737 b7bb
000001f0: 04a2 92bd 4ef3 86bd ff58 1d3d 2362 923d
00000200: ff95 a63d 9b5d 9d3c df3b 833c 44bd 37bd
00000210: 163f b8bd e280 ef3b fcf6 87bc d64e 503d
00000220: 19a9 01bd bab1 84bc 7abe 573d 85a0 a1bd
00000230: 2048 57bd 59e3 623d 3881 49bd 0fa7 42bd
00000240: ccb0 5a3d 21b3 7abd 3a59 853d 5cfb 043d
00000250: 8e40 7c3d 5e80 1d3b f8da 9ebd b6d9 c5bd
00000260: c51e 663d 89c9 4dbd a92d 5b3d 3982 54bd
00000270: 0f42 4f3d 66fb 3d3d 7c30 a4bb ffbe 8abd
00000280: 5ecb a83c f7c1 8f3c 2494 5dbc 475a 893d
00000290: 3fbe 083d 3c87 9abd ea22 89bd 5e12 973d
000002a0: 57ea 76bd 1e20 83bd e2ea e73b 1e73 ea3c
000002b0: ef11 d6bd be79 5ebd 234d 9e3d b56a 64bc
000002c0: 8605 4d3d 857e ef3d 6e0c 3dbd f814 8cbd
000002d0: daea 903d 67d2 7ebd 3ef4 3f3d 63a4 9fbd
000002e0: 3340 c6bb bedf 243d 5637 b7bd f68a 74bd
000002f0: dca2 1c3d fd51 7b3d 6631 2b3d 94a3 65bd
00000300: f6c2 92bd f43e 273d 42eb 883d 3bc2 963b
00000310: 25a5 273d 880f 9d3d 031a 28bc 7b18 f0bc
00000320: a00b 24bd a995 b3bc 74ea 90ba 1320 b63c
00000330: 73b7 94bd 5082 693c 8982 e6bc 89b0 09bd
00000340: e08c 783d 812b 82bd 2070 a63d 2b27 5ebd
00000350: 576c ba3d 3f8e eb3c da47 6bbd 1ba2 463d
00000360: 1629 823c 589b 1e3d 7132 45bc c352 78bd
00000370: 97cd a03d b480 5dbb 91be b3bb 6319 1cbd
00000380: 841e 4b3d 0628 87bd 5ecc a8bd d248 603d
00000390: db1e 243c 9fa3 433d afdd 7a3d ed8b d03c
000003a0: 9483 b9bd b6fd 8abd a2fb f83c 738e 5bbd
000003b0: 4b19 7fbd 572a c0bd 8aac 11bc 94f7 39bd
000003c0: fba7 65bd 9d45 823d 9c06 83bd f217 24bd
000003d0: 5aeb 77bd 3692 663d d695 b9bd 5efc 5fbd
000003e0: eea6 bf3c 2d1d 26bd ae6c c3bd 3a9f 2b3d
000003f0: c62d 43bd 24e2 bd3c dfe5 8c3d eec0 81bd

lstm.weight_ih_l1 f4 [512, 128]
0.012376435 -0.05150739 -0.056366008 -0.011635551 0.060310267 -0.040985998 0.002842971 0.019258102
-0.093243584 0.075059384 -0.0142657235 0.0060810866 0.035691988 -0.062223483 -0.074030876 0.06610668
-0.038372945 0.06224525 -0.004055262 -0.056309976 -0.047055703 -7.452757e-05 0.03330731 -0.02873328
-0.043345824 0.05878731 0.07494045 -0.03159476 -0.090485685 -0.04255594 -0.084429294 0.018402083
-0.04479682 0.005523609 -0.06787223 0.0937187 0.039495207 -0.0670261 0.0015972588 0.05872666
0.01963987 0.07293138 -0.033448525 -0.06803704 -0.051838465 -0.061385762 -0.08416285 0.06779011
-0.025151666 -0.030496866 0.030598938 -0.0063804104 0.02116033 -0.0426039 -0.025278881 0.0059668897
-0.08928637 -0.01425411 0.056762904 0.07413899 -0.004906235 0.03859868 -0.046502747 -0.05381781
-0.056173917 0.048558626 0.041733105 0.04642296 -0.018655244 -0.0008319791 -0.06638903 -0.07196578
0.03008521 0.1382605 0.048124038 0.035622437 0.037263516 0.0355784 -0.023875741 -0.052283578
-0.05000402 -0.034272935 0.074338086 0.044064503 0.061636835 -0.009374189 0.04323309 -0.07867467
0.032707777 0.051453006 -0.07152681 0.07225701 -0.006054399 0.058225494 0.03504103 0.079386346
-0.12087793 0.064632624 0.070992954 -0.0673497 0.065690495 0.005576495 -0.08460399 0.014789882
-0.04673214 0.0248693 0.07495223 -0.09119569 -0.02963252 0.067567766 -0.032671314 -0.065342344
0.031992838 0.043372706 -0.081777036 0.019220896 -0.013418773 -0.08487991 0.019797506 -0.06817342
0.05719027 0.057328872 0.054941814 -0.01049795 -0.022924993 0.06593995 0.03279056 -0.038492173
-0.042434257 0.030616583 -0.08000946 -0.17061754 -0.07503595 -0.06660336 -0.08965355 0.044475447
0.024786774 -0.023364507 0.04451778 -0.062091883 -0.069592774 -0.0703402 0.028350782 0.044830013
-0.020257758 0.012471339 0.07487473 0.06790848 -0.048731368 -0.038735297 0.030732028 0.009628402
-0.025346486 -0.014856965 -0.042898364 0.037849996 -0.07282509 -0.012154394 -0.026241725 -0.0236353
-0.013403531 0.052540664 0.074057356 0.051769096 0.09397746 -0.010667139 0.008946486 0.04562225
-0.036241785 0.017355941 -0.06442018 0.034493 -0.0855034 -0.051691834 -0.025692442 -0.0058627473
-0.045347966 -0.041063797 0.031115795 -0.056075245 0.01903125 0.06458286 0.065730736 -0.058447927
0.053049468 0.02111907 0.0028289624 -0.01621922 0.0004185402 0.082215786 0.08109929 0.04311775
-0.0060880077 0.016643615 0.0063640396 0.09871815 -0.08598158 -0.05502477 -0.014823415 0.05022504
0.02494302 0.21005441 -0.075611524 -0.07173166 0.030791145 -0.067392 0.033401016 -0.08210317
0.04171157 -0.003585959 -0.05305047 -0.008216338 -0.022348858 0.07643644 0.044115033 -0.21982276
0.04968385 0.08955679 -0.003870829 0.075580366 0.0096164765 0.0005747496 0.006194813 0.011942105
-0.14313737 -0.018967744 0.052870236 0.01235133 -0.09759586 0.06483954 0.044067074 -0.02887714
-0.08703523 0.085076764 -0.09526087 -0.047977783 0.08328662 0.03941874 -0.035254657 -0.08751634
0.014776617 -0.023536142 -0.07728767 -0.049391873 0.068942524 -0.077596575 0.013023035 0.04762293
-0.11292331 -0.02389516 -0.059236877 0.009000329 0.003228325 -0.040132977 -0.024729988 -0.00080385397
00000000: 88c6 4a3c 6af9 52bd 0be0 66bd 0aa3 3ebc
00000010: e607 773d efe0 27bd 2351 3a3b 2bc3 9d3c
00000020: 7ef6 bebd bcb8 993d c8ba 69bc da43 c73b
00000030: c331 123d 0dde 7ebd 809d 97bd f062 873d
00000040: f32c 1dbd e0f4 7e3d 01e2 84bb 4aa5 66bd
00000050: 7bbd 40bd af4b 9cb8 3f6d 083d 0e62 ebbc
00000060: 648b 31bd f6ca 703d 617a 993d 8269 01bd
00000070: 8f50 b9bd 234f 2ebd 44e9 acbd f7bf 963c
00000080: df7c 37bd 64ff b43b 9900 8bbd 97ef bf3d
00000090: bac5 213d fb44 89bd 1d5b d13a 5e8b 703d
000000a0: cbe3 a03c 0c5d 953d 5201 09bd 0157 8bbd
000000b0: 9254 54bd a36f 7bbd 935d acbd 8bd5 8a3d
000000c0: de0a cebc 90d4 f9bc a0aa fa3c c312 d1bb
000000d0: 6e58 ad3c 6d81 2ebd a815 cfbc e685 c33b
000000e0: c6db b6bd 128a 69bc 3880 683d 2fd6 973d
000000f0: 7bc4 a0bb a619 1e3d aa79 3ebd 1070 5cbd
00000100: 9f16 66bd 69e5 463d 55f0 2a3d 0026 3e3d
00000110: e2d2 98bc 2c19 5aba f9f6 87bd cb62 93bd
00000120: 4275 f63c 2994 0d3e b61d 453d d5e8 113d
00000130: a1a1 183d a8ba 113d 0f97 c3bc 4e27 56bd
00000140: 04d1 4cbd c761 0cbd 913e 983d fb7c 343d
00000150: e876 7c3d 3396 19bc 2e15 313d 2f20 a1bd
00000160: 97f8 053d 63c0 523d a67c 92bd 7cfb 933d
00000170: fb63 c6bb db7d 6e3d 2f87 0f3d 4f95 a23d
00000180: d98e f7bd 1c5e 843d c164 913d a4ee 89bd
00000190: bd88 863d 08bb b63b db44 adbd 4351 723c
000001a0: 336a 3fbd b4ba cb3c 8e80 993d cec4 babd
000001b0: e6bf f2bc f860 8a3d 5bd2 05bd 35d2 85bd
000001c0: ec0a 033d 94a7 313d b87a a7bd 2475 9d3c
000001d0: 6ada 5bbc 85d5 adbd 612e a23c 829e 8bbd
000001e0: 5840 6a3d aed1 6a3d ab0a 613d 98ff 2bbc
000001f0: 32cd bbbc 860b 873d 654f 063d f8a9 1dbd
00000200: 8bcf 2dbd a1cf fa3c 00dc a3bd 5db6 2ebe
00000210: 73ac 99bd 5867 88bd 489c b7bd e32b 363d
00000220: a20d cb3c ec66 bfbc 4758 363d 0f54 7ebd
00000230: a886 8ebd 860e 90bd e63f e83c ad9f 373d
00000240: 99f3 a5bc 9654 4c3c ec57 993d 9a13 8b3d
00000250: 8b9a 47bd e7a8 1ebd bcc1 fb3c 72c0 1d3c
00000260: 6fa3 cfbc a16a 73bc 32b6 2fbd 9908 1b3d
00000270: 5225 95bd 3923 47bc e3f8 d6bc d19e c1bc
00000280: 7c9a 5bbc e134 573d 62ab 973d d50b 543d
00000290: 4177 c03d 39c5 2ebc 4894 123c 65de 3a3d
000002a0: 4472 14bd 0c2e 8e3c baee 83bd 8848 0d3d
000002b0: 681c afbd d1ba 53bd f578 d2bc 4a1c c0bb
000002c0: cabe 39bd 8332 28bd 8de6 fe3c 28af 65bd
000002d0: 6de7 9b3c 0544 843d d69d 863d 1867 6fbd
000002e0: 664a 593d e601 ad3c 1d66 393b 2bde 84bc
000002f0: 846f db39 c060 a83d 6217 a63d 3d9c 303d
00000300: e97d c7bb 3158 883c 6f89 d03b be2c ca3d
00000310: 1c17 b0bd a761 61bd e9dd 72bc c6b8 4d3d
00000320: 4e55 cc3c 8118 573e 37da 9abd 0ce8 92bd
00000330: b63d fc3c d104 8abd 81cf 083d b525 a8bd
00000340: c0d9 2a3d 6902 6bbb 734b 59bd d29d 06bc
00000350: f414 b7bc b58a 9c3d f7b1 343d 3819 61be
00000360: 4b81 4b3d 8d69 b73d bcad 7dbb e1c9 9a3d
00000370: 6d8e 1d3c cbaa 163a dcfd ca3b d2a8 433c
00000380: 9a92 12be 3e62 9bbc 768e 583d 3c5d 4a3c
00000390: 57e0 c7bd 98ca 843d ad7f 343d c08f ecbc
000003a0: 873f b2bd ba3c ae3d 2218 c3bd 5a84 44bd
000003b0: 2d92 aa3d 8b75 213d 3067 10bd c43b b3bd
000003c0: a019 723c dece c0bc ff48 9ebd 224f 4abd
000003d0: bd31 8d3d f4ea 9ebd 915e 553c 4310 433d
000003e0: 5644 e7bd c8bf c3bc 5ea2 72bd 1e76 133c
000003f0: 4e92 533b 7a62 24bd 8b96 cabc bab9 52ba

lstm.weight_hh_l1 f4 [512, 128]
-0.053973332 -0.016793245 -0.04837109 -0.004693971 0.075274706 -0.0024020707 -0.026789915 0.020079069
0.073301695 -0.025719915 0.01315079 -0.028717605 -0.0011152328 -0.05063979 -0.0020542084 0.06935724
-0.016743658 -0.063819274 -0.012265894 -0.009175579 0.029430162 -0.0005804856 -0.07667107 -0.0025459283
0.03507747 0.07408358 0.07729104 -0.081666864 -0.018635422 -0.027822694 0.03800095 -0.018222058
-0.03729665 -0.044634458 -0.060453426 0.043590166 -0.004096032 -0.00018579469 -0.0527337 0.016176566
-0.046876498 0.078210935 -0.0924038 0.070811056 0.059253022 0.00626965 -0.063220836 0.0073483046
0.07008745 -0.05977227 0.016637927 0.06440583 0.05516955 -0.09100707 0.012470618 -0.064212464
0.071072415 0.05283697 -0.063114345 0.08066492 0.05331562 -0.06902215 0.061861873 -0.063782595
0.0017380147 -0.02258819 -0.06946546 -0.08604818 0.070387825 0.046299536 -0.02292006 -0.047951464
-0.08632513 0.03670983 -0.072607234 0.028658625 0.029280344 0.056310017 -0.017963836 0.049804404
-0.0074932156 -0.05775244 0.04064275 -0.022352936 0.0487934 0.08035565 -0.03779077 -0.0792442
-0.03350113 -0.00177378 0.081393644 0.024570813 0.06203911 -0.05336446 -0.07526724 0.06489962
-0.022226492 -0.0014835153 -0.09462081 0.038450066 0.033767004 0.06803222 -0.013609412 -0.012820588
0.011952327 0.03352562 0.05811125 -0.08658704 -0.041628186 0.07813618 0.025640158 -0.021721832
-0.04597599 0.06422885 -0.05978993 0.026825098 -0.081717856 -0.06063486 -0.009839159 -0.011668567
-0.07505404 -0.0654083 0.05356058 -0.073933564 -0.012244486 -0.04379089 0.042962324 0.050994936
0.07315622 -0.05765171 -0.06978968 -0.014476869 -0.04816836 0.07050676 -0.08652281 -0.0260384
-0.036893774 0.0059988806 0.016864352 0.051592603 -0.033668444 -0.008409438 -0.027289089 0.06194733
0.025882453 -0.054404624 -0.017342836 0.024354357 -0.06994525 0.07389168 0.06518822 -0.022381583
0.008186909 0.09164573 -0.04137105 -0.0009325706 0.035872553 0.042059597 -0.0014986485 -0.099409066
-0.011784991 0.027927825 -0.01764428 -0.05009482 0.045041297 0.035820283 -0.058306117 -0.02379054
-0.054348156 0.07243864 -0.0063764583 -0.087229155 0.028309917 -0.056178395 0.030378718 -0.061429873
-0.06966024 0.016674066 0.0059546228 -0.07477643 0.03907265 -0.031267256 0.06416543 -0.032946926
0.008076359 -0.002955471 -0.033277523 -0.08180703 -0.000105119114 -0.06441951 -0.03788554 0.08226207
0.035271473 0.010250582 -0.009884747 -0.034424912 -0.08230364 -0.05636916 0.07361226 -0.043071903
0.06476004 0.008673367 -0.028048936 0.046782155 -0.038286094 0.015465506 0.023816118 -0.08643694
-0.07447612 -0.014210616 -0.047660645 0.061020147 0.035418402 0.025506642 0.049880553 0.0003804418
0.0048629856 -0.07016552 0.08740175 0.056571268 0.07483463 -0.038511787 -0.03864374 -0.03119037
-0.010237078 -0.073259026 0.007607662 -0.066459745 -0.02763399 0.0075872233 -0.048158105 -0.076718904
0.05695962 -0.06537063 0.063841514 -0.0504572 0.04381461 -0.07174737 0.08639818 -0.05580221
0.054589428 -0.06437935 0.046837304 -0.07633535 0.026814397 0.02098971 -0.033907305 0.040865403
0.07525157 -0.067036346 0.017612549 0.06968121 -0.004513748 0.04231284 0.047388513 -0.07967359
00000000: 2413 5dbd fd91 89bc c420 46bd e2cf 99bb
00000010: a029 9a3d 0f6c 1dbb 8676 dbbc dc7c a43c
00000020: 331f 963d 92b2 d2bc 6976 573c 2f41 ebbc
00000030: 012d 92ba ab6b 4fbd e69f 06bb 2b0b 8e3d
00000040: ff29 89bc aeb3 82bd e3f6 48bc 2b55 16bc
00000050: 8617 f13c bb2b 18ba b905 9dbd 97d9 26bb
00000060: 65ad 0f3d 22b9 973d c44a 9e3d f540 a7bd
00000070: 50a9 98bc 6bec e3bc e2a6 1b3d 6d46 95bc
00000080: 5fc4 18bd 9fd2 36bd 039e 77bd 9a8b 323d
00000090: 0238 86bb e2d1 42b9 4bff 57bd b884 843c
000000a0: 9201 40bd 0e2d a03d 343e bdbd 6305 913d
000000b0: 4cb3 723d a371 cd3b ed79 81bd 0cca f03b
000000c0: 028a 8f3d c5d3 74bd 434c 883c 34e7 833d
000000d0: 77f9 613d ea61 babd 9051 4c3c d381 83bd
000000e0: 6a8e 913d 946b 583d 1842 81bd a633 a53d
000000f0: 7b61 5a3d 7c5b 8dbd e062 7d3d 73a0 82bd
00000100: 19ce e33a de0a b9bc e843 8ebd 073a b0bd
00000110: 7e27 903d 95a4 3d3d dac2 bbbc c168 44bd
00000120: 3bcb b0bd 0c5d 163d 1ab3 94bd 7ec5 ea3c
00000130: 55dd ef3c 55a5 663d e528 93bc b4ff 4b3d
00000140: a689 f5bb d38d 6cbd 0379 263d 811d b7bc
00000150: 97db 473d 8191 a43d 7fca 1abd c84a a2bd
00000160: 7b38 09bd 2e7e e8ba b6b1 a63d bb48 c93c
00000170: b91c 7e3d b194 5abd b625 9abd 18ea 843d
00000180: 5514 b6bc 8372 c2ba 8ec8 c1bd d17d 1d3d
00000190: 454f 0a3d 7a54 8b3d 03fa 5ebc 720d 52bc
000001a0: b1d3 433c 2952 093d 1006 6e3d 8c54 b1bd
000001b0: 5182 2abd dd05 a03d 4f0b d23c fcf1 b1bc
000001c0: 5251 3cbd 6a8a 833d 49e6 74bd 4fc0 db3c
000001d0: b15b a7bd 425c 78bd 6d34 21bc 842d 3fbc
000001e0: efb5 99bd c9f4 85bd 5762 5b3d 7b6a 97bd
000001f0: 199d 48bc 145e 33bd 43f9 2f3d 11e0 503d
00000200: eed2 953d 3324 6cbd e4ed 8ebd 6430 6dbc
00000210: 304c 45bd d965 903d df32 b1bd 7c4e d5bc
00000220: ed1d 17bd 4292 c43b 1c27 8a3c c452 533d
00000230: ece7 09bd bdc7 09bc 5e8d dfbc 7cbc 7d3d
00000240: 7007 d43c 62d7 5ebd 9012 8ebc ca82 c73c
00000250: 753f 8fbd 8554 973d 6781 853d 9559 b7bc
00000260: 6322 063c c2b0 bb3d b174 29bd c177 74ba
00000270: 19ef 123d af46 2c3d 4d6e c4ba fb96 cbbd
00000280: d615 41bc e5c8 e43c bd8a 90bc 3a30 4dbd
00000290: 397d 383d 4ab8 123d 65d2 6ebd 61e4 c2bc
000002a0: 2c9c 5ebd b65a 943d 9cf1 d0bb 33a5 b2bd
000002b0: 33ea e73c 511b 66bd cadc f83c e49d 7bbd
000002c0: 07aa 8ebd 0d98 883c ff1e c33b 6324 99bd
000002d0: a50a 203d 1812 00bd 2a69 833d 5bf3 06bd
000002e0: b452 043c 93b0 41bb 034e 08bd 728a a7bd
000002f0: 6573 dcb8 60ee 83bd de2d 1bbd 0479 a83d
00000300: d278 103d 0ff2 273c a2f3 21bc 2301 0dbd
00000310: d08e a8bd 59e3 66bd 06c2 963d 2a6c 30bd
00000320: e9a0 843d bd1a 0e3c e2c6 e5bc a59e 3f3d
00000330: e1d1 1cbd 0963 7d3c 051a c33c da05 b1bd
00000340: f086 98bd a5d3 68bc cf37 43bd 43f0 793d
00000350: e312 113d 4ef3 d03c 8d4f 4c3d 0976 c739
00000360: ae59 9f3b f1b2 8fbd b0ff b23d 46b7 673d
00000370: e642 993d 89be 1dbd e648 1ebd f282 ffbc
00000380: 6bb9 27bc d408 96bd b249 f93b 0c1c 88bd
00000390: ad60 e2bc 3e9e f83b 6f41 45bd cd1e 9dbd
000003a0: 7e4e 693d 09e1 85bd 57bf 823d 35ac 4ebd
000003b0: f376 333d 49f0 92bd 87f1 b03d dc90 64bd
000003c0: 2a99 5f3d 52d9 83bd 79d8 3f3d b555 9cbd
000003d0: dea9 db3c 9df2 ab3c 63e2 0abd 7b62 273d
000003e0: 7f1d 9a3d 5a4a 89bd 3148 903c 06b5 8e3d
000003f0: 10e8 93bb 3b50 2d3d 751a 423d e82b a3bd

lstm.bias_ih_l1 f4 [512]
0.033171475 0.0029490434 0.026027394 -0.06537084 -0.07429076 -0.066162474 0.054026082 -0.017591197
0.072941154 -0.004634615 -0.010885683 0.09429788 0.021034831 0.041519098 -0.062337857 0.075038694
-0.040172134 0.02683082 -0.055969216 0.015497242 -0.0719368 -0.048670705 0.053087037 -0.051190805
-0.047808368 -0.03931354 0.07455788 0.09758593 0.08521632 -0.050133515 -0.0030101328 0.0058500962
0.07030817 0.06461672 0.049630538 0.016631898 0.05362095 -0.08376573 0.04483652 0.010950775
-0.018297164 0.0075533804 -0.050020676 -0.07066634 -0.029222235 0.010265587 -0.08081155 -0.036356997
0.008614128 -0.07891937 0.011320197 0.051580887 0.06495531 -0.0021593806 0.00660638 -0.046676654
0.08109166 -0.031533003 0.016590582 -0.029277615 0.09164982 -0.009583368 0.077498354 0.00015345443
0.06852702 -0.013282559 0.07573816 0.07047079 0.0005908988 0.06352335 -0.016149156 0.054797735
-0.025813382 -0.040739514 -0.06024089 0.028891284 0.0039709504 -0.036476746 -0.022608632 0.050126858
0.016171481 0.043180544 0.07662408 0.0035386183 0.05873486 -0.040402398 0.05426935 0.03735095
0.043295905 0.09328888 0.08885031 0.09031869 -0.006891231 -0.024495514 -0.075474836 -0.009754481
0.090372585 0.07926107 0.05671343 -0.06755282 0.057966836 -0.057367004 -0.006799839 -0.006325713
-0.046910603 -0.021548057 -0.039561108 -0.021230198 -0.025451085 0.092237264 0.058537837 -0.028539719
0.018074788 -0.017224299 0.1011624 -0.07864387 0.06780205 -0.0117205735 0.14352763 0.0043982035
0.05826465 -0.074972115 0.041580055 0.0060922406 -0.0008778918 -0.03646621 0.08655853 0.045292404
-0.047847245 -0.04121987 0.07022851 0.048584513 -0.024707936 -0.073333524 0.07479939 -0.04554644
0.04524863 -0.0762878 -0.08380625 -0.0016593537 -0.08465449 0.028987514 -0.022682743 0.02841322
0.009367152 0.05513899 -0.037214346 -0.0490467 0.007128633 -0.091533355 0.04063167 -0.014149292
-0.053651035 0.050393365 -0.039913036 0.07851334 -0.0017829919 -0.026321407 -0.06780591 -0.07940371
-0.07618488 0.05482393 -0.00567441 -0.09463364 0.06212301 0.029189335 -0.09632885 -0.033090185
-0.061882906 -0.009193507 0.0642443 0.027084786 0.041118603 0.012120645 0.011652371 0.051830944
-0.06310486 0.028578136 0.021553818 -0.02440608 0.093853675 -0.006052613 -0.0031396039 0.07713762
0.011011577 -0.034325395 -0.010788499 -0.0382801 -0.073357366 0.05664357 0.060693685 0.08722751
-0.018699585 0.03504601 0.071752384 -0.03226589 -0.08026343 0.052836437 -0.025777057 0.08695675
0.022553949 0.040100027 0.028180055 -0.07614637 -0.07275664 0.05493525 0.07513233 -0.009612725
0.0006612312 0.060569208 0.05125397 -0.0028222022 -0.031916246 -0.015825784 0.047086548 -0.07626122
0.019585209 -0.03530812 -0.036063764 0.074151754 -0.04143159 -0.06288354 -0.076105475 -0.024594348
0.0009936477 -0.0022017816 -0.076107845 -0.07718821 0.07322581 0.046001308 0.0641823 -0.018595118
-0.04974711 -0.043300245 0.02559824 -0.06258698 -0.040575463 0.06421146 -0.042774 0.027584516
-0.03117194 0.003803439 -0.018239867 0.080482006 -0.002745203 -0.05387982 -0.056999158 -0.054268055
-0.03258809 -0.029545836 0.043939505 -0.09595042 0.019041298 0.023521323 -0.016553102 0.00020185718
00000000: d0de 073d bd44 413b 6737 d53c 26e1 85bd
00000010: c125 98bd 3180 87bd 744a 5d3d 6a1b 90bc
00000020: 2c62 953d f8dd 97bb dd59 32bc 3f1f c13d
00000030: 3d51 ac3c ee0f 2a3d fb55 7fbd e3ad 993d
00000040: 898b 24bd 4fcc db3c fa3f 65bd 25e8 7d3c
00000050: 9a53 93bd ef5a 47bd cb71 593d 73ad 51bd
00000060: b5d2 43bd 3c07 21bd cdb1 983d 22db c73d
00000070: e585 ae3d cd58 4dbd a645 45bb 2ab2 bf3b
00000080: bbfd 8f3d c555 843d 6449 4b3d 9e3f 883c
00000090: a4a1 5b3d 5e8d abbd 80a6 373d e16a 333c
000000a0: efe3 95bc 5982 f73b 7be2 4cbd 84b9 90bd
000000b0: 7863 efbc fe30 283c 8780 a5bd 13eb 14bd
000000c0: 4622 0d3c 7ba0 a1bd 5978 393c 7b46 533d
000000d0: 4a07 853d 6584 0dbb 557a d83b 0530 3fbd
000000e0: 6213 a63d c028 01bd f9e8 873c 9cd7 efbc
000000f0: e7b2 bb3d 8f03 1dbc 75b7 9e3d 9ce8 2039
00000100: e557 8c3d 179f 59bc 9c1c 9b3d fd52 903d
00000110: 8ce6 1a3a 8818 823d 3c4b 84bc 9773 603d
00000120: 9676 d3bc 7ade 26bd 27bf 76bd 6aad ec3c
00000130: bf1e 823b a468 15bd bd35 b9bc d251 4d3d
00000140: 0e7a 843c 15de 303d 16ed 9c3d 2ae8 673b
00000150: f793 703d fc7c 25bd 8a49 5e3d 4ffd 183d
00000160: 0c57 313d 3e0e bf3d 27f7 b53d 01f9 b83d
00000170: d6cf e1bb d1aa c8bc 8d92 9abd 42d1 1fbc
00000180: 4315 b93d a153 a23d 574c 683d 2259 8abd
00000190: a26e 6d3d aaf9 6abd 2fd1 debb ed47 cfbb
000001a0: 5525 40bd 8d85 b0bc d40a 22bd f4ea adbc
000001b0: cb7e d0bc e4e6 bc3d 5fc5 6f3d 21cc e9bc
000001c0: 9411 943c f919 8dbc 3b2e cf3d 0a10 a1bd
000001d0: cddb 8a3d a607 40bc e8f8 123e ce1e 903b
000001e0: eaa6 6e3d fb8a 99bd d94f 2a3d 6ba1 c73b
000001f0: 5222 66ba 985d 15bd 9945 b13d 8784 393d
00000200: 79fb 43bd 2bd6 28bd f7d3 8f3d 8e00 473d
00000210: 4c68 cabc e32f 96bd 6c30 993d e78e 3abd
00000220: a156 393d c73c 9cbd 9ca2 abbd ac7e d9ba
00000230: 555f adbd 3977 ed3c 29d1 b9bc d7c2 e83c
00000240: af78 193c 6cd9 613d 126e 18bd 31e5 48bd
00000250: 4f97 e93b d775 bbbd 656d 263d 6fd2 67bc
00000260: 30c1 5bbd 4669 4e3d da7b 23bd 9acb a03d
00000270: 48b3 e9ba fe9f d7bc d3dd 8abd 6a9e a2bd
00000280: d206 9cbd 0f8f 603d 67f0 b9bb 48cf c1bd
00000290: b374 7e3d 791e ef3c 0f48 c5bd 9389 07bd
000002a0: ee78 7dbd 5da0 16bc 8492 833d eae0 dd3c
000002b0: fb6b 283d ab95 463c 96e9 3e3c af4c 543d
000002c0: 1f3d 81bd b21c ea3c a291 b03c 42ef c7bc
000002d0: 5b36 c03d ff54 c6bb d0c1 4dbb 54fa 9d3d
000002e0: e769 343c c998 0cbd 3fc2 30bc 98cb 1cbd
000002f0: 633c 96bd 1703 683d f199 783d 56a4 b23d
00000300: df2f 99bc 688c 0f3d eaf2 923d 3d29 04bd
00000310: 2761 a4bd 056b 583d 682a d3bc 6116 b23d
00000320: 0fc3 b83c ed3f 243d dcd9 e63c a1f2 9bbd
00000330: 6f01 95bd c903 613d fbde 993d b17e 1dbc
00000340: 7a56 2d3a 6b17 783d afef 513d b2f4 38bb
00000350: 9cba 02bd 13a5 81bc d3dd 403d d82e 9cbd
00000360: 2971 a03c 3f9f 10bd 99b7 13bd e0dc 973d
00000370: 2cb4 29bd 16c9 80bd 30dd 9bbd 167a c9bc
00000380: 493d 823a c44b 10bb 6ede 9bbd da14 9ebd
00000390: 6af7 953d de6b 3c3d 0272 833d ca54 98bc
000003a0: a0c3 4bbd 995b 31bd 66b3 d13c 9a2d 80bd
000003b0: 7532 26bd 4c81 833d ca33 2fbd ecf8 e13c
000003c0: 4c5c ffbc 1e43 793b c66b 95bc c0d3 a43d
000003d0: dde8 33bb 16b1 5cbd f377 69bd 2e48 5ebd
000003e0: 177b 05bd 1c0a f2bc e9f9 333d a781 c4bd
000003f0: 7ffc 9b3c caaf c03c 5f9a 87bc a0a9 5339
