models/0005.HK_lstm_SMA50_diff.pth (torch, 807217 bytes, 9 tensors)

lstm.weight_ih_l0 f4 [512, 4]
0.09160483 0.11678181 0.092135265 0.048813466 0.09952196 0.026561897 -0.04352475 0.063339226
0.10663209 -0.009817442 -0.01681877 -0.036368746 0.07238473 0.06270151 0.014190335 0.061411276
0.063453384 -0.017665762 -0.0043307114 -0.028389277 0.014521016 0.1645273 0.096606955 0.009546175
-0.0031587884 -0.01848986 -0.018769942 -0.05062136 0.0035449832 -0.038828716 -0.09362349 0.036973983
-0.001193261 0.04830533 -0.026219118 0.030461678 -0.00362448 0.060314834 0.13333815 0.094160676
0.016985651 -0.06652404 0.058225192 0.014806321 0.14976002 0.13354862 0.27234015 0.15962261
0.08483918 0.048626047 0.08387224 0.0066855764 0.027191186 -0.038479622 -0.053494755 -0.0035297647
0.013153787 0.08795031 0.0056171003 0.04009068 -0.007726483 0.0044038575 0.08218166 0.07706538
0.15951689 0.1353581 0.053167127 0.15803088 0.092429765 0.06800673 0.06889855 0.092214234
-0.001470072 0.016843203 0.12332513 0.025288269 0.06243708 0.013920819 0.092782795 0.010872818
0.11224792 0.06522294 -0.01506293 -0.01984582 0.09899766 0.05136251 -0.043613434 0.08221614
-0.017466286 0.10111726 0.044444926 0.008030181 0.0068187695 0.043055482 0.07659862 0.08394514
0.044346046 0.068632536 0.10198449 0.04044406 0.09564859 0.001499056 0.039881088 -0.06859105
0.06214374 0.084316574 -0.014044384 -0.06027199 -0.014565529 0.025098989 0.041892223 -0.061617747
-0.021587478 -0.026278976 -0.028121755 -0.0066923066 0.12868121 0.11967744 0.035366338 -0.011017417
0.081776574 0.0209426 -0.05245327 0.03815933 -0.04368538 -0.090029836 -0.06676554 -0.07238148
-0.04293437 0.054696854 0.0826779 0.08511197 0.028554512 0.038203187 0.008622039 0.088449664
-0.033284113 -0.058234602 -0.061967872 0.03829682 0.038809452 -0.04836033 -0.032819726 0.09563626
0.006116483 -0.0063193464 0.0009349168 0.07628176 0.02877778 -0.042331424 0.038589302 0.05531554
0.067445114 -0.0058423746 0.062022656 -0.03413238 0.04390431 -0.012637741 -0.0046949526 -0.02158794
0.11883463 0.12211883 -0.0012685368 0.12048445 -0.049315374 -0.009422868 0.055587247 0.055283677
0.01997767 -0.05561361 -0.025921108 0.031735368 0.10873142 0.10520767 0.043191537 0.08937933
0.10862704 0.081678696 0.051002327 0.022077924 -0.02124811 0.0890671 0.03861576 0.073278844
-0.025934434 0.007693089 -0.05197045 0.08772591 0.043504786 -0.03852213 0.0014609675 -0.034541637
-0.10521733 -0.023851393 -0.06122178 0.060274024 0.0431466 -0.039894935 0.05407712 0.01037291
-0.056312412 0.060323022 0.019172193 0.034933772 0.021709142 0.04087586 -0.04061368 0.06242624
0.017600667 0.09888523 0.004374673 -0.025106741 0.01787567 -0.04902469 0.03645344 0.06357389
-0.093696445 0.08728686 0.01775458 0.019447675 0.030121671 -0.06740638 -0.06972326 -0.009919304
0.1882965 0.24022737 0.11898221 0.21466541 0.013220834 0.02779585 -0.0543975 0.021809854
0.09535928 0.110222146 0.0430604 9.109112e-05 0.038083807 -0.055698194 0.008564758 0.09513663
-0.044269644 0.02742966 -0.0021562283 0.006604828 0.04518524 0.10356493 -0.019388989 0.08690487
0.0018976387 0.056481212 -0.0069039543 -0.07217898 0.04705124 0.071467236 -0.014353524 -0.06876409
00000000: 509b bb3d 4d2b ef3d 6ab1 bc3d a1f0 473d
00000010: 2bd2 cb3d 5698 d93c 0247 32bd ffb7 813d
00000020: ed61 da3d 56d9 20bc 84c7 89bc 65f7 14bd
00000030: 723e 943d a669 803d 947e 683c 648a 7b3d
00000040: d9f3 813d cab7 90bc a4e8 8dbb a190 e8bc
00000050: 8ee9 6d3c d879 283e ded9 c53d 8f67 1c3c
00000060: ad03 4fbb 0c78 97bc 6cc3 99bc 5858 4fbd
00000070: f352 683b dc0a 1fbd acbd bfbd 0872 173d
00000080: 3267 9cba cfdb 453d 7ac9 d6bc c58a f93c
00000090: af88 6dbb b00c 773d cc89 083e 50d7 c03d
000000a0: 7e25 8b3c c23d 88bd 8a7d 6e3d 3696 723c
000000b0: b15a 193e f8c0 083e 2b70 8b3e 1c74 233e
000000c0: 2ac0 ad3d 1b2c 473d 35c5 ab3d ae12 db3b
000000d0: 0dc0 de3c cf9c 1dbd 511d 5bbd a053 67bb
000000e0: fb82 573c 4b1f b43d a70f b83b 2036 243d
000000f0: 702e fdbb 3c4e 903b dc4e a83d 74d4 9d3d
00000100: 6558 233e 509b 0a3e c6c5 593d d9d2 213e
00000110: d14b bd3d 1d47 8b3d af1a 8d3d d1da bc3d
00000120: 6eaf c0ba c2fa 893c e391 fc3d 5829 cf3c
00000130: 06be 7f3d 2614 643c e804 be3d e723 323c
00000140: 3de2 e53d 9b93 853d 82ca 76bc b393 a2bc
00000150: 49bf ca3d 7f61 523d 00a4 32bd f060 a83d
00000160: 7515 8fbc 9116 cf3d e20b 363d 0591 033c
00000170: fc6f df3b f25a 303d bddf 9c3d 6eeb ab3d
00000180: 33a4 353d 378f 8c3d 3fdd d03d aca8 253d
00000190: 68e3 c33d f97b c43a 5a5a 233d 7779 8cbd
000001a0: 6f8a 7e3d 2bae ac3d 6a1a 66bc c3df 76bd
000001b0: 42a4 6ebc 659c cd3c 2e97 2b3d e462 7cbd
000001c0: 39d8 b0bc 0247 d7bc 985f e6bc 234b dbbb
000001d0: 02c5 033e 7219 f53d 4bdc 103d 6582 34bc
000001e0: 7a7a a73d d18f ab3c 3dd9 56bd f54c 1c3d
000001f0: 71ef 32bd 9061 b8bd 5fbc 88bd be3c 94bd
00000200: f3db 2fbd cf09 603d 0853 a93d 2f4f ae3d
00000210: 27eb e93c f27a 1c3d 7443 0d3c 1925 b53d
00000220: ec54 08bd 6887 6ebd 06d2 7dbd 20dd 1c3d
00000230: a9f6 1e3d 7b15 46bd fa6d 06bd f2dc c33d
00000240: c76c c83b 8512 cfbb 3415 753a 9d39 9c3d
00000250: 61bf eb3c b763 2dbd d10f 1e3d 8c92 623d
00000260: aa20 8a3d 6471 bfbb 780b 7e3d 65ce 0bbd
00000270: 01d5 333d 870e 4fbc 1ed8 99bb 31d9 b0bc
00000280: 925f f33d 7019 fa3d 0845 a6ba 8dc0 f63d
00000290: ebfe 49bd 5f62 1abc 74af 633d 2371 623d
000002a0: 36a8 a33c 19cb 63bd 8158 d4bc f2fc 013d
000002b0: 94ae de3d 1e77 d73d 9ce9 303d 830c b73d
000002c0: db77 de3d 2947 a73d d1e7 503d c3dc b43c
000002d0: 8410 aebc d068 b63d 8f2b 1e3d 3813 963d
000002e0: 7374 d4bc 4f16 fc3b f7de 54bd a4a9 b33d
000002f0: 1332 323d 62c9 1dbd ef7d bf3a 887b 0dbd
00000300: 2f7c d7bd ff63 c3bc b0c3 7abd e5e1 763d
00000310: 7dba 303d df68 23bd f87f 5d3d 23f3 293c
00000320: d8a7 66bd 4615 773d 010f 9d3c b716 0f3d
00000330: 5fd7 b13c 726d 273d 885a 26bd a8b2 7f3d
00000340: 462f 903c 5784 ca3d 6b59 8f3b a7ac cdbc
00000350: ff6f 923c 1dce 48bd 3450 153d 0733 823d
00000360: ece3 bfbd 74c3 b23d 0e72 913c bb50 9f3c
00000370: b9c1 f63c 5b0c 8abd 12cb 8ebd 9484 22bc
00000380: ccd0 403e 2afe 753e f2ac f33d 40d1 5b3e
00000390: 329c 583c 1fb4 e33c eacf 5ebd 94aa b23c
000003a0: ba4b c33d 26bc e13d 1a60 303d 2c08 bf38
000003b0: c4fd 1b3d ca23 64bd 3353 0c3c fed6 c23d
000003c0: 1654 35bd 2bb4 e03c 824f 0dbb 506d d83b
000003d0: 2914 393d da19 d43d a8d5 9ebc 2efb b13d
000003e0: 30ba f83a d858 673d 913a e2bb 93d2 93bd
000003f0: cdb8 403d 6a5d 923d 0b2b 6bbc 30d4 8cbd

lstm.weight_hh_l0 f4 [512, 128]
0.019972002 0.0004946521 -0.057312973 -0.04756398 -0.039916366 -0.0835272 -0.10315006 0.017093742
-0.007892955 -0.07086499 -0.053735554 -0.03539885 0.032758623 -0.04316301 0.06020901 0.038439788
-0.070101514 -0.04544314 0.0077966824 -0.061204676 -0.063788265 0.08998882 0.055546526 -0.05318889
0.04076447 -0.014705171 0.06996664 0.08325979 -0.04089479 -0.09764446 -0.066705555 0.032620586
0.0064787637 -0.048890542 -0.053863823 -0.07164953 -0.04015587 0.14509895 0.023753047 -0.0014348718
-0.000838419 0.01017212 -0.06397753 0.05065551 0.052628946 0.018478597 0.010499783 0.0870187
0.10354586 -0.002391153 -0.060522407 -0.061176114 0.07114027 -0.03377807 -0.19652833 0.032881815
0.038616315 0.059311092 -0.001915528 0.00012802724 0.04856943 -0.07827341 -0.047103 -0.042908728
-0.020875085 -0.041888878 0.0017417078 0.16511369 -0.0691422 0.056105632 -0.08715619 -0.019124957
0.044265166 0.011415249 -0.019962668 -0.037367932 0.030772232 0.010145318 -0.042140566 0.041660614
0.022232603 -0.10405247 0.039187856 -0.051261112 -0.029135305 -0.029414412 0.047997665 0.0344653
0.056128748 -0.012095216 0.016966939 -0.062053442 0.0332832 -0.035991732 0.017565574 -0.08732337
-0.061352927 0.067599274 -0.014744976 0.04386983 -0.021203054 -0.022801863 -0.08298761 -0.021513894
0.054740556 0.00089966226 -0.078087464 -0.06590814 0.023227008 0.03125105 -0.06025282 0.06383184
0.0081613455 0.04662881 0.0030112467 -0.085717276 -0.03483288 0.07882651 -0.0329928 -0.06095721
-0.057734095 -0.035224278 0.016541675 0.09621582 0.0026749922 -0.077869296 -0.08035396 0.014625982
0.07229089 0.05828972 0.08640184 0.061750345 0.040262803 0.012928525 -0.016576957 -0.08137314
0.05639835 -0.014480782 0.06886953 0.024208842 0.03163875 0.010336241 -0.06289087 -0.09081722
-0.066248484 0.06188596 -0.07588911 0.07847137 -0.036475424 -0.03991764 -0.052353494 0.07298341
0.00787736 0.03881887 8.996532e-05 0.05214755 0.08478887 -0.026007285 0.079493396 0.024425572
0.0703812 0.02620894 -0.0792733 0.030095035 0.035392154 0.028385581 0.07504168 0.056983374
0.083053984 -0.023696475 0.02615027 -0.025008079 -0.08435203 0.009131936 0.0697783 -0.054270297
0.061636973 -0.07911722 -0.02040346 -0.001948785 0.025624385 0.0667701 0.00077214866 0.025461344
0.08031896 -0.08158554 -0.0745633 0.083622895 0.028547084 -0.04308556 -0.044161808 -0.03762335
0.008593527 0.041016255 -0.03786165 -0.014585062 -0.039183658 -0.060706187 -0.023009628 -0.05348313
0.0625051 -0.026299063 0.00043607215 -0.005339939 -0.079618126 -0.064206965 0.019835103 -0.0326436
-0.0015659835 0.04388583 -0.010291231 -0.026058447 -0.08569116 0.08297589 -0.013366302 0.028865077
0.03861623 -0.032610517 -0.030872025 -0.059222635 0.011559542 -0.022603422 -0.015222691 -0.074635096
-0.0041601523 0.016638946 -0.068577535 -0.06705934 -0.062388167 -0.03595376 -0.027965235 0.030293986
-0.07355598 0.012112076 0.016549002 0.05091386 0.030203635 0.04579901 0.018920932 0.04169038
0.077257715 -0.049792957 -0.04256004 0.08850277 -0.014704484 -0.065988205 -0.07728367 0.06927175
0.0065696067 -0.044632945 -0.07307215 0.019143151 -0.06535512 -0.04285716 0.030237883 0.046219952
00000000: 539c a33c 8aab 013a 02c1 6abd 73d2 42bd
00000010: 587f 23bd 4f10 abbd 5740 d3bd 2d08 8c3c
00000020: 7451 01bc aa21 91bd d019 5cbd 62fe 10bd
00000030: e82d 063d b2cb 30bd b99d 763d 0a73 1d3d
00000040: 6291 8fbd 9622 3abd 507b ff3b c1b1 7abd
00000050: 6ca3 82bd 0f4c b83d c184 633d 98dc 59bd
00000060: a5f8 263d f5ed 70bc ab4a 8f3d 1c84 aa3d
00000070: 4c81 27bd d2f9 c7bd ec9c 88bd 2a9d 053d
00000080: cf4b d43b 7341 48bd 50a0 5cbd fdbc 92bd
00000090: 7b7a 24bd d294 143e c095 c23c 4f12 bcba
000000a0: 59c9 5bba f7a8 263c a706 83bd 277c 4f3d
000000b0: 7391 573d 6d60 973c 4807 2c3c dc36 b23d
000000c0: da0f d43d e4b4 1cbb 58e6 77bd ce93 7abd
000000d0: fdb1 913d e05a 0abd b93e 49be 15af 063d
000000e0: 242c 1e3d 30f0 723d 7412 fbba 0d3f 0639
000000f0: bdf0 463d cf4d a0bd 13ef 40bd 10c1 2fbd
00000100: 3a02 abbc ac93 2bbd 044a e43a 9013 293e
00000110: 6d9a 8dbd 05cf 653d f27e b2bd f1ab 9cbc
00000120: 644f 353d 0607 3b3c c088 a3bc 1e0f 19bd
00000130: 0c16 fc3c 8c38 263c 969b 2cbd 52a4 2a3d
00000140: 2621 b63c 7619 d5bd 7283 203d 2cf7 51bd
00000150: 2aad eebc 7ef6 f0bc 3399 443d 7d2b 0d3d
00000160: 42e7 653d 032b 46bc 40fe 8a3c c02b 7ebd
00000170: f753 083d 116c 13bd aee5 8f3c 98d6 b2bd
00000180: 354d 7bbd 7d71 8a3d e994 71bc dab0 333d
00000190: 07b2 adbc f9ca babc 68f5 a9bd e83d b0bc
000001a0: a237 603d 50d7 6b3a 52ec 9fbd d9fa 86bd
000001b0: 9146 be3c 1a01 003d a9cb 76bd 45ba 823d
000001c0: 2ab7 053c dafd 3e3d 5658 453b 8a8c afbd
000001d0: ecac 0ebd cb6f a13d 7523 07bd 44ae 79bd
000001e0: 967a 6cbd 5547 10bd 6882 873c cd0c c53d
000001f0: ec4e 2f3b f079 9fbd 9e90 a4bd d1a1 6f3c
00000200: 3f0d 943d 34c1 6e3d 73f3 b03d eeed 7c3d
00000210: 9cea 243d 2ad2 533c 66cc 87bc f6a6 a6bd
00000220: f501 673d cd40 6dbc 780b 8d3d 9f51 c63c
00000230: a297 013d 5659 293c eecc 80bd 61fe b9bd
00000240: 49ad 87bd 227c 7d3d c06b 9bbd 99b5 a03d
00000250: 4167 15bd ae80 23bd 9e70 56bd 5378 953d
00000260: 0b10 013c 8900 1f3d c3ab bc38 ab98 553d
00000270: c9a5 ad3d 3b0d d5bc 6fcd a23d 2318 c83c
00000280: 0524 903d 22b4 d63c 0a5a a2bd dd89 f63c
00000290: 5df7 103d e188 e83c 74af 993d 6667 693d
000002a0: 3518 aa3d 1c1f c2bc 1739 d63c bedd ccbc
000002b0: c2c0 acbd 1e9e 153c ede7 8e3d 884a 5ebd
000002c0: 0d77 7c3d 3608 a2bd 2825 a7bc 606e ffba
000002d0: 3bea d13c c3be 883d 056a 4a3a 4f94 d03c
000002e0: 447e a43d 5216 a7bd a5b4 98bd 7b42 ab3d
000002f0: 93db e93c 7c7a 30bd 03e3 34bd f11a 1abd
00000300: ddcb 0c3c a900 283d d114 1bbd 2ff6 6ebc
00000310: 0b7f 20bd 0da7 78bd b07e bcbc 2011 5bbd
00000320: ad02 803d 2271 d7bc 9da0 e439 a8fa aebb
00000330: d40e a3bd f17e 83bd 3a7d a23c 4cb5 05bd
00000340: b041 cdba a1c1 333d 8d9c 28bc 8678 d5bc
00000350: d97e afbd 43ef a93d 55fe 5abc 7476 ec3c
00000360: 0d2c 1e3d 9b92 05bd 54e7 fcbc 6f93 72bd
00000370: 3c64 3d3c d02a b9bc 9868 79bc 49da 98bd
00000380: e351 88bb 664e 883c 6172 8cbd 6856 89bd
00000390: bc8a 7fbd 4044 13bd 5917 e5bc 182b f83c
000003a0: 85a4 96bd bb71 463c c691 873c 0d8b 503d
000003b0: 9d6d f73c be97 3b3d 1200 9b3c 88c3 2a3d
000003c0: 4b39 9e3d b3f3 4bbd 7053 2ebd f140 b53d
000003d0: 13eb 70bc d324 87bd e746 9ebd 59de 8d3d
000003e0: db45 d73b 09d1 36bd daa6 95bd 19d2 9c3c
000003f0: e8d8 85bd fd8a 2fbd 70b5 f73c 2251 3d3d

lstm.bias_ih_l0 f4 [512]
0.117299356 -0.059139617 -0.06222971 -0.054760702 0.021964658 0.030679656 -0.053452503 -0.078414716
-0.058239743 0.04168863 0.0054255743 0.18734871 0.05624287 0.007177639 0.010597205 -0.00689659
0.08327987 0.08211536 -0.034290824 -0.084083594 0.115307264 0.07305326 0.066065036 -0.043805715
-0.05148049 0.104277566 0.069050856 -0.049783938 0.06375023 -0.043374896 0.045730032 0.083088085
-0.055733725 -0.026529355 0.081037134 0.05116482 0.08345221 -0.016586656 -0.012788853 -0.06456944
0.108845145 -0.081947625 0.060526226 0.20406783 0.054100405 0.0473401 0.036945123 0.07234951
-0.08360075 -0.08027767 0.05871132 0.06168042 -0.031508405 0.050762985 0.13436471 0.07739912
0.1680151 0.02085293 -0.021102257 0.058306254 0.017315768 0.052470524 0.089523785 0.016564319
0.010368807 0.081149824 -0.056154784 0.14061119 -0.005336133 0.07247138 0.031728968 -0.048618548
-0.015592538 0.011487339 0.09610992 -0.07556049 0.06200061 0.13114366 0.020647956 0.06544292
-0.047171526 -0.06749965 0.06873831 0.07542548 -0.076073095 -0.02196401 -0.054069463 0.063722596
-0.0433302 -0.079166554 0.020215875 0.06347306 0.06012118 0.09219754 -0.04762557 -0.03217254
-0.038130537 0.082052596 0.06768363 0.09488962 0.00019470048 -0.04769724 -0.046101328 -0.015508315
-0.071686156 -0.040368095 0.033910535 0.046417445 0.013678738 -0.021885114 0.081558034 0.033284556
0.025045445 0.07938093 0.052070443 0.017835096 0.062515534 0.15595703 -0.06878704 0.08885545
-0.014571409 -0.01365931 0.00779157 0.08225473 -0.03120612 0.26130888 -0.03136163 0.03862337
0.041167427 -0.024940377 -0.03497016 0.03432342 -0.032628525 -0.03967891 0.074140094 0.022759749
-0.07521083 0.023202056 0.029073577 -0.06051864 0.015591701 -0.010844846 0.005895585 -0.07333162
-0.043490376 -0.08260534 -0.003166293 -0.014322176 -0.034276243 -0.09692545 -0.053152543 0.050250027
-0.01531372 -0.06835736 -0.034860224 0.04900612 -0.008001344 -0.06253522 -0.07042533 0.03596341
0.02399231 -0.0052916864 -0.06758605 0.068981975 -0.052188 0.10047794 0.035274785 -0.011038051
-0.08688872 0.052806504 -0.059501503 0.0294038 0.070650965 -0.0684073 -0.06010267 0.06863922
0.058710005 0.058008973 0.036944754 -0.10526925 0.018674757 -0.0054975785 0.08106082 -0.101034634
-0.19908075 0.07085437 0.006793801 0.035915192 0.05011091 -0.00295044 0.05156877 -0.04890625
-0.01572681 -4.9803697e-05 0.06382673 -0.045415305 0.05277687 0.06463474 -0.02379692 0.057129722
-0.068989694 -0.014605465 0.017443249 -0.046427872 0.04344378 0.049643546 0.017166113 0.06813442
0.01625894 -0.03526075 0.043966062 0.02299246 -0.051524106 -0.0051855803 -0.035556033 -0.013512392
-0.06628259 -0.08486939 0.0036226544 -0.04237531 0.029726109 -0.062248293 -0.070901975 0.059908856
-0.043415233 -0.06987304 -0.03849629 0.03381697 -0.0041325795 0.022647373 0.06065102 -0.06313586
0.076574065 0.025399039 0.0048656017 0.06633875 -0.029738428 -0.0068585896 -0.03499323 0.0007510357
0.03424001 -0.00091919885 -0.07426563 0.014244604 0.0032949722 -0.14685953 0.018311175 0.026334297
0.0095591955 -0.0027445143 0.007549871 -0.024289332 -0.059287056 -0.11721077 0.04462295 -0.0028186003
00000000: a53a f03d 623c 72bd 95e4 7ebd c24c 60bd
00000010: 3aef b33c e753 fb3c 03f1 5abd e597 a0bd
00000020: cc8c 6ebd b2c1 2a3d 04c9 b13b 57d8 3f3e
00000030: ec5e 663d 6632 eb3b e69f 2d3c cafc e1bb
00000040: a38e aa3d 192c a83d 8974 0cbd 0534 acbd
00000050: 3726 ec3d f39c 953d 1b4d 873d 9f6d 33bd
00000060: 35dd 52bd 7a8f d53d 896a 8d3d 3eea 4bbd
00000070: 7b8f 823d e0a9 31bd 6a4f 3b3d 162a aa3d
00000080: 0c49 64bd 1754 d9bc ccf6 a53d 3492 513d
00000090: fee8 aa3d bde0 87bc 5688 51bc fc3c 84bd
000000a0: 34ea de3d 28d4 a7bd 59ea 773d 28f7 503e
000000b0: 6398 5d3d b1e7 413d c553 173d fb2b 943d
000000c0: df36 abbd 9e68 a4bd 487b 703d 9ca4 7c3d
000000d0: f50e 01bd d9ec 4f3d e796 093e 6e83 9e3d
000000e0: 260c 2c3e c4d3 aa3c a4de acbc 8ad2 6e3d
000000f0: ccd9 8d3c 55eb 563d 3f58 b73d e5b1 873c
00000100: eee1 293c e131 a63d 8f02 66bd 61fc 0f3e
00000110: bada aebb e06b 943d 3cf6 013d 3e24 47bd
00000120: d877 7fbc 6435 3c3c 47d5 c43d 75bf 9abd
00000130: 5af4 7d3d 864a 063e e725 a93c f006 863d
00000140: ee36 41bd 423d 8abd acc6 8c3d ad78 9a3d
00000150: 36cc 9bbd deed b3bc f177 5dbd fe80 823d
00000160: 027b 31bd 1322 a2bd c39b a53c 2afe 813d
00000170: a041 763d 10d2 bc3d 0813 43bd 5ac7 03bd
00000180: c42e 1cbd 310b a83d b79d 8a3d 7d55 c23d
00000190: 8328 4c39 2e5e 43bd bfd4 3cbd 9616 7ebc
000001a0: 31d0 92bd 0459 25bd c6e5 0a3d 3820 3e3d
000001b0: c91c 603c 6948 b3bc e607 a73d 6355 083d
000001c0: 1b2c cd3c 7892 a23d d147 553d e81a 923c
000001d0: 2508 803d 33b3 1f3e 38e0 8cbd d9f9 b53d
000001e0: ebbc 6ebc 4ccb 5fbc 6d50 ff3b 2b75 a83d
000001f0: faa3 ffbc 47ca 853e 0d75 00bd 8a33 1e3d
00000200: 2d9f 283d c34f ccbc df3c 0fbd b796 0c3d
00000210: 7da5 05bd 5a86 22bd c3d6 973d a772 ba3c
00000220: 2308 9abd 3d12 be3c b62b ee3c 65e2 77bd
00000230: 5574 7f3c 95ae 31bc c02f c13b e32e 96bd
00000240: f722 32bd fd2c a9bd 9581 4fbb 8fa7 6abc
00000250: 3f65 0cbd da80 c6bd 7bb6 59bd f9d2 4d3d
00000260: 66e6 7abc f2fe 8bbd 98c9 0ebd a4ba 483d
00000270: 1218 03bc 7712 80bd 283b 90bd 5e4e 133d
00000280: 858b c43c e265 adbb 8e6a 8abd 6c46 8d3d
00000290: 16c3 55bd 61c7 cd3d 4b7c 103d f1d8 34bc
000002a0: b7f2 b1bd a24b 583d d9b7 73bd 3de0 f03c
000002b0: 74b1 903d 2019 8cbd 382e 76bd b892 8c3d
000002c0: e779 703d d19a 6d3d 6253 173d 6897 d7bd
000002d0: cefb 983c 0825 b4bb 3703 a63d 3feb cebd
000002e0: d3db 4bbe 191c 913d 899e de3b cf1b 133d
000002f0: 1941 4d3d 2b5c 41bb c639 533d ec51 48bd
00000300: 83d5 80bc 50e4 50b8 97b7 823d 6605 3abd
00000310: 8f2c 583d 385f 843d c2f1 c2bc db00 6a3d
00000320: 784a 8dbd c34b 6fbc 25e5 8e3c 272b 3ebd
00000330: 1bf2 313d 0857 4b3d f39f 8c3c 0f8a 8b3d
00000340: 7831 853c 946d 10bd c215 343d af5a bc3c
00000350: f10a 53bd cdeb a9bb 34a3 11bd 1463 5dbc
00000360: 2bbf 87bd 01d0 adbd 0e6a 6d3b bc91 2dbd
00000370: 2b84 f33c 11f8 7ebd 0e35 91bd fd62 753d
00000380: 2cd4 31bd 9919 8fbd 49ae 1dbd aa83 0a3d
00000390: 976a 87bb fc86 b93c 346d 783d 604d 81bd
000003a0: ddd2 9c3d a511 d03c a06f 9f3b 9cdc 873d
000003b0: 019e f3bc 05be e0bb 1055 0fbd 27e1 443a
000003c0: 413f 0c3d 64f6 70ba 9418 98bd 3362 693c
000003d0: 76f0 573b 5862 16be 5101 963c 06bb d73c
000003e0: 2c9e 1c3c 4fdd 33bb e964 f73b 6cfa c6bc
000003f0: fcd6 72bd 330c f0bd 8ec6 363d 44b8 38bb

lstm.bias_hh_l0 f4 [512]
0.09148191 0.06947045 0.09388505 -0.07534157 0.010474454 0.0024442025 0.04228649 -0.086553566
0.07448698 -0.06125653 0.045514062 0.180618 -0.08575882 0.042730372 0.064286046 0.014960776
0.08738529 0.03660196 -0.007446209 0.011352919 0.053544655 0.009642482 0.13902313 -0.025835458
0.08139666 0.10784347 0.036584068 -0.029109124 0.06620443 0.12805031 -0.006198555 -0.041658774
0.032396115 0.04010668 0.034994554 0.04282597 0.061182633 0.052581377 0.01861487 -0.004571333
0.13482341 -0.03105975 0.031874686 0.06559684 0.044296633 0.068135515 0.04055456 -0.048973564
-0.0892134 -0.0668269 0.0666082 -0.00797575 0.052211013 0.009877463 0.042626053 -0.052617345
0.1638925 0.094898604 0.053384848 0.03828739 0.039292067 -0.02103196 -0.0799864 0.08526407
0.06666619 -0.048698194 0.072708085 0.024169547 0.0743479 0.06884037 0.05123837 0.018966299
0.05546679 -0.06931467 0.0753061 -0.008027575 -0.00852368 0.1385426 0.0370525 -0.06289694
-0.033411704 0.05996023 0.051251013 0.05742273 -0.02664208 0.052154362 -0.074413635 -0.053429365
-0.064467564 0.06982427 0.06552146 -0.05159139 0.008650082 0.0027511832 0.08223672 -0.028518818
-0.0059302878 0.083168976 0.03702949 -0.025790904 -0.04293061 -0.026873952 0.0027155238 -0.04511866
0.012244492 0.075563595 -0.009064918 -0.011081701 0.009501777 -0.045549292 -0.046374124 -0.032436457
-0.018483005 0.07022673 0.021959051 0.08198677 -0.027415583 0.20281851 0.0884005 0.057217743
-0.05124894 0.07759268 0.059640657 0.016405119 -0.06641981 0.21794763 0.091134444 0.058245633
-0.08917201 -0.021974115 0.018080724 -0.06847407 -0.07392801 0.017831637 -0.0030840854 -0.07045038
0.08203157 -0.01180909 0.04435167 -0.044212706 -0.0700511 0.008071344 -0.018630262 -0.07771828
-0.111262195 -0.039549507 0.07528854 -0.03789988 -0.071090735 0.01409388 0.024426747 -0.06658568
-0.06699385 -0.010211421 -0.098159686 0.042021077 -0.08306401 -0.061772715 -0.02973132 -0.040450346
-0.029949214 -0.02732806 0.029515475 -0.08002145 -0.07170453 0.0984536 0.056019835 -0.058746923
-0.009068357 0.04239934 0.05626607 -0.04599882 -0.016895203 -0.015851254 -0.073950306 0.07585191
-0.017816655 0.00975366 -0.036753103 -0.058940712 -0.024848834 0.046789333 0.15115209 0.05162565
-0.17557432 -0.030091446 -0.001451286 -0.046417776 -0.019840278 -0.089541025 0.08893868 -0.053348973
0.0035530413 -0.08847512 -0.06844619 -0.055045124 0.07143407 -0.08667032 -0.039058264 -0.057979506
-0.047889788 -0.034129415 -0.0450023 0.09058911 -0.079625875 0.052300487 -0.08941277 -0.0627291
0.017951991 0.037820727 -0.04457474 0.054341096 -0.012678165 -0.071573 -0.054350067 -0.021154536
-0.037870806 -0.0044908593 0.041373987 -0.011895 0.08018532 0.06752484 -0.070442714 0.069057055
0.024024364 0.017899437 -0.08388031 -0.0005026404 0.087154865 -0.020460514 -0.0053994004 -0.063495666
-0.018091397 0.079641834 -0.05506311 -0.03535133 0.039479837 0.04516088 0.067515835 -0.08086755
0.021292508 -0.004601689 0.0037244486 -0.0005294265 -0.0646756 -0.123194665 -0.0055497037 -0.03756758
0.028218905 0.08527891 -0.0111982785 0.0017028574 0.03838755 -0.035553925 0.011944991 0.04553004
00000000: de5a bb3d 8646 8e3d ce46 c03d ae4c 9abd
00000010: 0b9d 2b3c ea2e 203b 9934 2d3d ff42 b1bd
00000020: a18c 983d 21e8 7abd f46c 3a3d edf3 383e
00000030: 52a2 afbd 0b06 2f3d 67a8 833d 0b1e 753c
00000040: 0ff7 b23d f0eb 153d 54ff f3bb 9801 3a3c
00000050: a451 5b3d 80fb 1d3c 145c 0e3e e2a4 d3bc
00000060: 4bb3 a63d 0add dc3d 2dd9 153d 4276 eebc
00000070: 3096 873d 9f1f 033e 401d cbbb 64a2 2abd
00000080: cab1 043d e746 243d 7356 0f3d 496a 2f3d
00000090: a49a 7a3d 925f 573d 367e 983c 1fcb 95bb
000000a0: 260f 0a3e 0471 febc 088f 023d a357 863d
000000b0: 6370 353d a28a 8b3d 8a1c 263d 8198 48bd
000000c0: 84b5 b6bd 8bdc 88bd e169 883d b8ac 02bc
000000d0: 37db 553d 15d5 213c a898 2e3d 4985 57bd
000000e0: 6fd3 273e 335a c23d 12aa 5a3d 3dd3 1c3d
000000f0: b8f0 203d 384b acbc e9cf a3bd ee9e ae3d
00000100: 4988 883d c277 47bd fae7 943d 37ff c53c
00000110: b643 983d 2efc 8c3d 53df 513d 365f 9b3c
00000120: 2531 633d daf4 8dbd 163a 9a3d 1786 03bc
00000130: e8a6 0bbc 1dde 0d3e 5dc4 173d 1cd0 80bd
00000140: b6da 08bd dc98 753d 95ec 513d 1934 6b3d
00000150: 7e40 dabc d09f 553d 2d66 98bd c0d8 5abd
00000160: 9207 84bd 0700 8f3d 1d30 863d 7e51 53bd
00000170: 13b9 0d3c 324d 343b ba6b a83d 4ca0 e9bc
00000180: dc52 c2bb 7f54 aa3d 3cac 173d 7247 d3bc
00000190: 02d8 2fbd c326 dcbc eef6 313b 58ce 38bd
000001a0: 1f9d 483c 16c1 9a3d 0685 14bc 0690 35bc
000001b0: 57ad 1b3c e591 3abd cbf2 3dbd 17dc 04bd
000001c0: ac69 97bc 08d3 8f3d 78e3 b33c aee8 a73d
000001d0: a596 e0bc a8af 4f3e 520b b53d 275d 6a3d
000001e0: 69ea 51bd e9e8 9e3d c349 743d 0764 863c
000001f0: 1c07 88bd aa2d 5f3e b2a4 ba3d f992 6e3d
00000200: d19f b6bd 0f03 b4bc 071e 943c 223c 8cbd
00000210: 9267 97bd a713 923c 5e1e 4abb 4a48 90bd
00000220: 2b00 a83d ea7a 41bc 19aa 353d 6218 35bd
00000230: f376 8fbd ac3d 043c 7e9e 98bc c32a 9fbd
00000240: 6fdd e3bd aafe 21bd e130 9a3d e83c 1bbd
00000250: 0598 91bd 04ea 663c 9a1a c83c 135e 88bd
00000260: 1234 89bd ce4d 27bc f207 c9bd 4b1e 2c3d
00000270: 771d aabd 6305 7dbd 198f f3bc 43af 25bd
00000280: 0e58 f5bc 18df dfbc 70ca f13c 49e2 a3bd
00000290: d3d9 92bd 0ba2 c93d 0e75 653d 9da0 70bd
000002a0: 7293 14bc eeaa 2d3d 4077 663d 4269 3cbd
000002b0: cf67 8abc 7dda 81bc 4273 97bd 3f58 9b3d
000002c0: 3cf4 91bc d1cd 1f3c 6c8a 16bd d16b 71bd
000002d0: c88f cbbc 2ca6 3f3d 9dc7 1a3e 6b75 533d
000002e0: c1c9 33be 5682 f6bc 1439 beba 9120 3ebd
000002f0: 1488 a2bc 4961 b7bd 7c25 b63d 7484 5abd
00000300: 24da 683b 7232 b5bd 842d 8cbd ff76 61bd
00000310: 074c 923d 3580 b1bd 8ffb 1fbd eb7b 6dbd
00000320: 1528 44bd 49cb 0bbd 5554 38bd c986 b93d
00000330: e412 a3bd 0939 563d 0b1e b7bd 1d78 80bd
00000340: 0e10 933c e8e9 1a3d 0194 36bd c594 5e3d
00000350: 14b8 4fbc dd94 92bd 2d9e 5ebd 474c adbc
00000360: 6b1e 1bbd 0f28 93bb c577 293d 3fe3 42bc
00000370: 3338 a43d 774a 8a3d 4544 90bd c96d 8d3d
00000380: bece c43c d7a1 923c 71c9 abbd a0c3 03ba
00000390: 407e b23d cf9c a7bc 74ed b0bb 040a 82bd
000003a0: 6934 94bc 421b a33d db89 61bd 8ecc 10bd
000003b0: 9cb5 213d 9dfa 383d be45 8a3d e39d a5bd
000003c0: a06d ae3c c4c9 96bb e115 743b 36c9 0aba
000003d0: a474 84bd 7c4d fcbd 4ada b5bb 76e0 19bd
000003e0: 552b e73c b6a6 ae3d fc78 37bc 6a32 df3a
000003f0: 433c 1d3d fea0 11bd ecb4 433c b57d 3a3d

lstm.weight_ih_l1 f4 [512, 128]
-0.057774514 0.07631078 0.012808646 0.021244796 0.06111966 -0.028583735 0.028942786 0.023124801
0.072649606 0.064589225 0.042316843 -0.04926009 -0.06610738 0.026567161 -0.043923344 0.058694407
0.061125904 -0.06020221 -0.06998125 -0.08408634 -0.052241426 -0.06312668 0.08017003 0.016155122
0.0722532 -0.023041258 0.06828899 0.037549432 0.12314164 0.08122342 -0.07081171 0.0101944385
-0.042271372 0.06396306 -0.012251867 0.0032529815 0.075298116 0.12851156 0.01451578 -0.092682324
-0.0333542 -0.04297362 0.006294712 0.0742272 0.04395152 -0.023669986 0.009817268 0.06357476
0.00023744476 0.038631763 -0.03962426 -0.021427691 0.047319394 0.051873077 0.019897508 -0.040111717
-0.015162545 -0.08470923 0.04289099 0.01800639 -0.021416513 -0.07522571 -0.03458942 0.09087742
0.026914565 0.027624192 0.10180588 0.036661197 -0.05340614 0.077622846 -0.061545055 0.023047319
0.010132768 0.08099409 0.082988724 -0.012123035 0.02400318 -0.052799765 -0.030058524 0.008581817
0.07134946 -0.08351942 0.016449586 0.0059892833 -0.025098937 -0.03808291 0.0006716274 0.012274377
-0.0645833 -0.002141919 -0.051619727 0.06476396 0.03224666 -0.059349738 0.03472927 0.04512731
0.029551776 -0.022129767 0.049514815 0.057877555 0.09571732 -0.020893075 -0.013196152 -0.0858732
-0.051891286 -0.08967518 -0.057867285 -0.06816295 -0.0011966076 0.10438944 -0.015773606 -0.02189543
-0.0046475115 0.10853417 -0.045435257 -0.013706119 0.06577415 -0.0018490141 0.028638458 -0.022031292
-0.044966847 -0.073631495 -0.03622432 -0.03864595 -0.0417774 -0.023725875 0.03171983 -0.024035385
0.089148656 0.026697928 0.02019815 -0.027595598 -0.0072570974 -0.012331746 0.017006233 -0.07717893
-0.053238995 0.044447497 0.02289957 0.01659381 0.050411575 0.01036532 -0.015242963 -0.08256263
-0.025434906 0.0036066847 -0.06582282 0.012933479 0.028816117 0.04988627 -0.10970554 0.027052797
0.033726722 -0.084993616 0.09730537 0.013622338 -0.035688534 0.080755815 -0.0129048405 0.0025971492
0.002227857 -0.0416741 0.07641659 -0.010408032 0.04286397 -0.08303505 -0.01785964 0.072261974
0.042524576 0.025601082 -0.039689455 0.040763408 -0.06789682 0.02035734 -0.013084783 0.029216437
-0.015195388 -0.008405174 0.062407326 0.01928588 -0.005408045 -0.064028405 0.036674425 0.047364827
-0.10072576 -0.045712344 0.06239435 -0.034525335 -0.08678375 -0.0671279 0.010375894 -0.062283713
-0.07755268 -0.009649926 0.07360565 -0.008577316 -0.052800976 -0.021426791 0.010949048 -0.053611748
0.079317674 0.07241094 -0.07550779 -0.011732733 0.010468473 0.010428629 0.07611486 0.06964277
-0.02569085 -0.058691338 0.06886122 0.040732164 0.039865926 -0.027023016 -0.04482685 0.00047027113
0.028678188 -0.0012860295 0.035535578 0.044002097 -0.076683894 -0.020848379 0.04868863 -0.091983944
-0.07451698 -0.06978844 0.06511764 0.013024185 -0.019895138 -0.0061681136 -0.07264955 0.07366846
0.0759688 0.04293439 -0.023709333 0.02083409 0.017263735 0.04327234 0.09387028 -0.016260456
-0.07169482 0.026231347 0.05653838 -0.03441156 -0.061665658 0.022447001 0.028004376 0.01375171
0.078339994 -0.004476105 0.0027958357 -0.044491716 -0.04361858 -0.072776295 0.06980388 -0.044216163
00000000: f8a4 6cbd d448 9c3d 5bdb 513c 9109 ae3c
00000010: 9c58 7a3d 7028 eabc 6c19 ed3c 3970 bd3c
00000020: 51c9 943d 5b47 843d 6d54 2d3d f3c4 49bd
00000030: 4e63 87bd 60a3 d93c f7e8 33bd 8c69 703d
00000040: 285f 7a3d 9896 76bd 5452 8fbd 7635 acbd
00000050: 1bfb 55bd 9048 81bd 2f30 a43d bf57 843c
00000060: 7cf9 933d 05c1 bcbc 19db 8b3d 6fcd 193d
00000070: af31 fc3d 7758 a63d bb05 91bd 9306 273c
00000080: bf24 2dbd 11ff 823d 0ebc 48bc f92f 553b
00000090: e635 9a3d 8998 033e 98d3 6d3c 3bd0 bdbd
000000a0: 6a9e 08bd 1b05 30bd df43 ce3b 6e04 983d
000000b0: 8206 343d 8fe7 c1bc 9bd8 203c 7c33 823d
000000c0: 98fa 7839 573c 1e3d 0c4d 22bd 2089 afbc
000000d0: fbd1 413d dd78 543d 1900 a33c 2f4c 24bd
000000e0: 536c 78bc 087c adbd 76ae 2f3d 2382 933c
000000f0: af71 afbc f00f 9abd a3ad 0dbd f11d ba3d
00000100: ef7b dc3c 214c e23c 9a7f d03d 0d2a 163d
00000110: 66c0 5abd baf8 9e3d ab16 7cbd bbcd bc3c
00000120: e903 263c 3be0 a53d fef5 a93d b29f 46bc
00000130: 51a2 c43c 9144 58bd 4b3d f6bc c09a 0c3c
00000140: aa1f 923d 3b0c abbd 48c1 863c c041 c43b
00000150: 499c cdbc d3fc 1bbd 2710 303a 781a 493c
00000160: 4044 84bd 705f 0cbb 356f 53bd f8a2 843d
00000170: 1315 043d b618 73bd 4740 0e3d 6ad7 383d
00000180: 9116 f23c 7c49 b5bc 0cd0 4a3d 0411 6d3d
00000190: 7107 c43d f427 abbc ac34 58bc 4ade afbd
000001a0: f58b 54bd 9fa7 b7bd 3f06 6dbd 0499 8bbd
000001b0: 7dd7 9cba 21ca d53d a637 81bc 0b5e b3bc
000001c0: 274a 98bb 2a47 de3d 521a 3abd a18f 60bc
000001d0: 99b4 863d 9e5a f2ba 339b ea3c f87a b4bc
000001e0: 282f 38bd 1ccc 96bd f45f 14bd 374b 1ebd
000001f0: c71e 2bbd c45c c2bc a7ec 013d dbe5 c4bc
00000200: 9293 b63d 9db5 da3c 9776 a53c 2a10 e2bc
00000210: f2cc edbb 170b 4abc a850 8b3c fd0f 9ebd
00000220: 2211 5abd 940e 363d e197 bb3c beef 873c
00000230: 5e7c 4e3d 4ed3 293c 9fbd 79bc 9916 a9bd
00000240: dd5c d0bc 215e 6c3b 1dce 86bd f1e6 533c
00000250: c70f ec3c 8c55 4c3d 4cad e0bd d49d dd3c
00000260: 0825 0a3d 2211 aebd 0a48 c73d 3a30 5f3c
00000270: 242e 12bd 4e63 a53d d36e 53bc ef34 2a3b
00000280: 3d01 123b 76b2 2abd 4d80 9c3d 7386 2abc
00000290: 2192 2f3d 480e aabd 614e 92bc 16fe 933d
000002a0: 402e 2e3d 5cb9 d13c 6991 22bd 88f7 263d
000002b0: 7d0d 8bbd 70c4 a63c 8f61 56bc 4f57 ef3c
000002c0: 14f6 78bc dbb5 09bc d39e 7f3d 6cfd 9d3c
000002d0: f835 b1bb 5321 83bd ec37 163d 9f01 423d
000002e0: 4f49 cebd de3c 3bbd 3891 7f3d 706a 0dbd
000002f0: aebb b1bd 5a7a 89bd a7ff 293c 351d 7fbd
00000300: f1d3 9ebd b91a 1ebc 8fbe 963d df87 0cbc
00000310: d645 58bd 3d87 afbc a363 333c fe97 5bbd
00000320: 4e71 a23d 304c 943d d4a3 9abd a63a 40bc
00000330: f583 2b3c d7dc 2a3c 1ce2 9b3d dea0 8e3d
00000340: 9e75 d2bc 5466 70bd 1c07 8d3d c5d6 263d
00000350: 744a 233d 5f5f ddbc 5c9c 37bd b98e f639
00000360: 85ee ea3c fd8f a8ba c18d 113d 8b3b 343d
00000370: 720c 9dbd 38ca aabc bb6d 473d 1462 bcbd
00000380: 5c9c 98bd 3eed 8ebd 665c 853d 6463 553c
00000390: 21fb a2bc e31d cabb 4ac9 94bd 7ddf 963d
000003a0: 8895 9b3d f9db 2f3d 133a c2bc 41ac aa3c
000003b0: ad6c 8d3c 563e 313d 103f c03d a634 85bc
000003c0: bcd4 92bd 1fe3 d63c ca94 673d 23f3 0cbd
000003d0: 2195 7cbd c6e2 b73c 6f69 e53c da4e 613c
000003e0: b870 a03d 4aac 92bb 573a 373b f23c 36bd
000003f0: 65a9 32bd bd0b 95bd 56f5 8e3d 021c 35bd

lstm.weight_hh_l1 f4 [512, 128]
-0.06695195 -0.058866583 0.035122696 0.071036585 0.068862796 -0.08075028 -0.053518843 0.07999477
-0.08050235 0.10786758 0.0693789 -0.04771315 -0.090474695 0.028702294 -0.0031444049 -0.06499528
0.044286117 -0.023408389 0.004276836 -0.08028138 -0.036675442 -0.0403948 0.02050334 0.03381359
0.06162699 -0.0038820684 0.09522535 -0.024212606 0.05860478 -0.096461125 0.019576835 0.07750987
-0.0022520758 -0.09958539 -0.05200465 -0.0027519106 -0.025672283 -0.08976056 -0.048342332 0.03771896
0.0025585114 -0.023346255 -0.05485364 0.0431703 -0.07825319 0.09918079 0.11984475 -0.02712441
-0.03399349 -0.059816465 -0.014976844 0.023917751 -0.078752615 0.03726001 0.057282824 -0.006287998
0.040491138 -0.059950292 0.033727586 -0.018527348 0.029387582 0.053950578 -0.014456005 -0.09491347
0.051753964 0.05501949 -0.102201596 0.06657996 0.04494371 -0.026836388 0.08199878 -0.027311848
-0.013865856 -0.0070100417 -0.021131162 -0.07051724 -0.09936986 0.029076237 0.0033169556 -0.00031397722
0.054880287 0.018402709 0.054506328 -0.040075008 -0.01604443 -0.02016857 0.04888241 0.07465411
0.02904721 0.007429767 -0.039847244 -0.050190207 0.06520442 -0.028261589 -0.045866236 -0.07466056
0.06738492 0.062728964 0.020330694 -0.05243389 -0.03255992 0.08971057 -0.0078016217 0.08486233
0.048315395 -0.059897553 0.045666866 -0.07170188 -0.02210366 -0.061256237 0.08550617 0.06710629
0.03954992 -0.0361987 -0.038074605 0.0060731843 0.05427525 -0.027155358 -0.06491864 0.006509817
0.0033192139 -0.032873277 0.0913455 0.0126664415 0.0674201 -0.062289663 -0.054977976 0.036431596
-0.040674396 -0.034355424 -0.02352226 -0.047136076 -0.024496261 -0.04560887 -0.051319573 -0.094151966
0.09583329 0.030195542 0.04162889 0.08396027 -0.06917386 -0.023048947 0.033078246 0.03166812
-0.07264651 0.035472985 -0.022816163 0.006933007 -0.030239308 0.051206816 -0.039555404 0.013688179
0.066022985 0.069694385 -0.07634818 -0.009109826 0.032772228 0.028181547 0.06808919 0.030987425
0.061973125 -0.011462561 -0.07052307 -0.025687344 0.004656866 0.045698784 -0.051599644 0.08020485
-0.01970058 -0.040369358 -0.0690493 0.04411785 -0.021713328 -0.0013136155 -0.011030013 0.07552916
0.049139887 -0.037830103 0.052767806 0.0054375413 -0.07528511 -0.04202403 -0.089996696 -0.011880222
0.0025722731 -0.036261924 -0.04128711 0.03471887 -0.07620573 -0.060656812 -0.050679084 -0.02324009
-0.04955898 -0.04131278 -0.004347808 0.07532716 -0.02068792 -0.06378875 -0.0090079075 0.038192417
0.0661014 0.08329775 0.07475789 -0.05624827 0.043282855 -0.07987155 -0.011437268 -0.016162764
0.0062144836 -0.024730211 -0.016066425 0.022035345 0.028738588 -0.09194515 -0.0064075985 -0.025355969
0.04493938 -0.08170181 -0.08941235 0.067474395 -0.06773776 -0.018237997 -0.000484101 0.04176295
0.055938087 0.088050574 -0.04129587 -0.0071593015 -0.011598574 -0.00229876 0.03190243 -0.061178267
-0.07283924 -0.07690145 0.0540102 -0.0846457 0.0004574864 0.037434913 0.056143958 -0.014194783
-0.0011817276 -0.07852734 -0.090860166 -0.08617876 0.011424658 -0.083764814 -0.033462103 -0.010520505
0.09974936 -0.061684027 0.058108672 -0.0074362285 -0.005590285 -0.019146407 0.012407743 0.04626074
00000000: 1b1e 89bd 161e 71bd d1dc 0f3d a17b 913d
00000010: f007 8d3d 6760 a5bd 9336 5bbd 4cd4 a33d
00000020: 6bde a4bd aee9 dc3d 8616 8e3d dd6e 43bd
00000030: cc4a b9bd 1321 eb3c 5c12 4ebb 3f1c 85bd
00000040: 5c65 353d f3c2 bfbc b324 8c3b 906a a4bd
00000050: fd38 16bd 0575 25bd 9ff6 a73c 1e80 0a3d
00000060: 956c 7c3d 4d6a 7ebb 8205 c33d 8459 c6bc
00000070: 910b 703d 698d c5bd 995f a03c 7fbd 9e3d
00000080: 9097 13bb 6df3 cbbd d402 55bd 6659 34bb
00000090: ae4e d2bc 62d4 b7bd 9c02 46bd 327f 1a3d
000000a0: b3ac 273b a540 bfbc 36ae 60bd 57d3 303d
000000b0: 3543 a0bd 4c1f cb3d 2a71 f53d 0334 debc
000000c0: c23c 0bbd 1c02 75bd 7061 75bc 29ef c33c
000000d0: 0d49 a1bd f49d 183d 65a1 6a3d 8d0b cebb
000000e0: 09da 253d 708e 75bd f025 0a3d aac6 97bc
000000f0: 3abe f03c 48fb 5c3d e1d8 6cbc fe61 c2bd
00000100: f7fb 533d 1e5c 613d 124f d1bd 135b 883d
00000110: e516 383d fcd7 dbbc faee a73d 19bd dfbc
00000120: 9e2d 63bc 7eb4 e5bb 421b adbc 586b 90bd
00000130: 6d82 cbbd 4a31 ee3c 4861 593b 4f9d a4b9
00000140: 27ca 603d 47c1 963c 0742 5f3d b125 24bd
00000150: 9c6f 83bc 8f38 a5bc ec38 483d 41e4 983d
00000160: 6af4 ed3c 6775 f33b dd36 23bd 3f94 4dbd
00000170: e589 853d d984 e7bc 3cde 3bbd a3e7 98bd
00000180: 1b01 8a3d 0b78 803d 8e8c a63c ebc4 56bd
00000190: 8d5d 05bd 2dba b73d bfa4 ffbb 4dcc ad3d
000001a0: 5de6 453d 2357 75bd 2e0d 3b3d 6fd8 92bd
000001b0: bc12 b5bc d2e7 7abd dc1d af3d 066f 893d
000001c0: 19ff 213d 1745 14bd 1ef4 1bbd 9001 c73b
000001d0: b94f 5e3d ea74 debc 10f4 84bd 4e50 d53b
000001e0: 2b87 593b 21a6 06bd 5913 bb3d e886 4f3c
000001f0: 8d13 8a3d 7223 7fbd 9630 61bd 4c39 153d
00000200: 329a 26bd 46b8 0cbd c1b1 c0bc c211 41bd
00000210: 62ac c8bc 5ed0 3abd 7934 52bd bfd2 c0bd
00000220: 3e44 c43d a45c f73c 0e83 2a3d 5df3 ab3d
00000230: 06ab 8dbd 25d1 bcbc 0e7d 073d 6eb6 013d
00000240: b2c7 94bd 1f4c 113d f6e8 babc 472e e33b
00000250: 6db8 f7bc 3dbe 513d d904 22bd 6244 603c
00000260: 0f37 873d eebb 8e3d 6f5c 9cbd 6141 15bc
00000270: 2c3c 063d fddc e63c 5872 8b3d 57d9 fd3c
00000280: 88d7 7d3d 77cd 3bbc 666e 90bd 446e d2bc
00000290: a098 983b a62e 3b3d 265a 53bd 7142 a43d
000002a0: 1c63 a1bc 575a 25bd b869 8dbd ebb4 343d
000002b0: 26e0 b1bc 9f2d acba 3ab7 34bc 08af 9a3d
000002c0: e846 493d bdf3 1abd 0e23 583d 672d b23b
000002d0: 142f 9abd 6421 2cbd 3050 b8bd 43a5 42bc
000002e0: 9593 283b 6287 14bd ac1c 29bd 6035 0e3d
000002f0: c011 9cbd 4773 78bd df94 4fbd 0062 bebc
00000300: 5bfe 4abd 9737 29bd 0f78 8ebb 2045 9a3d
00000310: b679 a9bc ada3 82bd e795 13bc a76f 1c3d
00000320: 2c60 873d 0398 aa3d aa1a 993d 9664 66bd
00000330: 5d49 313d b293 a3bd 6163 3bbc c667 84bc
00000340: dea2 cb3b 0397 cabc bc9d 83bc 7883 b43c
00000350: 306d eb3c bd4d bcbd d5f6 d1bb 52b7 cfbc
00000360: 5b12 383d 4753 a7bd d21d b7bd 0430 8a3d
00000370: 18ba 8abd da67 95bc f0ce fdb9 a10f 2b3d
00000380: 561f 653d dc53 b43d dc25 29bd 9398 eabb
00000390: f207 3ebc cba6 16bb 1fac 023d 1096 7abd
000003a0: bd2c 95bd 827e 9dbd cd39 5d3d ba5a adbd
000003b0: c9da ef39 5a55 193d 35f7 653d 3c91 68bc
000003c0: 33e4 9aba f1d2 a0bd e514 babd 7d7e b0bd
000003d0: 7d2e 3b3c e38c abbd 8f0f 09bd 325e 2cbc
000003e0: 6449 cc3d 64a8 7cbd 5c03 6e3d 9bab f3bb
000003f0: b62e b7bb edd8 9cbc d949 4b3c e77b 3d3d

lstm.bias_ih_l1 f4 [512]
-0.016632881 -0.049185917 0.01884521 0.04461879 0.06831139 -0.0010561415 0.045029487 -0.01756885
-3.137201e-05 -0.040181268 0.057376996 0.017012322 -0.08769312 -0.040265862 -0.019092215 0.042047426
-0.064061806 0.019642852 0.023993257 0.026123194 0.07333056 0.06456896 -0.029691633 -0.088865824
0.018235384 -0.06216875 -0.06063637 -0.022713372 -0.03132297 0.058518305 -0.01671451 0.0066981027
0.057642806 -0.006925105 -0.026577124 0.06288405 0.038480476 -0.073322386 0.04389586 0.061750975
-0.06935503 -0.0049112337 -0.04220169 0.08287172 -0.03697952 -0.0677751 0.021387495 -0.06350279
-0.042057395 0.037515957 0.028804934 0.084557034 -0.06481146 0.06763258 0.11536103 0.037708145
-0.035809994 0.011296246 -0.059114404 0.04366317 0.028607529 0.05618902 -0.012310931 0.07680714
-0.061449636 -0.0675886 -0.02348226 0.067006975 0.09081309 -0.019382713 0.21365602 0.035132844
-0.0205448 -0.014427338 -0.063363925 -0.063078135 0.05112763 -0.078520276 -0.057093747 -0.014439623
-0.08357703 0.08861261 0.04374345 0.08578593 -0.030340554 0.03172086 -0.068233 0.055671155
-0.087152235 0.14180204 0.05437969 0.060778588 -0.026450608 0.016410502 0.09523609 -0.014747394
-0.0031577637 0.021216515 0.00018761805 -0.035368778 0.07704788 0.052228704 0.058590546 0.01418657
0.006092931 -0.06278512 -0.028516859 0.08351798 0.003115541 -0.01541385 0.0056803864 0.08110518
-0.055115335 0.060883783 0.014637497 -0.043265484 -0.040786296 0.113973506 0.07595857 0.0727317
-0.03667222 -0.093552686 0.014662159 -0.023677964 -0.06661454 -0.008231862 0.09594922 0.04529092
-0.025813546 -0.04455336 -0.022738598 -0.02256 -0.07606939 -0.060543824 0.048744693 -0.0663906
0.019656295 0.032146797 -0.046337493 0.062286034 -0.03138792 -0.0014492173 -0.09881862 -0.045413777
0.062174458 -0.07526456 -0.08346526 -0.0022510914 0.015583596 -0.0775099 -0.026457136 -0.09066888
0.07259069 -0.07528527 -0.00046703874 -0.018559575 0.036443267 -0.01409808 -0.04919437 -0.034282304
-0.0952519 -0.04026059 -0.006649719 -0.0034346308 0.06313077 0.046760865 -0.054919768 -0.04649232
-0.079348266 -0.041708436 -0.10460251 0.04696845 0.013242609 -0.06868693 -0.06862541 0.004526249
-0.056387004 0.064709984 -0.06649503 0.05547854 0.006913797 0.042898554 -0.036634546 -0.04593567
-0.014575374 -0.06148823 0.010932388 0.030496543 0.05518781 -0.07326425 0.06334248 0.039328545
-0.010415061 -0.01457844 0.09593943 0.05241487 -0.07342026 0.067631066 -0.06738236 -0.088237554
-0.07682432 0.06906944 0.052999206 -0.045626625 0.06878122 -0.010465787 -0.037261296 0.005441931
-0.045975424 0.043712255 0.07065618 0.04864783 -0.033526894 0.0050365156 0.018562451 0.059582714
0.07035172 -0.07154059 -0.028199043 0.090029925 0.071990944 -0.055524368 -0.06593638 -0.011326402
0.07630887 0.06397453 -0.012681223 -0.06757795 0.06747196 -0.06390758 -0.054055553 -0.0074348245
0.093089774 0.015518364 0.014110053 0.07171278 -0.029163193 -0.03968747 -0.06085415 -0.006658502
0.07704576 -0.06397136 -0.009734799 -0.04200407 -0.076655686 -0.07606189 0.0028711823 0.018649744
-0.06829409 -0.1000707 -0.06604254 0.039280523 0.09510905 0.04004401 0.057628147 -0.07824102
00000000: ae41 88bc 2c77 49bd 4561 9a3c 31c2 363d
00000010: d8e6 8b3d 3a6e 8aba d770 383d 8dec 8fbc
00000020: 7095 03b8 1d95 24bd 2404 6b3d 6d5d 8b3c
00000030: 7398 b3bd d1ed 24bd 4767 9cbc ec39 2c3d
00000040: d632 83bd 0cea a03c 828d c43c 4f00 d63c
00000050: 552e 963d bb3c 843d de3b f3bc 49ff b5bd
00000060: 5f62 953c a9a4 7ebd d85d 78bd 6511 babc
00000070: 844c 00bd e4b0 6f3d deec 88bc c27b db3b
00000080: dd1a 6c3d feeb e2bb 45b8 d9bc 5ac9 803d
00000090: b49d 1d3d 0c2a 96bd 25cc 333d 97ee 7c3d
000000a0: 030a 8ebd 6aee a0bb aedb 2cbd a6b8 a93d
000000b0: d677 17bd accd 8abd d434 af3c c00d 82bd
000000c0: 6044 2cbd 55aa 193d 53f8 eb3c 3d2c ad3d
000000d0: dfbb 84bd f382 8a3d 6742 ec3d db73 1a3d
000000e0: 80ad 12bd e413 393c f221 72bd 27d8 323d
000000f0: 565a ea3c 7526 663d cab3 49bc 104d 9d3d
00000100: 9db2 7bbd e46b 8abd de5d c0bc f43a 893d
00000110: 37fc b93d 7fc8 9ebc a5c8 5a3e 75e7 0f3d
00000120: 924d a8bc a460 6cbc f2c4 81bd 1c2f 81bd
00000130: 356b 513d 3dcf a0bd 22db 69bd 2b94 6cbc
00000140: 6f2a abbd 877a b53d 552c 333d 89b0 af3d
00000150: c18c f8bc bced 013d bebd 8bbd 7007 643d
00000160: df7c b2bd 8e34 113e 3dbd 5e3d f8f2 783d
00000170: f2ae d8bc 516f 863c 240b c33d 0e9f 71bc
00000180: 7cf2 4ebb 42ce ad3c 56bb 4439 dade 10bd
00000190: 47cb 9d3d c4ed 553d a4fc 6f3d ca6e 683c
000001a0: 36a7 c73b 7c95 80bd 309c e9bc 7a0b ab3d
000001b0: 1b2e 4c3b 5f8a 7cbc 8922 ba3b 791a a63d
000001c0: 9ec0 61bd 4661 793d 1dd2 6f3c 2637 31bd
000001d0: 880f 27bd f16a e93d 2b90 9b3d 5cf4 943d
000001e0: 9c35 16bd 8d98 bfbd 8d39 703c 4af8 c1bc
000001f0: 346d 88bd efde 06bc 0681 c43d f982 393d
00000200: ee76 d3bc 967d 36bd 4c46 babc c0cf b8bc
00000210: 45ca 9bbd cdfc 77bd 84a8 473d cbf7 87bd
00000220: 3d06 a13c 5cac 033d 62cc 3dbd a41f 7f3d
00000230: 9f90 00bd aaf3 bdba 6b61 cabd cc03 3abd
00000240: a5aa 7e3d 4e24 9abd d6ef aabd 0c87 13bb
00000250: 5752 7f3c 83bd 9ebd a3bc d8bc 9bb0 b9bd
00000260: 6daa 943d 2a2f 9abd e1dc f4b9 400a 98bc
00000270: 8945 153d a2fb 66bc 0980 49bd 9a6b 0cbd
00000280: 6e13 c3bd 4ae8 24bd e3e5 d9bb 8b17 61bb
00000290: b54a 813d 5288 3f3d 8df3 60bd bb6e 3ebd
000002a0: 5881 a2bd 77d6 2abd d739 d6bd fd61 403d
000002b0: 87f7 583c bcab 8cbd 7b8b 8cbd ee50 943b
000002c0: 0ff6 66bd ab86 843d 8c2e 88bd 773d 633d
000002d0: 228d e23b 65b6 2f3d 1b0e 16bd 0b27 3cbd
000002e0: 8dcd 6ebc 15db 7bbd c21d 333c e3d3 f93c
000002f0: 9d0c 623d 910b 96bd b4b9 813d f816 213d
00000300: efa3 2abc 69da 6ebc e47b c43d fab0 563d
00000310: 5c5d 96bd 2882 8a3d c3ff 89bd e4b5 b4bd
00000320: 1256 9dbd 4774 8d3d b215 593d fce2 3abd
00000330: 2bdd 8c3d b178 2bbc 4d9f 18bd 3a52 b23b
00000340: ba50 3cbd 9f0b 333d 30b4 903d f242 473d
00000350: 7f53 09bd 5b09 a53b 4810 983c 010d 743d
00000360: 9014 903d df83 92bd ae01 e7bc 9c61 b83d
00000370: fd6f 933d 856d 63bd a709 87bd 6092 39bc
00000380: d347 9c3d 1405 833d e8c4 4fbc 4f66 8abd
00000390: bd2e 8a3d fae1 82bd 5b69 5dbd d49f f3bb
000003a0: daa5 be3d bc40 7e3c da2d 673c 26de 923d
000003b0: a6e7 eebc 548f 22bd 3442 79bd 902f dabb
000003c0: 2bca 9d3d 6b03 83bd b57e 1fbc 760c 2cbd
000003d0: a8fd 9cbd 56c6 9bbd 722a 3c3b 59c7 983c
000003e0: c6dd 8bbd def1 ccbd 5041 87bd 9de4 203d
000003f0: 89c8 c23d 3005 243d 7e0b 6c3d d43c a0bd
