models/0005.HK_lstm_Close.pth (torch, 809156 bytes, 9 tensors)

lstm.weight_ih_l0 f4 [512, 5]
000000 54 f3 b4 3d 2e d7 be 3d e8 46 8b 3d f3 69 3b 3d
       0.08835474 0.09318386 0.06800634 0.045755338
000010 41 d6 9f 3d d9 25 79 bd 78 66 91 bd 4a 45 23 3d
       0.078045376 -0.06082711 -0.070996225 0.039861
000020 d1 82 b2 3d 5a fb 3c bd 55 25 3b bd bc bc 78 bd
       0.087163575 -0.046138145 -0.0456899 -0.060726866
000030 fd 6c a6 3d 6f fd b6 3d 4d 75 90 3c 6a 5f 2d 3d
       0.081262566 0.08935057 0.017634058 0.042327322
000040 81 3f 0f 3d 9e 8b 31 bd 47 35 a5 bc e1 77 21 bd
       0.03497267 -0.04334604 -0.020167006 -0.039420966
000050 c3 69 70 bc e3 92 a9 3d d6 5d 2b 3d 70 a3 22 3d
       -0.014673653 0.082799695 0.041837536 0.039706647
000060 77 5c e7 bb 3b d3 ee bb 0e ef d2 bc fb d7 4d bd
       -0.007060583 -0.007288364 -0.025748756 -0.050254803
000070 33 12 00 3d d5 1c 7a bc 39 5d 9e bd e3 cd bb 3d
       0.031267356 -0.015265663 -0.077326246 0.09170129
000080 76 17 51 bb 75 85 6f 3d fc fa f4 bc e7 35 26 3d
       -0.0031904853 0.058476884 -0.029904835 0.04057875
000090 6d 79 4f bd 2a 15 96 3c 37 fb bd 3d c5 57 8e 3d
       -0.05065291 0.018320639 0.09276431 0.069503345
0000a0 9f a0 37 3d 9f e0 60 bd 23 ca 82 3d 4e 64 16 3d
       0.044830915 -0.054901715 0.06386211 0.03671675
0000b0 e7 b2 e5 bc 9b 5e 25 bd f8 8c aa 3d f5 e3 6c bc
       -0.028039409 -0.040373426 0.08327669 -0.014458646
0000c0 ed 34 db 3d 7b 9e 94 3d ad fe 45 3e ee 1f c0 3d
       0.10703454 0.0725679 0.19335432 0.0938109
0000d0 26 92 ab 3d 0d 3e 30 3d a0 14 a3 3b 7f b5 9b bc
       0.08377485 0.043027926 0.004976824 -0.019007443
0000e0 8d 33 64 bc 40 0f 73 3d 3c 15 fe bc 51 4d 9b 3c
       -0.013928306 0.059340715 -0.031015985 0.018957766
0000f0 fe e0 7c bd 05 78 3b bd 09 33 06 3c 50 d1 61 3d
       -0.061738007 -0.045768756 0.008190879 0.055131257
000100 b8 c1 82 3d 61 23 ba 3c d6 6a 98 bd 4a 72 76 3d
       0.06384605 0.022721948 -0.07442252 0.06016759
000110 d5 df 8f 3d 6d 2c 0e 3d 5e ab 14 3d 92 bc 80 3d
       0.070251144 0.034710336 0.03629624 0.06285967
000120 42 3b 1e bd c6 e5 f4 bc bb b9 86 3d f1 2e 85 3c
       -0.03863073 -0.02989472 0.06578394 0.016257735
000130 2c 4d 4f 3d 01 f4 95 b9 76 f6 ae 3d 48 1e 95 3c
       0.050610706 -0.00028601292 0.085431024 0.018202916
000140 24 c9 de 3d 30 8e 06 3d 0b c2 7c bd 62 25 bf bc
       0.10878208 0.032850444 -0.06170849 -0.023333255
000150 51 2f cc 3d c8 43 35 3d 23 10 77 bd 2e 91 a2 3d
       0.099699624 0.044254094 -0.060318124 0.07937847
000160 bf 61 6d bc 95 76 8f 3d 60 51 f4 3c d2 fa b6 bc
       -0.0144886365 0.070050396 0.029823959 -0.022336397
000170 54 e2 88 bb 47 1d 2b 3d d0 8d 5f 3d cc a7 1e 3d
       -0.004177371 0.041775968 0.054578602 0.038734242
000180 59 96 dc 3a cc 55 02 3d bb 5e 9e 3d 01 04 fd 3c
       0.0016829475 0.031820104 0.07732912 0.030885698
000190 49 43 e7 3d e6 c4 ea bb 46 bb 82 3c 94 c4 27 bd
       0.112921305 -0.0071645854 0.01595844 -0.040958956
0001a0 7d 51 6c 3d 86 d8 cd 3d fe 88 fb bc 0f b8 78 bd
       0.0576949 0.10051064 -0.030704971 -0.060722407
0001b0 e2 f9 eb bc 84 5c bc 3b 9e 37 4b 3d ec a0 9c bd
       -0.028805677 0.0057483334 0.049613588 -0.07647881
0001c0 f0 5a 37 bd 1a 58 38 bd ef 8d 61 bd 6c 30 9d 3b
       -0.04476446 -0.045005895 -0.055067 0.004797032
0001d0 30 37 a5 3d a2 7e 9f 3d 26 f7 c1 ba d2 ee 03 bd
       0.08067167 0.07787825 -0.0014798387 -0.03221018
0001e0 e7 ef a2 3d 7f be 1a 3b 35 37 86 bd 90 2c 22 3d
       0.07955914 0.002361208 -0.06553499 0.03959328
0001f0 ad 0a 99 bc 67 de 4a bd 75 50 a3 bd 11 e2 43 bd
       -0.018681848 -0.049528506 -0.0797433 -0.047823016
000200 b4 00 68 bd c2 3d 26 3d c0 60 23 3d d9 db a1 3d
       -0.056641296 0.04058624 0.03988719 0.07903261
000210 eb ac a8 ba fa 6e 18 3d 2e 0b e7 3b 65 56 26 3e
       -0.0012868916 0.03721521 0.0070508933 0.16243894
000220 57 4f 24 3c 72 ce 5a bc 56 a2 d1 bc 8c 90 d9 3d
       0.010028682 -0.013354884 -0.025590103 0.10623273
000230 d3 4d 8d 3d a5 40 28 bd fa d7 66 bc 60 74 09 3e
       0.068996094 -0.041077275 -0.014089579 0.134233
000240 69 ff b3 bc aa de 4d bd 7e 28 83 bd 02 c7 1a 3d
       -0.021972375 -0.050261177 -0.06404208 0.037787445
000250 98 fb ad 3d 0a 13 d6 bc 65 58 4c 3d c9 95 91 3d
       0.08495253 -0.026132125 0.049888987 0.071086474
000260 2a b8 5e 3d 7b 75 bb bb 8c 00 6f 3d 47 6d 36 bc
       0.05437485 -0.005720792 0.05835013 -0.011134452
000270 62 d1 fb 3c f0 80 a4 bc 2c 04 05 bc 68 c1 c5 bc
       0.03073949 -0.020081013 -0.00811867 -0.024140075
000280 8a bb a0 3d 52 30 6e 3d c1 a2 92 bd 16 b1 8d 3d
       0.0784827 0.05815155 -0.07159949 0.06918542
000290 ba a0 6b bd 88 6b 9d bb 00 9a 65 3d 25 ff 40 3d
       -0.057526328 -0.0048040785 0.05605507 0.047118325
0002a0 ff 7b c8 3c 18 6f 43 bd 1e d8 bb ba 91 8f 40 3d
       0.024473188 -0.04771337 -0.0014331376 0.047011916
0002b0 58 cf 4c 3d f6 ee 31 3d 40 1a 89 bd 20 9a 89 3d
       0.050002426 0.04344078 -0.0669446 0.0671885
0002c0 5e e4 a9 3d e7 be 5b 3d 64 df 97 3c b1 2b 06 3b
       0.08295511 0.053648856 0.018539138 0.002047282
0002d0 29 1d 7a ba 89 4b b7 3d 73 4e 40 3d fe f5 ce 3d
       -0.00095410884 0.08949954 0.046949815 0.10105513
0002e0 58 7a f9 bc cf 6b e4 3c 32 46 5a bd 82 9a c1 3d
       -0.030453846 0.027883438 -0.0532896 0.09453298
0002f0 c6 66 8c 3d be f2 e8 bc 09 7e 49 bd 92 5d df bc
       0.0685554 -0.028436061 -0.049192462 -0.027266297
000300 14 b3 96 bd 35 f3 b2 3c cb 66 ad bc 47 d1 d4 3d
       -0.07358375 0.021844486 -0.02116718 0.10391479
000310 c0 9c 00 3d eb af 51 bd 06 25 3b 3d a5 6d ae 3b
       0.03139949 -0.05119316 0.045689605 0.0053231292
000320 f0 cc a3 bc 04 ef 77 3d 38 31 da 3c 92 d8 73 3d
       -0.019995183 0.060530677 0.026634797 0.05953271
000330 e4 03 34 3d 95 4f 9f 3d e5 00 09 bd 0a 02 a9 3d
       0.043949023 0.07778851 -0.03344812 0.08252342
000340 57 13 b0 3b 49 49 b4 3d 30 bc 61 3c bd 21 e6 bc
       0.0053733992 0.088030405 0.013777778 -0.02809226
000350 58 f6 e0 3a 48 98 85 bd c3 19 bd 3b 88 35 b5 3e
       0.001716326 -0.06523186 0.0057708933 0.35392404
000360 bf 28 66 3e d2 f0 9d 3e c0 1a 77 3e d7 5d 96 3e
       0.22476481 0.30847794 0.24131298 0.2936847
000370 3d 9c a7 3d 21 5b 1f bd 3d 44 4a bd ee ca 45 3d
       0.08184097 -0.038905267 -0.049381483 0.048289232
000380 a7 b4 37 3d 6a 06 b1 3d d7 5b 4c bd c7 b9 d1 3d
       0.044850018 0.086438015 -0.049892273 0.10240512
000390 cb 53 1a 3d 30 f3 a9 3c 75 02 5e bd 22 11 67 3c
       0.037677567 0.020745844 -0.054201562 0.014103206
0003a0 01 25 a8 3d 8b 0a ca 3d 90 66 df 3c e5 fb d7 3c
       0.08210183 0.09865292 0.027270585 0.02636523
0003b0 05 f8 7a 3d eb 40 10 bd 53 07 16 3d 39 cb ef 3d
       0.061271686 -0.03521816 0.03662808 0.117086835
0003c0 bf 51 15 bd 20 ee 86 3b 30 a5 e1 bc 12 c2 c1 bb
       -0.036454912 0.004117742 -0.027544588 -0.0059130276
0003d0 3e c1 d1 3c b3 37 a9 3d f8 e2 a3 bc 56 51 c4 3d
       0.02560484 0.08262577 -0.020005688 0.09585826
0003e0 aa bd b0 3c ae 7f 95 3d e2 1b 0c 3c fd 6d 99 bd
       0.021574814 0.072997436 0.00855157 -0.07491682
0003f0 6d db bd 3c 26 7d 6c 3d 6e f8 0c bd 24 e6 1a bd
       0.02317592 0.05773654 -0.03441661 -0.037817135

lstm.weight_hh_l0 f4 [512, 128]
000000 4c 3f 91 3d b9 6b 5a 3d ab e1 a4 bd 4b 79 8e 3c
       0.07092151 0.05332539 -0.08050855 0.017391821
000010 3e 2d da bc d9 09 98 bd a3 5e c0 bb 54 b8 66 3d
       -0.026632901 -0.07423753 -0.0058706566 0.056328133
000020 1f a8 74 bd a3 44 ba 3c 3e a4 51 3d 64 9c ae bc
       -0.059730645 0.022737807 0.051182024 -0.021314807
000030 06 9a 04 bd a4 20 a7 bd 4d 4a f7 bc 28 1b 34 3d
       -0.03237345 -0.081605226 -0.030186797 0.04397121
000040 01 85 93 3d 0d c2 fe ba a6 14 73 3c 26 a8 5b 3d
       0.07203103 -0.0019436494 0.014836466 0.053627156
000050 5f bd a7 bd f3 04 bd bc 0f 3b 85 bd 46 bf 61 3d
       -0.081904165 -0.023073649 -0.06505405 0.055114053
000060 f0 25 a6 3d 68 a3 ae bd d2 12 9a bc 61 91 9f 3d
       0.08112705 -0.08527261 -0.018807802 0.07791401
000070 2d 02 32 bc 81 9d 4a bd cb 87 32 bd 0f 47 93 bd
       -0.010864777 -0.049466614 -0.043586534 -0.07191288
000080 71 ee 9e 3d c8 55 8c bd c2 fb 66 ba c5 98 90 bd
       0.07760323 -0.06852299 -0.00088113185 -0.070603885
000090 d1 41 4f 3d dd ba e8 3c 2d e5 ec 3c 32 fa 75 bc
       0.050599877 0.028409416 0.028917873 -0.0150132645
0000a0 ea bd da ba 8a 2e 22 3d 84 e9 87 bd 5b 67 09 3d
       -0.0016688679 0.039595164 -0.066363364 0.033545833
0000b0 a9 3d e3 3c 84 30 16 bd b7 46 33 3d be e8 da 3c
       0.027739363 -0.03666736 0.04376861 0.026722308
0000c0 9e de 60 bd 26 4c 53 bd 60 b0 71 3d f5 62 a4 bd
       -0.054899804 -0.051586293 0.059006095 -0.08026687
0000d0 ab d9 ec 3c fc 17 53 bd 2f 83 2f bd a6 73 ec bc
       0.028912386 -0.051536545 -0.042849716 -0.02886374
0000e0 fb 7b 2c bd 82 4d 9e 3d ae 8d 50 3d 71 87 9b 3b
       -0.042110424 0.07729627 0.050916366 0.0047463705
0000f0 2f a3 68 3d 0a 8f de 3b 61 c4 89 bd 47 ad 30 3d
       0.05679625 0.006791954 -0.067269094 0.043134
000100 91 a4 21 bd d2 3f b6 3c 79 85 97 3c b7 6c 87 3d
       -0.039463583 0.022247229 0.018496262 0.066125326
000110 69 0d ad bd 08 98 98 3d a3 05 82 bd b1 76 60 bc
       -0.084498234 0.07450873 -0.06348731 -0.013700173
000120 bc e1 84 bc 70 7b aa bb c6 10 06 3d b7 50 97 bc
       -0.01622092 -0.005202703 0.03273084 -0.018471105
000130 1e db 8b bd 41 61 91 bd 07 c5 df 3b 81 9e 0c 3d
       -0.06828903 -0.07098628 0.0068289074 0.03433085
000140 c8 fe ad bd 86 39 71 3d 8d 12 c9 3b 85 6a 56 3d
       -0.08495861 0.05889275 0.0061362446 0.05234768
000150 43 cc 99 3c ee a4 00 bd 39 89 52 3b 41 e3 db bc
       0.018774157 -0.03140729 0.0032125248 -0.026841762
000160 94 da 83 bd 4c 65 44 bd fc bd 44 3d 69 4a bc bc
       -0.06438175 -0.047948167 0.048032746 -0.0229847
000170 b9 0a 46 bd d2 d6 86 bd c2 c4 bb bc af fd 9a bd
       -0.04835007 -0.065839425 -0.02292097 -0.075679176
000180 7b d8 1b bd 44 67 ac bc 1a 26 9e ba 0d 7f a8 3d
       -0.03804825 -0.021045335 -0.0012065799 0.08227358
000190 2d 9e b8 3a 34 4a d7 bc 67 7d 1f 3d 46 64 7b bd
       0.0014085226 -0.0262805 0.038937952 -0.061374925
0001a0 9c c8 aa bd b0 23 e8 bc 81 4a 25 bd 66 ce 30 bd
       -0.083390445 -0.02833733 -0.040354256 -0.043165587
0001b0 bc 4e 26 bd d7 44 92 bd 8f e4 54 3d c6 c5 8b 3d
       -0.04060243 -0.071420364 0.051975783 0.06824832
0001c0 88 6c b0 bd 58 87 13 3d 9f 08 73 3d 28 d8 d5 3c
       -0.08614451 0.036017746 0.059334394 0.026104048
0001d0 e6 eb ee 3c 5b 89 e7 bc 5b ac fd 3c 44 28 2c bd
       0.02916522 -0.028263738 0.030965975 -0.042030588
0001e0 b1 3e 9d 3c c2 3c b2 bd 39 b8 a0 3a db 04 d5 3d
       0.019194933 -0.08702995 0.0012261934 0.10401317
0001f0 b9 13 cb 3c e8 18 1b bd 48 22 fa 3c 03 5e c8 bc
       0.024789678 -0.03786555 0.030533925 -0.02445889
000200 7e 93 00 bc f5 14 61 3c 73 c5 87 bd 5f 63 76 bc
       -0.007847665 0.013737907 -0.06629457 -0.01503834
000210 4b 80 88 bd bb 7c b9 3d 6e 69 da 3a a3 2d 5a bb
       -0.06665095 0.090569936 0.00166635 -0.0033291362
000220 a3 7b a8 3d 29 dc 12 3e 13 0f 83 bc ee dd 90 3d
       0.08226707 0.14341797 -0.015998399 0.0707358
000230 21 0c 68 3d 4e 3f 01 3d e9 a8 35 3c fa 22 60 3d
       0.056652192 0.031554513 0.011087635 0.054720856
000240 23 f3 67 bd 3b 76 29 bd 41 03 ef 3c e4 08 a7 3d
       -0.056628358 -0.04137252 0.029176356 0.081559926
000250 e1 5f 59 bd 30 36 70 3d ee 22 60 3d fc f7 8c bd
       -0.053069953 0.058645427 0.05472081 -0.06883237
000260 0c 84 92 3d 38 68 81 bc 0f 3d 34 3d bf 7c 20 bd
       0.07154092 -0.015796766 0.044003543 -0.039181467
000270 52 41 4b 3d 13 b7 32 3d 4b a2 dc 3c 65 a7 4e bd
       0.04962284 0.043631624 0.026932856 -0.05045261
000280 25 b5 ac bd ac cb e7 bd a5 71 60 bc ec e5 ab 3d
       -0.08432988 -0.11318144 -0.01369897 0.083934635
000290 c0 6e a4 3c c7 f6 a2 bd a4 bc e6 3d 63 03 4a bd
       0.020072341 -0.07957225 0.11266449 -0.049319636
0002a0 1c 2c 83 3d 9d 43 a6 bb 55 44 4b bc 14 fb 95 3d
       0.064048976 -0.005073978 -0.012406428 0.0732328
0002b0 79 83 f4 bc 9f a7 a2 bd ad de 74 bd c1 91 25 3b
       -0.029847847 -0.079421274 -0.059782673 0.0025263878
0002c0 6b 65 b1 bc b1 fa 98 bd 79 87 ab 3c e0 fa 86 3d
       -0.021654805 -0.074696906 0.020938622 0.06590819
0002d0 67 22 83 bd 0f 78 f8 3a c5 f7 ff 3d e5 fe 45 3d
       -0.06403046 0.0018956679 0.1249843 0.04833879
0002e0 08 91 c8 3d 11 8b c8 bc 7e 6f d7 bc f9 0f 90 3d
       0.097932875 -0.024480375 -0.02629828 0.070342965
0002f0 f0 98 b5 bd 53 dc 3d 3c 5d f8 eb 3b 1a 02 8d 3d
       -0.08867061 0.011588174 0.007201238 0.068851665
000300 5d 71 85 3d 1b ab 9b 3c 0c 1b 78 bc ce 05 8a 3d
       0.06515763 0.019002488 -0.015143167 0.067393884
000310 2f 4a ca 3c b4 ca 0f bc b2 2a cd 39 a0 4e 3e 3d
       0.024693577 -0.008776356 0.00039132457 0.0464617
000320 d7 3c 12 3b d7 ad 07 bd b5 55 0c be c1 ed 00 bd
       0.0022314095 -0.03312477 -0.1370457 -0.03147674
000330 79 c2 32 bd 46 6e 96 bc 84 63 ea 3d f6 64 f0 bc
       -0.043642495 -0.01836313 0.11444762 -0.029345017
000340 f2 0c f1 ba fb dd d9 3b a2 fb fd 3c 02 0f a3 bb
       -0.0018390699 0.0066487766 0.031003777 -0.0049761543
000350 dd d2 b3 bd 6e 14 49 bd 1d 27 6f 3b d0 a0 4c 3d
       -0.08780453 -0.04909175 0.003649182 0.04995805
000360 f9 93 ef bd 80 2e 0d bd e9 cf 13 bd 57 88 10 bd
       -0.116981454 -0.034468174 -0.03608695 -0.035286274
000370 55 f9 c5 3d 7b 30 4d bd 96 68 66 bc 8a c5 a2 3d
       0.09666697 -0.050095063 -0.014063021 0.07947834
000380 b2 12 a7 3d 1d 1f a3 bd f4 5e 9f bd 80 be 21 bd
       0.08157863 -0.07964919 -0.07781783 -0.039488316
000390 03 28 25 bd 72 a4 ad 3c bb 47 8b bc 1e eb 4d 3d
       -0.04032136 0.021196578 -0.017001977 0.050273053
0003a0 c7 f1 0d bd 65 3a 85 3d fa aa 54 bd b1 37 23 3b
       -0.034654405 0.065052785 -0.05192087 0.002490502
0003b0 e5 f8 31 3d 67 6a 88 3d 74 3c 96 bd 3f 0e 84 3d
       0.043450255 0.0666092 -0.07335749 0.0644803
0003c0 cb 7c 9a 3d 23 30 88 bd 96 4f f8 bc b8 4e 16 bc
       0.075433336 -0.06649806 -0.030311387 -0.009174041
0003d0 76 59 9b bd f9 04 36 bd e5 a2 58 3d 16 fa 86 bd
       -0.07585423 -0.044438336 0.052889723 -0.06590669
0003e0 70 e3 82 3d de f7 83 bd 4c 8e c2 3d fa 8c 54 bd
       0.063910365 -0.06443761 0.09499797 -0.05189226
0003f0 53 8a d5 3c 0a 44 3c bd 44 47 03 bd 51 a7 08 be
       0.026066935 -0.045963325 -0.032050386 -0.13345076

lstm.bias_ih_l0 f4 [512]
000000 9b 76 88 3d 54 44 98 3d 55 c3 e6 3d c1 56 b7 bd
       0.06663247 0.074349076 0.112677254 -0.08952094
000010 13 07 87 3c d0 07 a3 bd 8e 82 a0 3d 7d e9 99 bd
       0.016482865 -0.079604745 0.07837401 -0.075152375
000020 e3 39 92 3d 63 2c 4e bd a7 16 05 3e 12 f9 3a bd
       0.07139947 -0.0503353 0.12996922 -0.04564769
000030 12 61 90 bd 14 84 5d 3d a3 43 78 3d 88 97 20 bd
       -0.07049765 0.054081038 0.06061138 -0.03920701
000040 64 f3 c1 3b 0b 7b 59 bc 8c 97 14 3b 41 f2 fb 3b
       0.005918907 -0.013273965 0.0022673337 0.007688791
000050 7d aa 6a bc 9f eb 99 3c 97 17 95 3d e2 89 c9 bc
       -0.014322874 0.01878911 0.0727989 -0.02460188
000060 fe 15 a7 3d d3 e5 7f 3d 1d e4 47 3d ed 99 6b bb
       0.081584916 0.062475037 0.04880153 -0.0035949901
000070 0b 69 84 3d 94 ef a8 3d 0e 42 34 ba 80 36 2e bd
       0.06465348 0.08248821 -0.0006876298 -0.042532444
000080 28 85 cc 3c 46 8c 2a 3d 36 35 1b 3d d7 ca 0c 3d
       0.024965838 0.04163768 0.037892543 0.03437313
000090 c7 bf 04 3d c8 fa 54 3d 4e d7 27 3d 86 00 9e bb
       0.032409456 0.051996976 0.040976815 -0.0048218397
0000a0 f4 8d b7 3d 2c 3f 00 bd a9 53 bd 3c ff f9 99 3e
       0.08962622 -0.031310245 0.023111181 0.30073544
0000b0 b6 d3 6e 3d 0a f9 b0 3d 6b 77 1b 3d 91 b2 bd bb
       0.058307372 0.086412504 0.037955683 -0.005789109
0000c0 2e cc a2 bd 6c 77 0f bd 97 d4 5e 3d 1d 46 88 3b
       -0.079491004 -0.035026 0.05440196 0.004158749
0000d0 a8 aa 86 3d ba 2b e8 bc 92 e7 11 3c c9 fb 2c bd
       0.06575519 -0.028341163 0.008905308 -0.04223231
0000e0 87 fe 78 bd 7c 53 b5 3d 0a 7e 49 3d c2 dc 18 3d
       -0.06078961 0.08853814 0.049192466 0.037319906
0000f0 49 75 0b 3d b3 f6 0f bd cc 8d b9 bd 42 ff 8a 3d
       0.0340474 -0.03514738 -0.09060249 0.06786968
000100 ad e5 80 3d 11 86 e5 bc 86 42 97 3d a0 f7 90 bd
       0.06293807 -0.02801803 0.07385735 -0.07078481
000110 07 7d fa 3d 8a 44 50 3a a4 09 51 3d 4a 8c 9d 3c
       0.12230878 0.00079447834 0.051034585 0.019231934
000120 99 89 36 3d 62 50 63 bd eb bb ab 3d a0 0a ae bc
       0.044564817 -0.05549658 0.08385452 -0.0212453
000130 27 57 cc bb 68 13 01 bc 21 c1 b4 3d e0 16 6a bd
       -0.0062359753 -0.007878162 0.08825899 -0.05715072
000140 ee a3 24 bd 75 74 42 3d 72 41 39 3d 39 f1 87 3d
       -0.040195398 0.047474343 0.04522843 0.066378064
000150 f5 7a 8d bc 27 7f 55 3d 33 7b 6b bd 64 6e 7d bd
       -0.017270545 0.052123215 -0.05749054 -0.061872855
000160 33 a6 10 bd cc 3b 83 3d 23 5e 28 3d 58 3a 57 bd
       -0.03531475 0.0640789 0.0411054 -0.052545875
000170 30 80 95 3b d7 30 89 bc d2 c9 a2 3d 18 c1 c8 bc
       0.0045624003 -0.016746921 0.079486504 -0.024506137
000180 8e c4 0d 3c a4 c7 a4 3d 1e 8b 1a 3d 02 60 12 bc
       0.008652819 0.08045891 0.03773033 -0.008934023
000190 24 76 ec bc a9 b4 93 bc b8 06 16 3c 7b 18 28 bd
       -0.028864928 -0.018030481 0.009156875 -0.04103897
0001a0 8e 6b cd ba b9 a7 6b 3d 3c 17 58 bc c9 5f 34 bb
       -0.0015672313 0.057533 -0.013189133 -0.0027522913
0001b0 bc 46 66 3c 7f 3d fc bb a5 66 61 bd b3 78 93 bc
       0.01405495 -0.0076977606 -0.05502953 -0.01800189
0001c0 6b 5b 15 ba 05 a4 3c 3c 9a b3 3b ba bc 02 dd 3d
       -0.0005697521 0.011513715 -0.00071602466 0.10791537
0001d0 58 ad 96 bc 3a 4e 99 3d 09 c0 99 3d 86 ed 15 bb
       -0.018393204 0.07485624 0.07507331 -0.002287717
0001e0 9d 2d 9e bd 20 99 98 3d bb b7 6b 3d b3 f6 e8 3c
       -0.07723544 0.07451081 0.057548266 0.028437948
0001f0 78 79 6d bd e7 1d 74 3d 3a 37 14 3d e9 97 3a 3d
       -0.05797717 0.05959883 0.03618548 0.04555503
000200 6f c8 89 bd 1b 1c 9d bb fd 69 0d 3d c4 be 81 bd
       -0.06727683 -0.00479461 0.034524906 -0.06335214
000210 1c e8 96 bd 6e d7 0b bb 96 e5 c1 3c 25 cb 82 bd
       -0.0736849 -0.0021338123 0.023669045 -0.06386403
000220 e2 f9 a3 3d a4 1e 63 3b df b3 89 3c 51 cd ce 3c
       0.08006646 0.0034655714 0.016809402 0.025244387
000230 3f cd 57 bd 03 2d ed 3c dd 1f f5 bc a7 36 c5 bd
       -0.052685972 0.028952127 -0.02992242 -0.09629565
000240 7b 15 71 bd a2 9d 31 bd 09 74 ca 3d 29 d1 20 bd
       -0.058858376 -0.04336322 0.09885413 -0.03926197
000250 06 c9 88 bd ec e3 fa 3c db 13 fa 3c 46 6f 78 bd
       -0.06678967 0.03062626 0.030527046 -0.060652994
000260 30 9f 92 bd d0 1a 67 bc 62 a6 94 bd 57 ad 90 3d
       -0.07159269 -0.014105514 -0.072582975 0.07064312
000270 91 4f 93 bd 9d 0c 8c bd 92 46 9b bc 0e 98 6e bd
       -0.071929105 -0.06838343 -0.018954549 -0.05825048
000280 ba 36 05 bd f5 94 fd bc 16 b8 c8 3c d7 24 a7 bd
       -0.032522894 -0.030954817 0.024501842 -0.081613235
000290 a4 7a 6b bd ea d9 98 3d 7f 0c 89 3d 74 cf 63 bd
       -0.057490006 0.07463439 0.066918366 -0.055617765
0002a0 a7 b4 55 3c 17 e2 22 3d cf ba 31 3d 14 fe 51 be
       0.013043559 0.039766397 0.043391045 -0.2050708
0002b0 fc 91 84 bb d6 bd 0a bd 14 35 99 bd 8e 7a ed 3d
       -0.004045723 -0.033872448 -0.07480827 0.11595641
0002c0 0c 4b f2 bb 32 44 49 3c 46 e5 55 bc ae 14 24 bd
       -0.0073942 0.012284325 -0.013055151 -0.040058784
0002d0 32 5a 0f bc 3a 7b a1 3d 6f 2c 87 3d 21 21 9f 3d
       -0.008749532 0.07884832 0.06600272 0.07769991
0002e0 71 32 6e bd 7a 1e 0b bd 78 8e 1e 3b 3e 98 21 bd
       -0.058153573 -0.03396461 0.0024193805 -0.03945183
0002f0 6d 9c fa bc 7d 57 b2 bd 92 2a a0 3d 0e f9 42 bd
       -0.030592168 -0.08708093 0.0782062 -0.0476008
000300 ed 76 5a 3b 1a 64 bc bd 23 b4 56 bd 22 17 df bc
       0.0033335045 -0.0919878 -0.052417886 -0.02723271
000310 09 da e7 3d 59 b7 8d bd ca 07 3b bd 08 30 35 bd
       0.11320884 -0.069197364 -0.045661725 -0.04423526
000320 d3 75 48 bd 79 41 92 bc de 75 2a bd c5 f5 9c 3d
       -0.04894049 -0.017853485 -0.041616313 0.07664064
000330 5c b2 99 bd 86 75 b1 3d ed ac b5 bd 9d 25 65 bd
       -0.075047225 0.08664994 -0.088708736 -0.055944074
000340 77 98 42 3c a1 d2 ca 3c c2 ea 5a bd b5 42 7c 3d
       0.011877171 0.024758639 -0.05344654 0.061587054
000350 6b 7c 16 bc 23 89 9f bd 96 b2 60 bd 2e 70 1a bd
       -0.009184937 -0.07789829 -0.054857813 -0.03770464
000360 38 d1 a1 bc e8 e1 61 3a e7 e2 44 3d aa 11 c3 bc
       -0.019753084 0.00086167315 0.048067953 -0.023812134
000370 86 a2 a8 3d e3 9f 86 3d ab 26 9d bd 90 6b 8c 3d
       0.08234124 0.06573465 -0.07673391 0.068564534
000380 5a d6 0c 3d 1a 0e 64 3c d7 f6 ae bd 1d 88 2d bb
       0.03438411 0.013919378 -0.08543175 -0.0026478835
000390 e7 40 aa 3d 8e b8 b6 bc fa 7e 83 bc 82 27 8b bd
       0.083131604 -0.0223048 -0.016051758 -0.06794645
0003a0 44 d4 a1 bc ea 1f 8b 3d e8 f4 7a bd 96 84 20 bd
       -0.019754536 0.067931965 -0.061268717 -0.039188944
0003b0 6e 14 27 3d 2f a8 4a 3d 06 f5 5a 3d d0 d3 9b bd
       0.040790968 0.0494768 0.05345633 -0.076087594
0003c0 33 29 e0 3c 36 cd 9c 3b 18 63 a9 3c 5a 68 1c 3c
       0.027363395 0.0047852052 0.020677134 0.009546364
0003d0 d5 ce b4 bd 57 9a 4b bd 03 70 4f bc 3c ee 36 bd
       -0.088285126 -0.049707737 -0.012660983 -0.04466079
0003e0 be 7d a6 3c a9 2a aa 3d 98 84 03 bc c9 13 7e 3c
       0.02032363 0.08308918 -0.008027218 0.015507647
0003f0 37 b0 2b 3d 22 7d b8 3c 2b 28 d3 bc 68 95 7a 3d
       0.0419161 0.022520605 -0.02577599 0.06117764

lstm.bias_hh_l0 f4 [512]
000000 cc 46 8a bd 90 f6 c3 3d 13 e7 53 3d db 7c 82 3c
       -0.06751785 0.095685124 0.05173404 0.015928676
000010 f2 1c 89 3d 65 ec a2 bd 6f 93 a8 3d 53 dd 2d 3c
       0.06694974 -0.07955245 0.08231246 0.01061185
000020 d0 81 8d 3d 55 37 bb 3d 2e 3c e2 3d b6 a5 ea 3c
       0.069095254 0.09141413 0.110466346 0.02864347
000030 bb fc 4f bd 4b 74 08 3d 98 27 12 bd b8 2d 9b 3d
       -0.050778132 0.03331403 -0.03568229 0.075770795
000040 91 3e 66 3d 42 5f 8e bd 7f a3 37 bd 87 53 b7 bd
       0.05621201 -0.06951763 -0.044833656 -0.089514785
000050 96 a2 43 bd 09 f1 7c bd ed 04 96 3d 28 52 16 3d
       -0.047762476 -0.061753307 0.07325158 0.036699444
000060 4c 41 6f 3d 30 8d 13 bd b5 da 8f 3d dd 15 7c 3d
       0.05841188 -0.03602332 0.07024137 0.061544288
000070 e3 a4 d1 3d 00 3b 24 3d 3d 41 2b bd e4 67 a7 3c
       0.10236528 0.04009533 -0.041810263 0.020435281
000080 fb 9f 4d bd 29 37 6b 3d 33 95 8c bb 47 a6 43 bc
       -0.050201397 0.05742565 -0.004290247 -0.011941499
000090 40 00 87 3d 68 e0 8c 3d 59 ea fb 3c 78 0e 9d bd
       0.065918446 0.068787396 0.030751394 -0.07668775
0000a0 95 ff b3 3b 91 c5 20 bd dd 2d ba bc b5 af e5 3e
       0.0054931142 -0.039250914 -0.022726947 0.44860616
0000b0 de c9 a8 3d 4c e9 21 3c eb 60 24 3b da 3f c3 3d
       0.08241628 0.0098822825 0.0025082182 0.09533663
0000c0 60 a4 70 bb d7 65 b1 3d 13 40 c2 bc 16 5f e6 bc
       -0.003671907 0.086620025 -0.023712194 -0.028121512
0000d0 fa cb 38 3d 3e 97 12 3d ea 57 a6 3d 33 2d 5a bd
       0.045116402 0.035788767 0.08122237 -0.05326576
0000e0 8f 23 9a 3a e0 99 95 bd 6a b1 da 3c 65 25 00 bb
       0.0011759865 -0.0730474 0.026695926 -0.001955354
0000f0 68 1f 6f bb 55 4c a9 bd 96 02 0c bd a7 60 b0 3d
       -0.0036487225 -0.08266512 -0.034182154 0.08612185
000100 69 ba f7 3c f2 49 b7 3d f8 42 c8 3d af 84 e9 3c
       0.030240254 0.08949651 0.09778398 0.028505651
000110 4a bf a8 bc e9 b5 92 3d 98 39 21 bd 25 c3 0a bb
       -0.020599026 0.07163603 -0.039361566 -0.0021173444
000120 f2 87 5d ba 6a 12 a0 3d f8 39 a5 3d 2f 15 75 bc
       -0.00084507384 0.07816012 0.08067697 -0.014958664
000130 53 be fe 3c 04 58 01 bd f8 a1 55 3c a8 30 57 3a
       0.031096613 -0.03157808 0.013039105 0.00082088495
000140 2c b8 52 3d e6 40 88 bd ea 2d 3a bb c4 53 88 3c
       0.05144517 -0.066530034 -0.0028408715 0.016641505
000150 0a 3d 0b bc 26 01 19 bd 20 4a 95 3c 91 90 1a bc
       -0.00849844 -0.03735461 0.018223822 -0.009433881
000160 53 c5 d0 bc ac 83 31 3c 23 ac 76 bd b2 95 bd 3d
       -0.025484717 0.010834616 -0.060222756 0.09257068
000170 b8 a4 59 3c 08 1b 62 bd f9 60 10 3d 8b b2 92 3d
       0.013283901 -0.05520156 0.03524873 0.071629606
000180 7e 3f fa 3c cb cb 1e bc 08 72 2e 3d 4b 8e 58 3d
       0.030547854 -0.009692143 0.042589217 0.052870076
000190 42 23 d7 3d 01 0e ed bc 81 93 af bb e4 34 75 bd
       0.10504772 -0.028937342 -0.00535816 -0.059864894
0001a0 5b d3 18 bd 05 fe a5 bd 88 e5 3b bd 39 a0 93 bd
       -0.03731094 -0.08105091 -0.045873195 -0.072082944
0001b0 08 88 20 bc 65 d5 da 3d 24 e1 29 bc a1 b9 30 ba
       -0.009798057 0.10685233 -0.010368619 -0.0006741528
0001c0 60 e5 70 3d 06 fa b7 3d 1b f6 47 bd 35 d9 a6 3c
       0.0588125 0.08983235 -0.04881869 0.020367244
0001d0 0f c2 c7 3d 3f 7a 25 3d 66 22 2a 3d ad c6 0b bd
       0.097538106 0.040399786 0.04153671 -0.03412502
0001e0 8e 1a 65 bd f9 1f 7d bd 09 61 ef bc f8 57 48 bd
       -0.055933528 -0.06179807 -0.029221075 -0.04891202
0001f0 42 68 69 bc 2e 57 f3 bc 18 5d 50 3d 37 f4 26 bc
       -0.014246048 -0.029704656 0.05087003 -0.010190061
000200 cf 5c a4 3d 36 37 20 3d 5c e5 37 3d 2c 6c 3d bd
       0.08025514 0.039115153 0.04489647 -0.04624574
000210 d3 45 8a bc e0 61 33 bd 20 e5 3b 3d 7b b2 90 bd
       -0.016878998 -0.043794513 0.045872808 -0.070652924
000220 e5 27 73 bd 0b c3 89 3d 5b ec 1f ba 99 a8 ad 3c
       -0.05936422 0.067266546 -0.00061005884 0.021198558
000230 21 1c 1f 3d 75 82 e5 3c 02 e0 cc bc 43 62 92 bd
       0.038845185 0.028016308 -0.025009159 -0.07147648
000240 b1 96 84 bc e5 58 2c bd 0c 8d 3f bd 2f 7a b7 bb
       -0.016185137 -0.042076964 -0.046765372 -0.005599282
000250 73 e4 5b 3d 2a d8 28 3d 32 ed 95 bd e3 a9 07 3d
       0.053684663 0.041221775 -0.07320632 0.033121
000260 be 7d e5 3c 88 cd 8d bd b1 2b c0 3d 6a 9e 21 3d
       0.02801406 -0.069239676 0.093833335 0.039457716
000270 21 1c 42 bd d8 1c 72 3d 6b fb af 3b 2b 4b 3c 3c
       -0.047390107 0.05910954 0.0053705475 0.011492531
000280 3a 3e 54 bb 90 70 57 bd a3 3c a7 3d db 39 9c bc
       -0.0032385723 -0.052597582 0.081658624 -0.019070556
000290 d4 e3 28 3d f6 9f 82 bd ec a3 02 bc 1a c4 a9 3d
       0.0412329 -0.063781664 -0.007973652 0.082893565
0002a0 1f de 09 3d a8 e5 ca 3c 1c ac f7 bc 92 ec 02 be
       0.033659097 0.024767712 -0.030233435 -0.12785557
0002b0 6b 0a 5c bd b1 1a 81 3b 78 72 0b bc 15 93 4c 3d
       -0.053720873 0.0039399494 -0.008511178 0.049944956
0002c0 06 33 c4 bb 1b 2e 48 bb 69 5f 94 3d 1b bd 60 3c
       -0.005987528 -0.003054506 0.072447605 0.013716961
0002d0 e8 70 88 bb e1 e0 98 bd 34 51 4d 3d 58 e0 8c 3d
       -0.00416385 -0.07464767 0.05012627 0.06878728
0002e0 a0 33 9f bd 69 cb 27 bd 13 40 73 3d 7f ed 45 bd
       -0.077735186 -0.04096547 0.059387278 -0.048322197
0002f0 df d8 b8 bd c9 10 a0 bd e6 49 32 3c 11 cd a9 bd
       -0.0902574 -0.078157015 0.010881877 -0.082910664
000300 e2 0f a6 bd ba 1e c0 bc 08 a7 8f 3d bb fd 01 3d
       -0.08108498 -0.023452152 0.070142806 0.031736117
000310 3b 26 d7 bc f8 12 96 3a 72 6b c8 3b 14 ca 45 bd
       -0.026263347 0.0011449745 0.006116324 -0.04828842
000320 e4 8f 8c 3d 9f 74 81 3d 13 c3 77 bd 86 5b 08 bd
       0.068633825 0.06321072 -0.06048877 -0.03329041
000330 99 b9 82 3c e4 1c 4e 3d 2e ca 93 3d 9a 3a 97 3d
       0.01595764 0.05032052 0.07216297 0.07384224
000340 8d 04 21 bd 48 d3 72 bd 36 e4 87 3d 31 b3 29 3d
       -0.03931098 -0.059283525 0.06635325 0.041430656
000350 3a 23 41 3d a8 a7 0e bd f2 2f 4b bd 68 b1 5e bc
       0.047152735 -0.03482786 -0.04960627 -0.013592102
000360 93 05 5a 3d 68 5c a6 3b 8a 66 c7 3c 39 2a 16 3d
       0.053227972 0.0050769337 0.024340887 0.03666136
000370 7d 85 9d bd af 6a 54 bc bd 9e 31 3d 5f 36 ac bd
       -0.076914765 -0.0129648885 0.043364275 -0.08408808
000380 07 70 99 bd f7 cd 93 bd 20 45 42 3d 7c ed 6e bb
       -0.07492071 -0.07217019 0.047429204 -0.003645747
000390 ec 5d d0 bc 3b 87 63 bc 25 4b c3 bd 0f bd 8e 3d
       -0.02543541 -0.013887222 -0.09535817 0.06969654
0003a0 89 d4 9f 3d e3 24 53 3d 88 a0 e3 bc b2 0c 40 3c
       0.0780421 0.05154885 -0.027786508 0.011721777
0003b0 c1 8b 8b 3c 03 7a 36 3d 66 fe a3 3d ca ec 8b bc
       0.017034413 0.044549953 0.08007507 -0.017080683
0003c0 d1 9e 76 bd b7 33 1f 3c 2c 3b 66 3d 7f 0f ee bc
       -0.060210053 0.00971692 0.056208774 -0.029060123
0003d0 26 11 a2 bd ad 55 1c 3d 7e 01 c8 3c b9 eb 83 bc
       -0.07913427 0.038167644 0.024414774 -0.016103612
0003e0 35 d2 66 3d f4 69 8f bb f3 d9 a0 3c 13 28 0a bd
       0.056352813 -0.0043766443 0.019635176 -0.033729624
0003f0 a8 a8 17 bd 4e 13 c6 bd d2 2d 85 3d 10 c9 11 bd
       -0.037026078 -0.09671651 0.0650288 -0.03559214

lstm.weight_ih_l1 f4 [512, 128]
000000 75 95 8b 3d 61 90 cc bc 23 a6 f2 bd 6f 90 81 bd
       0.06815616 -0.024971189 -0.11848094 -0.06326377
000010 54 0c b6 3c 88 c1 ac 3d f2 1a c9 bd ef ea 43 3c
       0.022222675 0.08435351 -0.098195925 0.011957868
000020 ac 4a a7 bc 67 ac 56 3d 4b 1c ed 3c 25 4f 69 bd
       -0.020421349 0.05241051 0.028944155 -0.056960244
000030 fd 7f 14 bd a4 6c 1b 3d 87 fc 83 3d f6 96 1e 3e
       -0.03625487 0.037945405 0.0644465 0.15487275
000040 37 17 f5 3d 20 82 9e bc c5 22 90 bd bc fc 2e bd
       0.119673185 -0.019349158 -0.07037882 -0.042721495
000050 e3 9f 60 3d 0c b2 f3 bd 7b ff a1 bc f7 a5 24 3d
       0.05483998 -0.11899194 -0.019775143 0.04019734
000060 3e 87 f4 bc a1 38 c7 bc 6e ab 1f b9 05 d2 8c bd
       -0.029849645 -0.024318995 -0.00015227284 -0.068759955
000070 19 d8 b0 3d 43 80 14 bc 67 84 0a bd 53 ad e8 3c
       0.08634967 -0.009063783 -0.033817675 0.02840296
000080 6f ed 34 bd c4 75 56 3d cf 4c fd bc a5 86 e5 bb
       -0.044171747 0.052358404 -0.030920414 -0.0070045763
000090 71 b5 15 3c 43 73 54 3d 4b 3c 36 bd 99 86 d9 bb
       0.009137497 0.051867735 -0.044491094 -0.0066383597
0000a0 15 c6 00 3d ce 7b 19 3c 42 fb b2 3c 5d 46 bd bd
       0.031438906 0.009367896 0.021848325 -0.09241936
0000b0 5c 28 00 be cf 58 97 3d 50 22 dd 3c e5 eb ba 3d
       -0.12515396 0.07389986 0.0269939 0.091270246
0000c0 8c 5c 15 3c e8 79 ad 3d 1b 9f 4c bd ec 78 32 3d
       0.009116303 0.084705174 -0.049956422 0.04357235
0000d0 57 83 1c ba f4 d3 57 3d ea 29 e6 bc a1 71 2d 3d
       -0.0005970499 0.05269237 -0.028096158 0.042344693
0000e0 c7 f8 b0 3d 41 4c f0 3b e1 5d 17 bd 5a fb 94 bd
       0.086412005 0.007333309 -0.036954764 -0.07274504
0000f0 e8 e9 0b bd ac 3d 61 3d 9a 23 cc 3d 0b e3 fe 3c
       -0.034158617 0.054990456 0.09967728 0.031114122
000100 5c 0d b1 3d 5a f3 15 3d 31 00 28 bd e9 76 cc bc
       0.08645126 0.03660903 -0.041015808 -0.024959045
000110 8b d0 08 3d 29 c3 a0 bd ff 1c ba 3c 74 cd 3a bd
       0.033402007 -0.07849724 0.022718905 -0.04560609
000120 9f 12 67 3d 8a f1 5b 3d 67 b2 fb bd 12 da 47 39
       0.056414243 0.053697146 -0.12289887 0.00019059356
000130 91 86 3d bd 73 8b be bd 5c 48 d6 ba d2 2d 64 bd
       -0.04627091 -0.093039416 -0.0016348469 -0.05570776
000140 09 e1 11 bd 06 b5 87 bc e2 85 dd 3c fc 9b 0f 3d
       -0.035615 -0.01656581 0.02704138 0.035060868
000150 09 00 8a bb e8 1a c8 3c 29 51 43 bc c1 97 4d 3c
       -0.00421143 0.024426892 -0.011921206 0.012548388
000160 db 08 8e bd 5b 5c fb bb f8 93 e7 3d 87 fc 63 bd
       -0.06935283 -0.0076709217 0.1130752 -0.05566075
000170 57 98 14 3d fc 3c e4 bd 64 9b 0d bd c1 e9 bc 3d
       0.036278095 -0.11144444 -0.03457202 0.092242725
000180 af b5 0d bd 8e f8 2b bc 7b 3a 22 3c 89 83 1b bd
       -0.034597095 -0.010496272 0.009901638 -0.03796724
000190 1d 15 a1 3c ea f6 b5 bd 55 87 f1 bc 4c a9 82 3d
       0.019663388 -0.08884986 -0.029483477 0.06379947
0001a0 2a dd 15 bd ca 2e 94 bd 57 ac 20 3d c8 13 f7 bb
       -0.03658787 -0.07235487 0.039226856 -0.0075402
0001b0 20 af fb 3c 23 44 24 bd ce 31 fe bb c5 aa aa bc
       0.030723155 -0.040104043 -0.007757402 -0.020833382
0001c0 4a 1b 0a 3c 1a d6 a5 3d d9 52 e6 3c 73 37 95 bc
       0.008429358 0.08097477 0.028115677 -0.018214917
0001d0 90 2a 5d 3d 4c 57 9c 3d bf 48 59 3c 31 3e ba 3d
       0.05399567 0.07633838 0.013261973 0.09093893
0001e0 59 56 db 3c 32 d4 2c 3d 19 cd 06 3b d0 f6 27 3d
       0.026774572 0.042194553 0.0020569025 0.041006863
0001f0 cc 7c 96 3d 5c c4 1f 3c 97 c8 6b 3d b9 66 51 3d
       0.07348022 0.009751406 0.057564344 0.051123355
000200 c6 b4 85 3d 26 83 9a 3c 89 dd 89 bc da 36 9b bd
       0.065286204 0.018861365 -0.016829269 -0.075788215
000210 65 38 3c bd 8d 4b 0b 3d c3 ce 4e 3a 90 c7 87 bc
       -0.04595222 0.034007598 0.0007889086 -0.016574651
000220 23 c3 e7 3c 81 f0 bd bc 7b 50 36 bc de 39 83 bd
       0.02829129 -0.02318597 -0.0111275865 -0.06407522
000230 7a 9d 2c 3b 51 48 1f 3d db 2c 19 bd f4 20 26 3d
       0.002633898 0.038887326 -0.037396293 0.04055877
000240 e6 fe f1 bc 08 a7 9d bd 96 ef 7e bd 49 90 1b bd
       -0.02954049 -0.07697874 -0.062240206 -0.037979398
000250 67 79 43 bd 96 6c 6e 3b 51 39 00 bc f5 61 89 bd
       -0.0477232 0.003638064 -0.007826165 -0.06708137
000260 3e c5 8a 3d f6 af e6 3c 99 7b 70 bd 19 e1 07 bd
       0.06775902 0.028160077 -0.058711622 -0.033173654
000270 20 63 2c bc a3 cd 3f 3d 84 47 84 bd 6f a7 af bd
       -0.01052168 0.04682697 -0.06458953 -0.08576857
000280 04 f3 91 bd 2c a9 c2 3c 50 4e 8a 3d 50 cf 97 bd
       -0.0712643 0.023762308 0.06753218 -0.074125886
000290 5c 9e 15 bd ce 1b 53 3d 4e ea 90 bb d5 7d 54 bd
       -0.036527976 0.05154019 -0.0044224625 -0.051877815
0002a0 d0 de 98 3d 16 19 46 bd 43 fe a1 3d 40 23 54 be
       0.07464373 -0.048363768 0.07909825 -0.20716572
0002b0 11 f4 f8 3c 53 22 b6 3d bc 3c 3d bd db ce e5 3c
       0.030389817 0.088932656 -0.0462005 0.028052738
0002c0 ee 10 2a bd 47 a7 3e 3d 75 1f 78 ba dd bd a3 3d
       -0.04152005 0.046546247 -0.00094651367 0.07995198
0002d0 16 3d 00 bd c2 a9 66 bd 0f 8b 08 3d 68 a9 06 bd
       -0.031308256 -0.056314237 0.03333574 -0.032876402
0002e0 df 1a 31 3d 4f 08 b2 3c c8 71 b7 bc 2f 51 e8 bc
       0.043238517 0.021732477 -0.022393122 -0.028359024
0002f0 af 5e 83 bd a7 ec 3b 3d 54 3c d5 3d 52 7c 5b bd
       -0.06414544 0.045879986 0.10411897 -0.053585358
000300 a3 72 f7 3c 35 95 6c bd c0 f9 96 3a c3 e5 ae 3d
       0.03020603 -0.057759482 0.0011518523 0.08539917
000310 a6 fc a7 3c 1f 73 a3 3d 91 9c cc 39 93 53 d3 bb
       0.020506214 0.07980942 0.00039026563 -0.006449172
000320 7f ff 2b bd 00 47 d1 bc 26 4f 48 bd 8c 39 98 3d
       -0.041991707 -0.02554655 -0.048903607 0.07432851
000330 21 21 69 bc 4f e3 c4 bd cc d8 03 be 7d 98 69 bc
       -0.01422909 -0.09613668 -0.1287567 -0.014257547
000340 22 6d cf bc 1b d4 88 bd 2e b9 8d bd 6c bf ae bd
       -0.025320593 -0.06681081 -0.06920086 -0.085326046
000350 84 25 38 3d 5e e9 9c 3d 53 64 55 bd 36 43 02 bd
       0.044957653 0.07661699 -0.05209763 -0.03180238
000360 ca 6b 54 bb c2 74 99 3d 36 eb f7 3c 16 50 5d 3d
       -0.003241288 0.07492973 0.030263525 0.054031454
000370 fc 7d 98 bc 19 5f 4c 3d df da 8a 3d 02 5c a0 3d
       -0.018614762 0.04989538 0.067800276 0.07830049
000380 37 c4 de 3c eb 4f e9 bc 70 40 74 3c 74 d4 5b bd
       0.027193172 -0.02848049 0.014907941 -0.053669408
000390 ae 26 bc bd 5c 73 99 bd 79 61 8d bc ae 28 5a bd
       -0.09187065 -0.07492706 -0.017258393 -0.05326145
0003a0 61 f1 75 bd fe e2 0e bd 28 16 8b bd ff b3 42 3d
       -0.06004465 -0.034884445 -0.06791335 0.04753494
0003b0 18 f7 d1 3c 44 c0 52 3c 9d 38 88 3d d0 5d 77 bc
       0.025630519 0.0128632225 0.06651423 -0.01509805
0003c0 6f c1 0b bd 39 37 34 bd 69 5b 0a bc 53 98 2a bd
       -0.03412002 -0.043997977 -0.008444645 -0.041649174
0003d0 12 d9 33 3b ec 43 f7 bc fd bc 1d 3d 74 ac 06 bd
       0.0027442616 -0.030183755 0.03851031 -0.032879308
0003e0 dc f0 1f bd 2b 10 14 bc 43 33 8e 37 ea 0f 9b bd
       -0.03904806 -0.009037058 1.695159e-05 -0.07571395
0003f0 9b f7 7f bb 51 d1 8b 3d e0 57 17 bd dd cf 9b 3d
       -0.0039057496 0.06827033 -0.03694904 0.07608006

lstm.weight_hh_l1 f4 [512, 128]
000000 04 e9 f0 bb d1 b4 c6 bc 71 2b cb 3d 9d 2b 29 3d
       -0.0073519964 -0.024256142 0.09920395 0.04130136
000010 9a 02 2b bc d4 62 01 bd c9 8e 2e bd cd 51 8e 3d
       -0.010437632 -0.03158839 -0.04261664 0.06949196
000020 07 b0 b8 3c 64 f7 bf bd f9 d8 0b bc 5c 66 c0 bc
       0.022544874 -0.09373358 -0.008535617 -0.023486309
000030 3c 2d 69 bd 9d 2c af bd b7 fd 5b 3d 2d 79 31 3d
       -0.056927904 -0.08553431 0.05370876 0.043328453
000040 86 90 20 3d 7d 45 7b 3c 13 c5 3c 3c ba 2d ce bd
       0.03920033 0.0153363915 0.0115215955 -0.100673154
000050 3a 83 31 3d ed 23 ab bb 54 de 40 bc cb f9 9b 3d
       0.043338038 -0.0052227885 -0.011771757 0.076160036
000060 91 45 db bc eb 59 5e bd cb f5 d9 3d 43 a2 eb 3c
       -0.02676657 -0.05428497 0.106425844 0.028763896
000070 99 a6 84 bd 24 77 ad 3d 8c a0 92 bc 40 a8 08 3d
       -0.064770885 0.0846999 -0.01789882 0.03336358
000080 50 f4 8a 3c 59 89 88 3d 55 6e c9 3c 13 45 91 3d
       0.0169622 0.06666822 0.024588743 0.07093253
000090 a3 7d 8c bd af eb 3a bd 6e 59 95 bd 68 f4 86 bd
       -0.06859901 -0.04563492 -0.07292448 -0.065895855
0000a0 10 dc 11 bd 9c 32 4f 3d 3c 55 ae bd 79 9c 00 bd
       -0.03561026 0.050585374 -0.08512351 -0.031399224
0000b0 0c f0 29 3d 94 33 c4 3d ed 1c a8 3d 9d a2 36 bd
       0.041488692 0.0958015 0.08208642 -0.044588674
0000c0 8e 2c 5a 3d 1e 85 89 bd c1 e8 c3 3c a2 b1 8b bd
       0.053265147 -0.06714843 0.023914697 -0.0682099
0000d0 43 70 88 bd ee 3f c9 3d dd 40 c2 3d 60 de 2f 3d
       -0.06662037 0.09826647 0.09485028 0.042936683
0000e0 28 df 14 bc bb 02 32 bd 32 71 87 bd aa b7 84 3d
       -0.009086408 -0.043459635 -0.06613387 0.06480344
0000f0 2b 99 0b bd c3 08 4d 3d 3a 96 91 3d c9 f1 b2 bc
       -0.03408162 0.050057184 0.071087316 -0.021843808
000100 42 23 77 3d d9 05 1b bd 2f 00 1a bd 1e b2 f9 3c
       0.06033636 -0.037847374 -0.03759783 0.03048044
000110 70 1a 1f 3c 35 10 d0 bc 3b 24 bd bd b9 e2 b0 3c
       0.009710893 -0.025398353 -0.09235426 0.021592485
000120 b8 e0 d9 bc 5a be 9e 3d 9d 87 7c bc 6a 84 67 3c
       -0.026596412 0.077511504 -0.015413192 0.014130691
000130 30 94 7c 3d 03 fd 3d 3d 06 34 2e 3d 7c 1f a7 3c
       0.06166476 0.04638387 0.042530082 0.020400755
000140 bd ba 56 3d 54 e5 01 3d 9d b2 67 bc 4d 37 88 3d
       0.05242418 0.031712845 -0.014141706 0.06651173
000150 c4 31 6b ba 1b e3 2d 3d f0 b6 2f 3c 9e a7 ae 3c
       -0.0008971954 0.042452913 0.010724768 0.02132016
000160 36 af 7f bc ad 45 ae 3c ea ba 59 3d a5 0c 8a 3c
       -0.015605738 0.021273458 0.05315677 0.016851733
000170 ab a5 9a bc 0d db d0 3d 6a 7e 7f 3d 90 24 e3 3c
       -0.018877825 0.101980306 0.062376417 0.027727395
000180 e9 e3 23 3d 97 b0 df 3c c0 e3 0d 3d 43 90 37 bc
       0.040012274 0.027305884 0.034641027 -0.011203828
000190 10 de 66 bb 3c d4 d2 bc 47 c4 79 3d 0a 92 20 bd
       -0.0035227574 -0.025735967 0.0609782 -0.039201774
0001a0 b3 25 2b bb 30 4f 6a 3b b2 a6 f7 bc 45 87 87 3d
       -0.0026115 0.0035752766 -0.030230854 0.066175975
0001b0 bd 0a de 39 11 e2 49 bd 27 58 87 3b d3 36 1b bd
       0.0004235114 -0.04928786 0.0041303816 -0.03789408
0001c0 44 1f 7d bd 14 87 09 3c ad a6 b7 bd f0 af d8 bd
       -0.061797395 0.008394022 -0.08967338 -0.105804324
0001d0 ff c4 2c 3c 8d 48 a2 bc f3 6e f3 3c 32 b4 d0 3d
       0.010545014 -0.019809986 0.02971599 0.101906195
0001e0 ab 64 a1 3d 36 ad 75 bc 4d 75 51 bd 67 c1 35 3c
       0.07880529 -0.01499491 -0.051137257 0.011093474
0001f0 85 1c 57 3d 47 18 62 3d 29 86 7e 3d cd 4b 6b 3d
       0.052517433 0.055198934 0.062139664 0.057445336
000200 7e 0b af bd f2 d0 f1 3c 92 b4 6b bd d2 64 86 bd
       -0.08547114 0.029518578 -0.057545252 -0.06562199
000210 19 bc f4 bc bc c8 78 3c 2a 8d 1a 3c 30 c0 e9 bc
       -0.029874848 0.015184578 0.00943307 -0.028534025
000220 31 7a f4 bc 3f 12 bd bd cf 55 87 3d 4d 50 82 bd
       -0.029843422 -0.09231996 0.066081636 -0.063629724
000230 3d 4a 00 bd 00 2f d1 3c 98 d8 72 3d ce 24 33 bd
       -0.0313208 0.025535107 0.05928859 -0.04373627
000240 ab 25 f0 3c 4a 85 52 bd 9e 74 34 3d 2f 3d 15 3d
       0.029314836 -0.051396646 0.044056527 0.036435302
000250 43 df 6c bc 20 56 65 3d d3 97 48 bd 78 0d 8c 3d
       -0.014457527 0.05599034 -0.048972916 0.068385065
000260 a5 41 4c 3d a5 af f9 bc 10 a1 84 bd c2 a4 9e bd
       0.04986729 -0.030479262 -0.06476033 -0.07746269
000270 4b 7e 59 3d ae 4c 9f bd 19 98 db 3c 9e 16 8f 3d
       0.053098958 -0.07778297 0.026805924 0.06986736
000280 59 7e 6b bd cb 3d 2a bd 95 72 1a 3d de bf 3b 3d
       -0.05749354 -0.041562837 0.03770693 0.045837276
000290 98 98 a6 bd 50 66 47 bd 57 22 57 bd d2 0e 40 3c
       -0.08134574 -0.048681557 -0.052522983 0.011722283
0002a0 e4 79 54 3d 35 db 72 bd 41 ac 97 bd a8 af cd 3c
       0.051874056 -0.059291083 -0.07405902 0.025108173
0002b0 37 89 a0 3d c0 09 2c bd ca 36 f5 bb e1 4f 12 bd
       0.07838672 -0.042001486 -0.007483338 -0.03572071
0002c0 5a 8f 85 3d 50 a2 01 bc 5c 58 a5 bd 4a 79 6c 3d
       0.06521483 -0.0079122335 -0.08073494 0.057732858
0002d0 4d 74 ab bc 4a 3c e9 3c aa a3 5e 3b a0 9b 92 bd
       -0.02092948 0.02847113 0.0033972063 -0.07158589
0002e0 7c 66 93 bd f0 ce c4 bd 30 be a1 3d 36 ce 9a 3d
       -0.07197282 -0.09609783 0.078976035 0.07558863
0002f0 c3 d4 95 3d 95 70 db bb 0e 2d 4a 3d a7 1d fb 3c
       0.07315972 -0.0066967704 0.049359374 0.030653788
000300 3e 95 66 3d ad 9e 91 3d 00 6e d6 3c 61 8d 04 3d
       0.056294672 0.07110343 0.026175499 0.032361392
000310 9f b8 b6 3c 5e 12 4f 3d 81 c4 d1 3c 4b ac ae bd
       0.022304831 0.050554626 0.025606396 -0.08528956
000320 ad c3 6e 3d b9 5d a7 3d c3 f2 6e bd 7a 97 2c bd
       0.05829208 0.08172173 -0.058336984 -0.042136647
000330 e7 cb a3 bd 55 59 41 3d 94 9c 93 3d 3e e3 9d bc
       -0.07997876 0.047204334 0.07207599 -0.019273397
000340 c2 dc ad bc 4d d3 d5 bc 97 0e 44 bc 11 c0 91 3c
       -0.02122343 -0.026101733 -0.011966369 0.01779178
000350 fe a5 6a 3d 74 4e 32 bd f8 69 06 3d 51 14 1b 3d
       0.05728721 -0.04353185 0.032815903 0.037861172
000360 92 a9 2d 3d 05 16 80 bd 41 a9 17 3d fd 2a a6 bc
       0.042398043 -0.062542 0.037026647 -0.02028417
000370 9b 63 60 bc d0 58 d3 bc a9 2f a7 bd 6b ca f9 bc
       -0.013695623 -0.025799185 -0.08163387 -0.030492028
000380 f9 46 84 bc 0f 67 2b bd 0c 9d 88 3c 48 52 cb bc
       -0.016147124 -0.04184633 0.016676448 -0.024819508
000390 a9 cc 57 3d 88 1b c5 bc 71 05 bf 3c bb 5f a4 3d
       0.052685414 -0.02406098 0.023318024 0.08026072
0003a0 66 b4 33 3d c0 91 7f bd 97 6f b5 bd 92 b7 c6 bb
       0.043873213 -0.062394857 -0.08859175 -0.0060643638
0003b0 8a bf 01 bd e2 66 3d bb 69 22 2a bc f8 58 8e bd
       -0.031676807 -0.0028900434 -0.010384181 -0.06950563
0003c0 80 f5 e5 3b 1e d9 b5 3d f0 f9 a6 3c 0c cd 03 bd
       0.0070177913 0.088793024 0.020382851 -0.03217797
0003d0 13 59 99 bd 41 29 0b bd d0 42 26 bd ad 20 23 bd
       -0.07487693 -0.03397489 -0.04059106 -0.039826084
0003e0 f5 ba 9e bd b3 6e f5 bc cd 29 75 3d 7a ac e5 bc
       -0.07750503 -0.029960012 0.059854317 -0.028036345
0003f0 f6 e2 ef bc 62 4b d5 bd a0 13 7c 3d e6 10 bc 3d
       -0.029283028 -0.10414769 0.061542153 0.091829106

lstm.bias_ih_l1 f4 [512]
000000 4e ae 1a 3d cf 3e 6e 3d 49 dd 93 bd 63 c2 07 bc
       0.037763886 0.058165368 -0.07219941 -0.0082860915
000010 3e d7 4c 3d 68 fd 12 3d c3 25 6e bd 65 ca 83 3d
       0.05000996 0.0358862 -0.05814148 0.06435088
000020 6a 1f 1e bd 14 5d 8f 3c 12 cc 1d 3a 71 7f 73 bb
       -0.038604178 0.017500438 0.00060194836 -0.0037154818
000030 81 1f 93 3d 10 1b 9a 3d e8 40 aa 3d f8 38 ef 3c
       0.07183743 0.07524693 0.08313161 0.02920197
000040 c0 a5 be bd da 8d 51 3d ec 15 83 bd b1 3e 8e 3d
       -0.09308958 0.05116067 -0.06400666 0.06945551
000050 16 0f b0 3b 75 c2 94 bd 9e c6 3d 3b ab d2 28 3d
       0.005372892 -0.07263652 0.0028957496 0.041216534
000060 3d 9d 2a 3d b4 40 78 bd d7 d4 b7 3c 4c bb cd bc
       0.04165386 -0.06060858 0.022440357 -0.025113724
000070 c4 8d dc bc cb 34 b7 bc 36 ea 97 3d ea 17 bc bc
       -0.026923068 -0.02236404 0.07417719 -0.022960622
000080 c0 87 3d bd 36 36 bc 3d 28 e0 96 bd ee 69 2c 3d
       -0.04627204 0.091900274 -0.07366973 0.04209321
000090 dc 90 1c bd e4 31 a4 bd 62 35 21 bc 4d 84 d5 b7
       -0.038224086 -0.080173284 -0.009839388 -2.5453186e-05
0000a0 af 86 fa 3c b1 b3 42 bc 08 f8 1b 3d 1a f9 5d bc
       0.0305818 -0.011883662 0.038078338 -0.01354816
0000b0 89 c2 7f bd 9b 49 ae 3d ce b9 48 3c ac f9 c9 39
       -0.062441383 0.08510133 0.012251331 0.00038523728
0000c0 c0 7c 10 bd a6 3a f4 bb 60 fc 9d 3c a8 cb 19 bc
       -0.03527522 -0.0074532805 0.01928538 -0.009386934
0000d0 e7 7a ac bc e2 2b 74 bd 1d df bf bc c9 2c 90 3d
       -0.021054698 -0.059612162 -0.023421818 0.07039792
0000e0 63 cb d0 3d 78 80 15 bd 95 7c 51 bd fd 10 9d 3d
       0.10195043 -0.03649947 -0.0511442 0.07669256
0000f0 a3 5c 96 3d 06 57 af 3d d1 52 ab 3c 57 66 4a 3c
       0.07341888 0.0856152 0.020913513 0.012353501
000100 24 0b 28 3d 37 8a 97 3d ab 13 7a bd 13 f5 f7 bc
       0.04102625 0.07399409 -0.061053913 -0.030268228
000110 ba bf 87 3b f6 40 8b bd 41 d9 51 bd a8 cc 42 bd
       0.0041427286 -0.067995 -0.05123258 -0.047558457
000120 cc cf 08 3d a3 b3 51 bd 20 38 ab bd 23 e0 88 3b
       0.033401296 -0.051196706 -0.08360314 0.00417711
000130 e4 c0 92 bc 45 09 57 3d 2f 5a 74 3b 2d 0d ba 3d
       -0.017914243 0.052499074 0.00372852 0.09084544
000140 e1 82 83 bc 40 70 f5 bb 82 9a 60 3d 5c fb b6 3d
       -0.016053619 -0.007490188 0.05483485 0.08934662
000150 d6 35 09 bd 59 31 d5 3b 8b 52 92 bd 38 d5 ac 3d
       -0.033498608 0.006506127 -0.0714465 0.08439106
000160 71 6f ea 3c 19 b3 8c bd a4 2a 98 3d 53 3f ec 3c
       0.028617593 -0.06870098 0.07430008 0.02883879
000170 b4 4d ad 3c be e3 b7 bc 7c 86 b3 bc 91 0f 89 bd
       0.021155216 -0.022447463 -0.021914713 -0.06692422
000180 73 97 39 3c 5a 1c 37 3d c7 02 2e 3d 76 bf b4 3d
       0.011327612 0.044704773 0.042483117 0.08825581
000190 dc ec 8e 3d e5 c1 8b 3d 1f 95 1e 3a fc fb 75 bd
       0.06978771 0.06824092 0.00060494425 -0.060054764
0001a0 77 1e 9e bd 6b 28 b2 3d 93 c7 7d bd 96 e6 02 3c
       -0.077206545 0.08699115 -0.061957907 0.007989546
0001b0 cb ee 80 3d 2e c9 5e bd 0f f6 10 3e 70 43 b4 3d
       0.06295546 -0.05439108 0.14156364 0.08801925
0001c0 a4 16 b2 39 93 29 6a bd 7e 72 19 bd 5a 0e c2 3d
       0.00033967674 -0.057168555 -0.037462704 0.094753936
0001d0 8c 30 c3 bd 7b fb 26 3c 91 0c af 3d b1 e5 62 bd
       -0.09530744 0.010191794 0.08547319 -0.055394832
0001e0 89 68 22 bd e5 c2 a3 bd 17 a5 61 3c 06 65 07 bb
       -0.039650474 -0.079961576 0.013772271 -0.002065958
0001f0 4c d6 bb 3c f1 e0 8c 3d b0 ee 9f 3d 32 bb 1d bd
       0.022929333 0.06878842 0.07809198 -0.0385086
000200 1e 2a 54 bd 2a a2 81 3d 5b e1 01 bd 3e 9e f1 3c
       -0.05179798 0.063297585 -0.031709056 0.029494401
000210 55 cb 59 3d 05 de aa bd 7a 7f ba bd ca 01 2c bd
       0.05317243 -0.08343128 -0.091063455 -0.041993894
000220 1e da c1 bd 1c 81 70 3d 75 af 66 3d 8b 52 79 3b
       -0.09465431 0.05871688 0.056319673 0.0038043584
000230 52 1c ac 3d 8e 14 8c 3d 36 97 a2 bc f5 3c d6 bc
       0.08403839 0.06839858 -0.019847494 -0.026152113
000240 36 59 05 bd db 9d 26 bd ca a0 23 3c 4a 4d 9e 3d
       -0.03255578 -0.040677886 0.009987066 0.077295855
000250 d5 49 24 bd da 0a 6d bc 71 c0 c0 bd 95 06 8e 3d
       -0.040109474 -0.014467919 -0.09411705 0.06934849
000260 58 18 a0 bc d6 31 cd 3c 67 7c 00 bc 27 90 b1 bd
       -0.019542858 0.025048178 -0.00784216 -0.08670073
000270 bc 19 a7 3b 1d ea 30 3d ea 63 70 3d f4 25 43 bd
       0.0050995033 0.043192018 0.058689035 -0.047643617
000280 1e b0 44 3b 61 eb 6f 3d 0f 1a 9d 3d 3e 1e eb ba
       0.00300122 0.058574084 0.07670986 -0.001793809
000290 af 9b 88 bd ca e3 36 bd 5a 9d ba 3c 52 ac 9e bd
       -0.06670319 -0.04465083 0.02278011 -0.07747711
0002a0 10 b4 84 bd 25 dc ca bc a0 03 b9 3c 22 72 15 bd
       -0.06479657 -0.024763176 0.022584736 -0.0364858
0002b0 26 a8 1c bd 17 a9 d3 3c d5 83 b4 3c 81 7b 80 bb
       -0.038246296 0.025837464 0.022035519 -0.003920973
0002c0 b8 6e 03 3c 1c 0d 27 3d c9 bf be 3a 61 e1 ad 3a
       0.008022003 0.040783986 0.0014553006 0.0013266021
0002d0 88 8a cc bb 50 b3 d7 3b 6b 46 65 3d e7 28 40 3d
       -0.0062421 0.006582655 0.05597536 0.046914008
0002e0 1e 4a aa 3d 05 6e b5 3d 84 6d 4a 3d 0b 85 b2 bb
       0.08314918 0.08858875 0.04942085 -0.005447989
0002f0 8d fd 0d bd 4f 85 45 3d 41 00 7c bc 53 f0 a1 bc
       -0.034665633 0.048222836 -0.01538092 -0.019767916
000300 11 e0 a9 3d ca 83 56 3d 14 83 71 3d 3c 1d 82 3d
       0.082946904 0.052371778 0.058962896 0.06353232
000310 e4 92 ca bc 93 db b9 bd b1 fc 47 3d 8c 8f b9 3d
       -0.024728246 -0.090750836 0.04882497 0.090605825
000320 8a ed 9d 3d 3d 1e d7 3c f1 4b 4e bc f8 b9 03 3d
       0.077113226 0.026259536 -0.012591348 0.032159775
000330 30 7b 90 3d ab 3b 23 bd ab 1e 30 bb 05 ea 98 bd
       0.07054746 -0.039851826 -0.0026873748 -0.07466511
000340 a1 91 08 bd b1 e0 73 3d 8f 9a 81 bd 43 e7 90 3d
       -0.033342008 0.059540454 -0.06328308 0.0707536
000350 81 c4 7a bd 7f 77 04 3b a1 86 d9 bc 7f 8d 77 bd
       -0.061222557 0.0020212827 -0.026553454 -0.060437676
000360 7b 83 56 bd ad 0c 5f bc 7e f4 ae bd 7c 60 14 3d
       -0.052371483 -0.013613862 -0.08542727 0.036224827
000370 b3 3f 47 3c 81 5b 1c 3d 27 61 bf bd 0c ba f0 bb
       0.012161183 0.038173202 -0.09344702 -0.0073463973
000380 6d 2b e1 3c bd d4 90 bd ef bf 31 bd a5 f0 2a 3d
       0.027486527 -0.070718266 -0.043395933 0.041733403
000390 ea 93 1b bd 84 0f 8f bd 37 ac 09 bd 60 5e 9b 3c
       -0.03798286 -0.06985381 -0.033611502 0.0189659
0003a0 8a 99 44 bd 03 0b 7d bd 11 50 18 3c 1a d5 06 bd
       -0.04799799 -0.06177808 0.009296433 -0.032918073
0003b0 fd 74 89 3b aa 18 0b 3a 92 ba 78 bd 3e 16 42 bd
       0.0041948543 0.00053061044 -0.060724802 -0.047384493
0003c0 3f 03 1f bd 9e f3 aa 3d aa f2 71 bc 66 be a3 bd
       -0.038821455 0.083472475 -0.014767328 -0.079953
0003d0 5a 8b c7 3b 95 df 95 3d a6 16 8a bd 24 01 aa ba
       0.00608961 0.073180355 -0.06742601 -0.0012970311
0003e0 c1 e9 9e 3d e4 44 6c 3d 23 63 c7 bd e9 2e 66 3c
       0.07759429 0.057682887 -0.09735706 0.01404927
0003f0 ae 49 10 3d 80 c1 88 bd 77 a5 15 3c 1f 1f ce ba
       0.035226516 -0.06677532 0.009133688 -0.0015725828
