models/0288.HK_lstm_SMA50_diff.pth (torch, 807217 bytes, 9 tensors)

lstm.weight_ih_l0 f4 [512, 4]
0.04042606 0.090087324 0.0068817195 0.10239211 -0.041276623 -0.030815298 0.0027513981 -0.13110384
0.0024562024 0.05320537 0.07413067 0.087557025 0.06696787 -0.043840125 -0.007781801 -0.024034847
0.03293926 0.023847153 0.027656663 -0.043054096 0.09174187 0.17298825 0.17404492 0.11365047
0.07592019 -0.0326275 0.07829623 -0.035953145 -0.023639118 0.00089294923 0.040275916 0.07140191
0.07573705 0.00814766 0.13072968 0.15016282 0.12873341 0.06309175 -0.042933743 -0.037232786
0.0502997 0.0809193 -0.010821465 -0.039994363 0.029465735 -0.009983792 0.017271057 0.026189554
0.027339622 0.0029065148 0.028218174 0.10934849 0.015869107 -0.046519168 0.035276555 0.07545786
0.012606082 0.094655424 -0.0037853175 0.10094721 -0.044164255 -0.06610208 0.015934205 0.072161846
0.0732531 0.0026154344 -0.05520315 0.0035575517 0.033625253 -0.06635125 0.053296376 0.08599829
-0.022910172 0.00077770057 0.082259044 0.1259232 0.08543513 0.06886714 0.02391421 0.11240093
0.055920113 0.017740205 0.05429092 0.009059935 0.06785053 0.059129145 -0.07242888 -0.05573892
-0.016270034 0.122574516 -0.026090072 0.040615935 0.107760035 0.07721138 0.044831395 -0.017048635
-0.058467917 0.026933735 -0.075576946 0.073159225 0.03733921 0.0986091 0.08029371 0.008965715
-0.011778598 0.08927633 0.0022831822 0.08475647 -0.038848378 0.004351743 -0.053336997 0.07284188
-0.032264803 -0.023873083 -0.05650611 -0.07905677 -0.059285603 0.08571433 0.09675554 0.08500378
0.0710402 0.017812615 0.096150726 0.096376635 0.012945879 0.04602407 0.06452231 0.027419142
-0.05430954 0.009366392 -0.027524432 -0.024978258 -0.0033971444 -0.055883236 0.084021345 0.035296068
-0.06135598 0.042726923 0.10908637 -0.02851451 0.0057672122 0.0085773785 0.11004031 0.012385384
0.0094172405 0.07786085 0.102785766 0.09682904 -0.008118782 -0.0242334 0.059270512 0.05388855
0.035459355 -0.004476263 -0.0014471537 0.008067967 0.11551489 0.031586956 -0.05009571 0.026538206
0.08234142 0.11449287 0.043015473 0.08735888 0.13061243 0.056823518 0.052114673 0.029558253
0.00035407481 0.020774834 -0.021423843 0.061357573 0.165726 0.06815054 0.19497776 0.048039604
0.17669067 0.03842633 0.041668173 0.06817566 0.0641646 0.0471716 -0.030328346 0.045546927
0.22187282 0.1892608 0.1338587 0.10075242 0.01628539 0.044958048 0.01725878 0.026318584
0.041448906 0.030350022 -0.066469215 -0.063671514 0.033386014 0.030626878 0.0152183715 -0.01848739
0.13831285 0.06489672 0.063368626 0.07423501 -0.056553017 -0.07416007 -0.06660339 0.043961417
0.030549325 0.06702378 0.027914926 -0.015516541 0.08138527 0.10720316 0.07277171 0.06538676
-0.014385676 0.07384432 0.05587774 0.030683558 -0.03779088 0.06203712 0.0115953805 0.0082690595
-0.07622424 -0.037472736 0.030368002 -0.018150974 -0.07596305 0.033003807 0.035532597 -0.0039923135
-0.035410047 0.0763498 0.074579686 0.109111615 0.005991595 0.082026266 -0.035404235 -0.003343427
-0.09887533 -0.054667696 -0.00456701 -0.07391349 -0.00951224 0.016362166 -0.030583503 0.07902812
0.08092495 0.22842366 0.17014627 0.14105842 -0.027467662 -0.028260222 0.11060651 0.10467349
00000000: cc95 253d b47f b83d 0c80 e13b f4b2 d13d
00000010: ad11 29bd 5d70 fcbc cd50 343b 1640 06be
00000020: 3df8 203b e0ed 593d d2d1 973d 1951 b33d
00000030: 7326 893d b491 33bd 7afe febb bae4 c4bc
00000040: 51eb 063d 1b5b c33c 3a90 e23c 7e59 30bd
00000050: 29e3 bb3d d523 313e d538 323e 94c1 e83d
00000060: 0b7c 9b3d 6aa4 05bd c659 a03d 9b43 13bd
00000070: d3a6 c1bc cf14 6a3a 5cf8 243d 2a3b 923d
00000080: 071c 9b3d c37d 053c 00de 053e 48c4 193e
00000090: b1d2 033e 3f36 813d 4bdb 2fbd 6881 18bd
000000a0: 0f07 4e3d 05b9 a53d 844c 31bc 21d1 23bd
000000b0: 2062 f13c 0f93 23bc 087c 8d3c 7a8b d63c
000000c0: 58f7 df3c 3a7b 3e3b cd29 e73c 1af2 df3d
000000d0: eeff 813c e28a 3ebd 267e 103d a789 9a3d
000000e0: bd89 4e3c b4da c13d 1713 78bb 69bd ce3d
000000f0: 94e5 34bd 8760 87bd 7388 823c 97c9 933d
00000100: b905 963d b567 2b3b b31c 62bd d025 693b
00000110: a2ba 093d 2ae3 87bd 4d4d 5a3d df1f b03d
00000120: 1dae bbbc 9ade 4b3a 6e77 a83d 03f2 003e
00000130: 9df8 ae3d 370a 8d3d bce7 c33c 7532 e63d
00000140: 7d0c 653d e853 913c 2860 5e3d 1f70 143c
00000150: 38f5 8a3d 6731 723d 9855 94bd 7e4e 64bd
00000160: bc48 85bc 5908 fb3d d9ba d5bc e55c 263d
00000170: 4bb1 dc3d 0021 9e3d 20a1 373d 94a9 8bbc
00000180: 0e7c 6fbd 23a4 dc3c 16c8 9abd 81d4 953d
00000190: 00f1 183d 91f3 c93d 0771 a43d efe4 123c
000001a0: 05fb 40bc 82d6 b63d 71a1 153b cd94 ad3d
000001b0: 7a1f 1fbd 1199 8e3b e577 5abd 202e 953d
000001c0: 1928 04bd 7c91 c3bc f372 67bd 84e8 a1bd
000001d0: 76d5 72bd ff8a af3d c527 c63d 7616 ae3d
000001e0: 867d 913d c3eb 913c acea c43d 1d61 c53d
000001f0: f41a 543c bc83 3c3d 4624 843d 1c9e e03c
00000200: ae73 5ebd 7f75 193c eb7a e1bc 349f ccbc
00000210: a0a2 5ebb d2e5 64bd 6213 ac3d 9c92 103d
00000220: 6850 7bbd 6d02 2f3d ad68 df3d 4397 e9bc
00000230: e2fa bc3b 2288 0c3c d05c e13d 11ec 4a3c
00000240: c54a 1a3c 8275 9f3d 5881 d23d 4e4e c63d
00000250: a404 05bc 2085 c6bc a3c5 723d 3dba 5c3d
00000260: d43d 113d 9ead 92bb 6cae bdba 822f 043c
00000270: 1293 ec3d 5361 013d 2931 4dbd a766 d93c
00000280: 9ea2 a83d 3d7b ea3d fe30 303d 36e9 b23d
00000290: 44bf 053e c7bf 683d 3276 553d 2624 f23c
000002a0: 1ea3 b939 fc2f aa3c 0e81 afbc 1452 7b3d
000002b0: 14b4 293e 8392 8b3d 40a8 473e 2dc5 443d
000002c0: 66ee 343e ed64 1d3d 3fac 2a3d ae9f 8b3d
000002d0: bb68 833d 0237 413d 2773 f8bc 6a8f 3a3d
000002e0: a132 633e 95cd 413e 4112 093e 4957 ce3d
000002f0: f068 853c ee25 383d 4962 8d3c 129a d73c
00000300: 54c6 293d 9ca0 f83c 0321 88bd 3666 82bd
00000310: c6bf 083d 38e5 fa3c 7a56 793c de72 97bc
00000320: e2a1 0d3e 92e8 843d 69c7 813d 8608 983d
00000330: 23a4 67bd 3ce1 97bd 5c67 88bd e310 343d
00000340: 9442 fa3c c343 893d d8ad e43c 1739 7ebc
00000350: 52ad a63d 558d db3d 5609 953d 7ee9 853d
00000360: e6b1 6bbc b13b 973d 0fe0 643d 165c fb3c
00000370: 9cca 1abd a31a 7e3d 8dfa 3d3c f37a 073c
00000380: 741b 9cbd 037d 19bd 51c6 f83c 5ab1 94bc
00000390: 8492 9bbd 002f 073d a18a 113d f4d1 82bb
000003a0: 200a 11bd 495d 9c3d 3cbd 983d e975 df3d
000003b0: 2455 c43b 63fd a73d 0804 11bd 661d 5bbb
000003c0: 267f cabd 3ceb 5fbd dba6 95bb f55f 97bd
000003d0: 3ad9 1bbc f309 863c 418a fabc 7fd9 a13d
000003e0: fbbb a53d e4e7 693e d33a 2e3e 9e71 103e
000003f0: dd03 e1bc fb81 e7bc aa85 e23d 0e5f d63d

lstm.weight_hh_l0 f4 [512, 128]
-0.016468449 0.023874315 -0.030478558 1.2871773e-05 0.047628116 -0.027357418 -0.088144176 -0.06855549
-0.016646916 -0.052200772 -0.053200714 -0.015512775 -0.029221743 0.032140464 0.032027505 0.07217946
-0.06168504 0.01628794 -0.049390752 0.08816348 -0.055525944 0.031292267 -0.08726719 -0.095620014
-0.039055914 -0.09764662 0.0072669834 0.0019048586 0.023375213 -0.08220577 0.026106551 0.038353287
0.06189281 0.03233872 0.06996309 0.07864373 0.0867707 0.025358116 -0.050248258 -0.046562314
0.013803522 0.05610444 0.028619051 0.12736854 0.049494427 -0.05671546 0.0073562283 0.05036013
0.07037963 -0.057695314 -0.068629265 -0.07786109 0.021136895 0.012256475 0.028899577 0.07380384
0.030771252 0.06336585 0.025724495 -0.043736845 -0.029288355 0.014657042 0.030813435 0.033832666
-0.05460282 -0.06779025 0.06466027 -0.04638208 0.017352825 -0.009397312 -0.0061234096 0.017021019
0.055811524 0.018074013 0.07838625 -0.058711782 0.06370171 -0.027996616 -0.02702476 -0.068852715
0.046212316 -0.061651915 0.057957962 0.015855275 -0.032221004 0.091929674 -0.026699167 0.0054538385
0.061974537 -0.044416633 0.057763632 -0.0014714084 -0.04016919 -0.06021187 -0.03485208 -0.039262895
-0.011315085 -0.077430785 -0.07716508 0.006015414 0.076886974 -0.020517804 0.05469069 0.07862798
0.07017462 -0.085869744 -0.09963828 -0.07556205 0.043150473 -0.052979127 -0.023315003 -0.049570125
0.07507318 0.029189115 -0.045547172 -0.039750572 0.05829519 -0.0039746673 0.07813099 -0.055755462
0.02812797 0.05538721 -0.08235155 -0.08623645 -0.005865333 0.024821013 -0.03662847 0.07579569
-0.063217774 -0.0020387936 0.044033356 0.013824833 0.07316645 -0.107174635 0.02642047 0.030986454
0.02564233 -0.009548328 -0.006088755 -0.0438256 0.034725312 -0.042743973 0.0158483 -0.031883616
0.0644828 0.102823384 0.025125058 -0.12835622 0.08098587 -0.031330314 0.08347512 0.07911844
0.045079596 0.025632722 -0.0926226 -0.11918998 0.0028124389 0.025000578 0.07378889 -0.009262773
-0.009393823 -0.11196702 0.016643051 -0.0133092385 0.04165644 0.014609506 0.11790025 -0.02790105
-0.031013982 0.038468685 -0.0129498625 -0.01716728 -0.04201083 -0.026310362 -0.058731575 -0.07735495
0.0070014438 0.1008965 -0.025745168 -0.012396532 -0.0055903536 -0.10871804 0.015088425 -0.07350663
-0.04123102 0.06528421 -0.026560962 0.104864724 -0.016942352 -0.030503234 -0.0122115165 0.03499917
0.09426226 0.025195856 0.0018613655 0.02198034 0.011510952 -0.032897398 0.044570442 -0.112233974
0.08676122 0.0852103 0.1412782 -0.054130312 0.037942 -0.0026999298 -0.051479638 -0.016948506
-0.046310972 -0.0040254816 -0.07170763 -0.087880485 -0.07507698 -0.021850333 -0.056859817 0.015164992
-0.037092924 0.005156804 0.07172893 0.055769615 -0.043559693 -0.08198895 -0.018647673 -0.07165108
-0.040814288 0.045591574 0.07571119 0.041885223 -0.06431853 -0.05856854 -0.024743933 0.0013677111
0.03249753 -0.05886633 0.01527398 0.13008866 0.013561199 0.1173069 0.11504884 -0.063787945
-0.0992727 -0.03568378 0.039706126 -0.072058365 0.034384057 0.0756933 0.06299707 -0.033992272
-0.03978095 0.0710303 0.01759192 -0.032357804 0.04083035 -0.0076299296 -0.019396367 -0.047299527
00000000: d7e8 86bc 1194 c33c 2bae f9bc d8f3 5737
00000010: b315 433d aa1c e0bc ef84 b4bd d266 8cbd
00000020: 1d5f 88bc 7ad0 55bd fee8 59bd 4b29 7ebc
00000030: 7062 efbc b8a5 033d 462f 033d d3d2 933d
00000040: 74a9 7cbd 496e 853c f54d 4abd 0e8f b43d
00000050: 2c6f 63bd 522c 003d 24b9 b2bd 6dd4 c3bd
00000060: 18f9 1fbd f3fa c7bd e01f ee3b 73ac f93a
00000070: 607d bf3c 805b a8bd 68dd d53c 5618 1d3d
00000080: 5183 7d3d 9b75 043d cf48 8f3d f70f a13d
00000090: d6b4 b13d d3bb cf3c 1ed1 4dbd 20b8 3ebd
000000a0: 2b28 623c c5cd 653d 8072 ea3c e66c 023e
000000b0: abba 4a3d 784e 68bd 840c f13b 6c46 4e3d
000000c0: 3223 903d ec51 6cbd 808d 8cbd a375 9fbd
000000d0: 4827 ad3c 62cf 483c cebe ec3c 7826 973d
000000e0: fe13 fc3c f4c5 813d 2dbc d23c 6825 33bd
000000f0: 22ee efbc 1724 703c 756c fc3c 1f94 0a3d
00000100: 35a7 5fbd 9dd5 8abd 9b6c 843d 23fb 3dbd
00000110: 8327 8e3c 2ff7 19bc e2a6 c8bb aa6f 8b3c
00000120: a09a 643d f40f 943c f888 a03d c47b 70bd
00000130: 0b76 823d 2959 e5bc 0863 ddbc a702 8dbd
00000140: 2049 3d3d b886 7cbd 5465 6d3d ece2 813c
00000150: 2cfa 03bd a045 bc3d 36b8 dabc 1db6 b23b
00000160: 03d9 7d3d 37ee 35bd 8f99 6c3d 46dc c0ba
00000170: 7388 24bd b9a0 76bd 0ec1 0ebd 21d2 20bd
00000180: e862 39bc 0894 9ebd ba08 9ebd f31c c53b
00000190: eb76 9d3d f414 a8bc 5803 603d b507 a13d
000001a0: b6b7 8f3d 7adc afbd 280f ccbd 47c0 9abd
000001b0: 8dbe 303d a400 59bd 1bff bebc 0b0a 4bbd
000001c0: f8bf 993d 031e ef3c ac8f 3abd 7fd1 22bd
000001d0: f0c6 6e3d ed3d 82bb 2403 a03d d75f 64bd
000001e0: a16c e63c b3dd 623d eea7 a8bd bc9c b0bd
000001f0: fb31 c0bb 7055 cb3c bc07 16bd c53a 9b3d
00000200: 5278 81bd 489d 05bb 525c 343d 8d81 623c
00000210: 4bd8 953d 607e dbbd be6f d83c 4ed7 fd3c
00000220: dd0f d23c 9770 1cbc 2e84 c7bb 7982 33bd
00000230: 213c 0e3d 4e14 2fbd 4bd4 813c 6598 02bd
00000240: 8f0f 843d 1195 d23d 11d3 cd3c d06f 03be
00000250: ebdb a53d 3754 00bd 01f5 aa3d d908 a23d
00000260: 62a5 383d b7fb d13c ebb0 bdbd e019 f4bd
00000270: e550 383b 03ce cc3c a11e 973d e3c2 17bc
00000280: 8de8 19bc f74e e5bd 0257 883c fe0e 5abc
00000290: f19f 2a3d b65c 6f3c b075 f13d be90 e4bc
000002a0: 0911 febc 5791 1d3d a92b 54bc 65a2 8cbc
000002b0: 8c13 2cbd d488 d7bc 8590 70bd 466c 9ebd
000002c0: 5e6c e53b d3a2 ce3d 88e7 d2bc d31a 4bbc
000002d0: 492f b7bb 90a7 debd 7135 773c a58a 96bd
000002e0: dce1 28bd bab3 853d 6096 d9bc 51c3 d63d
000002f0: b0ca 8abc ebe1 f9bc d012 48bc 4a5b 0f3d
00000300: 920c c13d 8a67 ce3c 10f9 f33a 1d10 b43c
00000310: 6f98 3c3c 6cbf 06bd 7f8f 363d edda e5bd
00000320: deaf b13d bd82 ae3d 3cab 103e bfb7 5dbd
00000330: 1269 1b3d 4ef1 30bb 50dc 52bd 98d7 8abc
00000340: 93b0 3dbd 30e8 83bb 73db 92bd affa b3bd
00000350: f6c1 99bd 78ff b2bc d7e5 68bd 9676 783c
00000360: c0ee 17bd 68fa a83b 9ee6 923d ae6e 643d
00000370: a66b 32bd d3e9 a7bd 01c3 98bc cdbd 92bd
00000380: e22c 27bd 3bbe 3a3d 780e 9b3d d78f 2b3d
00000390: 6fb9 83bd 91e5 6fbd cab3 cabc c544 b33a
000003a0: 211c 053d d21d 71bd b73f 7a3c f635 053e
000003b0: cb2f 5e3c 9a3e f03d ba9e eb3d 41a3 82bd
000003c0: 7c4f cbbd 2829 12bd e4a2 223d 5693 93bd
000003d0: 4cd6 0c3d 1705 9b3d 9c04 813d 7b3b 0bbd
000003e0: 59f1 22bd 5578 913d ee1c 903c 9e89 04bd
000003f0: ba3d 273d 7d04 fabb 21e5 9ebc 26bd 41bd

lstm.bias_ih_l0 f4 [512]
-0.023859272 0.01921672 0.0012688959 -0.00524978 0.0010726945 0.13238634 0.038958307 -0.0078056008
-0.026259363 -0.045154158 0.012533948 0.02312142 0.049999006 0.08998837 0.058512945 -0.08853363
0.06301834 -0.05488946 0.05738944 0.066020444 0.011549139 0.021543661 0.0374725 0.026824415
0.011077772 0.12425566 0.07917074 -0.010274014 0.018998541 0.03368596 0.06301777 -0.050766293
0.014671024 -0.006760467 0.0005019076 0.025186524 0.027730923 -0.011583186 -0.016467188 0.1335818
0.03252563 0.013710319 -0.00028620442 0.0781012 0.12876022 0.07692181 0.25059855 -0.047941446
0.079446994 0.01567075 0.114961274 0.13858832 0.044486526 0.12412383 0.056534972 -0.058533646
-0.00084001315 -0.06808899 0.023115762 0.086757526 0.009513606 -0.085497834 0.10890348 0.083297014
0.022097195 0.052406665 0.018635122 0.0615693 0.08969972 -0.026401805 0.0011431966 0.20603222
0.0146990195 0.047673315 0.028785931 0.006693037 0.07301673 -0.0429493 0.02237547 0.061115842
-0.055906177 0.029268125 0.04176278 0.062686376 -0.0079499325 0.1105321 -0.011527819 0.07542099
0.015522206 0.09061937 0.09331936 0.032353282 0.028509814 0.03421117 -0.016475018 0.07809759
-0.07550588 -0.016519776 0.06383733 0.074727915 0.05026317 0.033675496 0.09039606 0.05365225
0.011103246 0.024395438 0.112015426 0.027283747 -0.060771976 0.06752134 -0.0019723803 0.121218845
0.020459238 -0.025746446 -0.036346782 0.008867807 -0.036200084 0.067986116 0.116682656 0.025199503
0.06516537 0.014104305 0.038918003 0.09434333 -0.013465312 0.021815008 0.05374354 -0.026388666
-0.04456215 -0.02839936 -0.0052707857 -0.07106303 0.016272862 -0.10432658 0.078115545 0.07061814
0.0430158 -0.0471277 0.04962596 -0.068824016 -0.10739229 0.058273498 0.029842163 0.03917493
-0.0892918 0.010875192 0.011724313 -0.07358429 -0.03558703 -0.00803278 0.055066776 -0.06713498
0.0746523 0.06473899 -0.0014941911 0.016801536 -0.0025111337 -0.024406662 0.06579837 0.04541652
0.04404093 0.06663577 -0.0042603617 -0.09714941 0.010839317 -0.001081172 0.011565719 0.05815213
0.034083426 0.07529683 0.092432514 -0.03184214 -0.063643694 -0.07041408 -0.21606782 -0.08660886
-0.053282775 0.034343086 -0.07979972 -0.0015236661 -0.09141622 -0.10307268 -0.051530875 -0.02200116
0.02828653 0.00094974675 -0.08218485 0.0073656132 -0.029168416 0.07862935 -0.11051485 0.056980662
-0.060010433 0.06087975 -0.11100006 -0.0821569 -0.061884932 -0.026148217 -0.048141852 -0.0030692492
-0.011552789 -0.06442257 -0.061918266 0.040299255 0.07011328 0.060808428 0.006511778 0.08161524
-0.04994991 -0.090767354 -0.015802305 -0.042068217 -0.035096396 0.031444475 -0.040216375 -0.040326085
-0.06462069 -0.0152118215 -0.0011273965 -0.042550407 -0.040258132 0.030111562 0.009702733 -0.0032220103
0.03317211 -0.050374474 -0.08842142 -0.10444025 0.06530799 0.062111612 -0.0817941 -0.07745498
-0.056148082 -0.095251694 -0.06977697 0.012109983 -0.044526707 -0.049479768 0.046383236 -0.10969126
-0.025243174 -0.054566827 0.08289083 -0.04671234 -0.05101209 0.023881525 -0.025161974 0.07543397
0.05430856 0.008478155 -0.019080581 0.056752805 -0.012262024 0.040295113 -0.070918545 -0.053929213
00000000: 8574 c3bc 626c 9d3c 1551 a63a 5906 acbb
00000010: a899 8c3a 4990 073e bf92 1f3d 20c6 ffbb
00000020: e01d d7bc 91f3 38bd 305b 4d3c 2269 bd3c
00000030: c2cb 4c3d d34b b83d 45ab 6f3d 1f51 b5bd
00000040: c20f 813d c5d3 60bd 3011 6b3d ba35 873d
00000050: 9a38 3d3c 557c b03c c47c 193d e0be db3c
00000060: 8b7f 353c c079 fe3d 4524 a23d 5754 28bc
00000070: d4a2 9b3c 4afa 093d 760f 813d 51f0 4fbd
00000080: bc5e 703c e886 ddbb 7392 033a f853 ce3c
00000090: f62b e33c 67c7 3dbc 32e6 86bc abc9 083e
000000a0: 9839 053d 3fa1 603c b50d 96b9 86f3 9f3d
000000b0: b8d9 033e 2f89 9d3d 744e 803e 405e 44bd
000000c0: 1bb5 a23d f25f 803c d170 eb3d 19ea 0d3e
000000d0: 8137 363d a234 fe3d 3791 673d fac0 6fbd
000000e0: 5434 5cba 3e72 8bbd 445d bd3c eead b13d
000000f0: f5de 1b3c 7d19 afbd ca08 df3d a097 aa3d
00000100: 2d05 b53c 5fa8 563d afa8 983c 1730 7c3d
00000110: 7db4 b73d 9948 d8bc 50d7 953a 1cfa 523e
00000120: 28d4 703c 1845 433d 79d0 eb3c 4451 db3b
00000130: cc89 953d 9beb 2fbd c34c b73c 9b54 7a3d
00000140: e0fd 64bd b5c3 ef3c 730f 2b3d b761 803d
00000150: 6f40 02bc a75e e23d 2ddf 3cbc 5276 9a3d
00000160: da50 7e3c a696 b93d 381e bf3d e084 043d
00000170: 6a8d e93c 0321 0c3d 9ef6 86bc a1f1 9f3d
00000180: d4a2 9abd 7b54 87bc 25bd 823d f30a 993d
00000190: c1e0 4d3d 51ef 093d 9221 b93d 76c2 5b3d
000001a0: 64ea 353c f1d8 c73c 5868 e53d 2a82 df3c
000001b0: 09ec 78bd a148 8a3d 0d43 01bb 9641 f83d
000001c0: 229a a73c 36ea d2bc 5de0 14bd 474a 113c
000001d0: 8a46 14bd 4e3c 8b3d 51f7 ee3d 306f ce3c
000001e0: 6c75 853d be15 673c 7c68 1f3d 1337 c13d
000001f0: 9d9d 5cbc 63b5 b23c 3022 5c3d 0b2d d8bc
00000200: cd86 36bd c6a5 e8bc 8eb6 acbb 7e89 91bd
00000210: aa4e 853c 2da9 d5bd 0bfb 9f3d 3ea0 903d
00000220: 5631 303d fa08 41bd 9744 4b3d 9bf3 8cbd
00000230: 7df0 dbbd 31b0 6e3d 8d77 f43c e475 203d
00000240: 9fde b6bd dc2d 323c 5517 403c 5cb3 96bd
00000250: b5c3 11bd ec9b 03bc b38d 613d 107e 89bd
00000260: 4ee3 983d e095 843d bcd8 c3ba 60a3 893c
00000270: d591 24bb 7bf0 c7bc 4cc1 863d ac06 3a3d
00000280: 4364 343d 5678 883d 819a 8bbb 45f6 c6bd
00000290: 6497 313c 1db6 8dba 247e 3d3c ee30 6e3d
000002a0: 109b 0b3d 3935 9a3d 424d bd3d e76c 02bd
000002b0: a057 82bd 4235 90bd e240 5dbe fc5f b1bd
000002c0: 0a3f 5abd 56ab 0c3d 096e a3bd c0b5 c7ba
000002d0: 6d38 bbbd c517 d3bd 0a12 53bd c73b b4bc
000002e0: 27b9 e73c 6df8 783a 8850 a8bd 3e5b f13b
000002f0: 9af2 eebc 6d08 a13d 9c55 e2bd 8e64 693d
00000300: 80cd 75bd 0b5d 793d 0054 e3bd e041 a8bd
00000310: 0e7b 7dbd c934 d6bc 6430 45bd 7525 49bb
00000320: e947 3dbc fbef 83bd 029e 7dbd d510 253d
00000330: 8d97 8f3d 4212 793d c160 d53b e425 a73d
00000340: 4798 4cbd 3ce4 b9bd d673 81bc b94f 2cbd
00000350: 3dc1 0fbd eccb 003d edb9 24bd f72c 25bd
00000360: da57 84bd 013b 79bc 26c5 93ba 5649 2ebd
00000370: b6e5 24bd 86ac f63c 36f8 1e3c 5d28 53bb
00000380: 7adf 073d 7755 4ebd 4a16 b5bd c5e4 d5bd
00000390: 32c0 853d bf68 7e3d aa83 a7bd b7a0 9ebd
000003a0: 88fb 65bd 5213 c3bd 3ae7 8ebd f368 463c
000003b0: a361 36bd 4cab 4abd 59fc 3d3d d0a5 e0bd
000003c0: c6ca cebc 7781 5fbd abc2 a93d 7055 3fbd
000003d0: 0ef2 50bd 30a3 c33c 7c20 cebc 207d 9a3d
000003e0: a772 5e3d f6e7 0a3c e14e 9cbc a175 683d
000003f0: a8e6 48bc 7d0c 253d be3d 91bd e1e4 5cbd

lstm.bias_hh_l0 f4 [512]
0.011852057 -3.3123022e-05 -0.06651971 0.040319286 -0.02894019 0.015873984 0.05738732 0.023216918
0.0418038 0.04268122 0.03197473 0.008808698 0.04587627 -0.052053113 0.017111247 -0.031580698
-0.07577433 0.056050237 -0.03212229 0.0845891 0.086853355 0.031666312 0.119565584 -0.062242057
-0.09355283 0.041304704 0.05907394 0.09641913 -0.007951727 -0.06216432 -0.032512654 -0.05238993
-0.07849602 -0.0051102336 0.009867053 0.006961928 -0.00074736064 -0.06852941 -0.06278819 0.030533269
-0.038951993 0.033362057 0.0781141 0.13070022 0.1261156 0.032807462 0.35165775 0.06781639
-0.06566052 0.06748683 0.05083166 0.13759583 -0.076811284 0.094674446 0.05260524 0.042831123
-0.020567944 0.036349628 -0.07587614 -0.040464964 -0.026878951 0.056714185 0.09434495 -0.05255824
0.122578315 0.07984375 0.08231753 0.097781196 -0.009610756 0.023302078 0.030815605 0.22449318
-0.0011577851 0.07531091 0.0708445 -0.062563084 -0.069322765 0.040822946 0.04861132 0.024613779
-0.029885847 0.048790686 0.13872564 0.009413767 -0.0326058 0.020500358 -0.037678026 0.07228623
0.087735504 -0.033518884 0.101242945 0.030886073 0.015548035 0.050266813 -0.0048031285 0.058102414
0.04188087 -0.006239685 0.07731471 0.10303084 -0.003581659 0.057584845 0.061986268 0.01665904
-0.059525058 0.13671055 0.2031064 -0.012801563 0.05801313 0.0968881 0.002720372 0.15123217
-0.014607003 0.021803305 0.024626857 0.122718655 -0.04961622 0.058791045 0.102992676 -0.043845102
0.05451355 0.014775615 0.0013618745 0.0060982453 0.029161312 0.08558966 0.033328854 0.05733814
0.047674794 0.030913752 -0.013493451 -0.087896146 0.028417474 -0.07607332 0.022834577 -0.06398726
-0.022308731 0.018931631 -0.06390894 0.07747332 0.054404568 0.05546202 -0.064925216 -0.062496126
0.02480014 -0.040265143 -0.060853556 -0.002914917 -0.023538766 -0.028726362 0.039306074 0.04529236
0.028642586 0.002832365 -0.035068806 -0.059333175 0.09028145 -0.06258942 0.0021263817 0.07359922
0.0286148 0.009787644 0.052812673 -0.0368904 -0.0256673 -0.048478544 -0.082548 0.05528764
-0.032662112 0.013458532 -0.03757731 -0.028250381 -0.08156299 -0.081269294 -0.13595884 -0.0074340887
0.039626766 0.06829943 -0.017252073 0.0057179607 -0.044797834 -0.09991782 -0.052986484 -0.024879351
0.008013123 -0.019173143 -0.07248026 -0.067059316 0.064036794 -0.042983636 0.031482056 0.07317876
0.028240597 -0.0059095225 -0.04322598 -0.055393446 -0.017664589 -0.07208952 -0.011073186 -0.10796617
0.01227008 0.00651661 0.090229884 -0.07422003 -0.056559168 0.008878495 0.017407944 -0.023615027
-0.009089917 0.026729513 -0.011535845 0.03319993 0.055142947 0.0015894697 -0.055471577 0.05574478
-0.059159443 -0.02956648 0.0263429 0.050854586 -0.07963606 0.07188462 -0.009988668 -0.060010403
-0.083030626 0.07912901 0.04549418 -0.046516467 -0.058257364 -0.06788263 0.0066705765 0.084474444
-0.06338525 -0.0018699261 0.06082866 0.06141632 0.06849826 -0.0942344 0.06338126 -0.07921907
-0.010749717 -0.08471754 -0.011696869 0.07478871 0.006610837 0.011959134 -0.08678444 0.0014443516
-0.039983362 -0.09837652 -0.072697945 -0.020070622 -0.007779881 -0.0050532473 0.061324157 0.021495469
00000000: 212f 423c 93ed 0ab8 7c3b 88bd d625 253d
00000010: fa13 edbc 280a 823c f70e 6b3d 6831 be3c
00000020: 763a 2b3d 81d2 2e3d eff7 023d 5b52 103c
00000030: c1e8 3b3d a535 55bd e32c 8c3c c35a 01bd
00000040: 922f 9bbd ef94 653d aa92 03bd 0d3d ad3d
00000050: 2ce0 b13d 89b4 013d cdde f43d 87f1 7ebd
00000060: a098 bfbd 1f2f 293d 84f7 713d 6577 c53d
00000070: f647 02bc 04a0 7ebd fd2b 05bd d396 56bd
00000080: 85c2 a0bd bf73 a7bb 6ba9 213c e320 e43b
00000090: 86ea 43ba 2659 8cbd 1897 80bd e820 fa3c
000000a0: 208c 1fbd a7a6 083d 49fa 9f3d 47d6 053e
000000b0: 7324 013e 1e61 063d 7c0c b43e 52e3 8a3d
000000c0: 0679 86bd 8936 8a3d dc34 503d ece5 0c3e
000000d0: 3c4f 9dbd ade4 c13d 9878 573d b06f 2f3d
000000e0: 1b7e a8bc 59e3 143d f364 9bbd 97be 25bd
000000f0: 3f31 dcbc 224d 683d ed37 c13d 4f47 57bd
00000100: 570a fb3d 1f85 a33d 1896 a83d 8241 c83d
00000110: 6f76 1dbc 00e4 be3c 0271 fc3c 8ae1 653e
00000120: d2c0 97ba 9b3c 9a3d ec16 913d 1321 80bd
00000130: 18f9 8dbd f635 273d aa1c 473d d6a2 c93c
00000140: 2ad3 f4bc bed8 473d 180e 0e3e 333c 1a3c
00000150: a98d 05bd 5ef0 a73c 4654 1abd ce0a 943d
00000160: acae b33d 194b 09bd 7658 cf3d ca04 fd3c
00000170: 2fbd 7e3c 93e4 4d3d 9063 9dbb ccfc 6d3d
00000180: 468b 2b3d 4676 ccbb 2d57 9e3d d501 d33d
00000190: 44ba 6abb 16de 6b3d 50e5 7d3d 8a78 883c
000001a0: 8cd0 73bd dafd 0b3e 20fb 4f3e a6bd 51bc
000001b0: 2d9f 6d3d 456d c63d 4548 323b 9bdc 1a3e
000001c0: 3652 6fbc d89c b23c 43be c93c eb53 fb3d
000001d0: 613a 4bbd e1ce 703d d3ed d23d ec96 33bd
000001e0: 9a49 5f3d 6c15 723c ed80 b23a cad3 c73b
000001f0: b4e3 ee3c a249 af3d d683 083d 66db 6a3d
00000200: a546 433d d63e fd3c a313 5dbc e502 b4bd
00000210: c3cb e83c 54cc 9bbd 940f bb3c c10b 83bd
00000220: cdc0 b6bc 8216 9b3c b1e2 82bd 55aa 9e3d
00000230: 53d7 5e3d 252c 633d 83f7 84bd f0fb 7fbd
00000240: aa29 cb3c 10ed 24bd 9441 79bd 3108 3fbb
00000250: 5fd4 c0bc 8c53 ebbc 68ff 203d 7b84 393d
00000260: dba3 ea3c 339f 393b 4fa4 0fbd 5807 73bd
00000270: 7be5 b83d e22e 80bd c45a 0b3b 30bb 963d
00000280: 9669 ea3c 5b5c 203c 1a52 583d 631a 17bd
00000290: 3b44 d2bc 7091 46bd ed0e a9bd 4b75 623d
000002a0: b5c8 05bd 2d81 5c3c aaea 19bd 586d e7bc
000002b0: 7f0a a7bd 8470 a6bd cb38 0bbe a899 f3bb
000002c0: ad4f 223d 92e0 8b3d 3854 8dbc bb5d bb3b
000002d0: ef7d 37bd b7a1 ccbd 5b08 59bd c8cf cbbc
000002e0: 7949 033c ff10 9dbc 8870 94bd 6556 89bd
000002f0: b925 833d 9c0f 30bd 54f3 003d bfde 953d
00000300: d358 e73c aba4 c1bb ba0d 31bd 3de4 62bd
00000310: 54b5 90bc aca3 93bd 4f6c 35bc 5e1d ddbd
00000320: 7208 493c 4989 d53b 72ca b83d ac00 98bd
00000330: 96aa 67bd 1b77 113c 1b9b 8e3c 4d74 c1bc
00000340: e0ed 14bc daf7 da3c d700 3dbc a6fc 073d
00000350: 92dd 613d c155 d03a 2a36 63bd a354 643d
00000360: 2c51 72bd 6735 f2bc 11cd d73c e64c 503d
00000370: 3b18 a3bd 3e38 933d 83a7 23bc 78cd 75bd
00000380: f60b aabd 640e a23d 1b58 3a3d 0d88 3ebd
00000390: 469f 6ebd 0c06 8bbd da94 da3b f000 ad3d
000003a0: 20d0 81bd 4f18 f5ba 7927 793d ae8f 7b3d
000003b0: d148 8c3d f7fd c0bd 09ce 813d 9c3d a2bd
000003c0: 951f 30bc 6480 adbd 39a4 3fbc d32a 993d
000003d0: b89f d83b 3ef0 433c 0abc b1bd 6650 bd3a
000003e0: 98c5 23bd a179 c9bd a9e2 94bd 256b a4bc
000003f0: 5fee febb b695 a5bb 0a2f 7b3d 4417 b03c

lstm.weight_ih_l1 f4 [512, 128]
0.08969661 -0.0071866345 0.036244664 0.06985746 0.05770117 0.008524794 -0.11044178 -0.031689048
-0.07626306 0.008236655 0.072113246 0.07435986 -0.024075685 -0.037933063 0.031916894 0.081652865
-0.040573515 0.059389528 -0.048315916 0.14598799 0.034322165 -0.044653486 -0.07674044 0.028993176
-0.03383489 0.019142494 0.020661 0.08420476 -0.050847877 -0.02036851 0.027453495 0.06425665
0.048054233 0.0024459434 -0.026830416 -0.032437623 0.030790364 0.035801988 0.041312102 -0.03220637
-0.08224644 0.05908972 -0.04981368 0.07692069 -0.045775205 -0.03056709 -0.024826959 0.046508968
0.08231172 -0.050861564 -0.0059511857 0.057352263 -0.013826756 0.07438058 0.019167686 -0.001710716
-0.017764712 0.061148066 0.07030317 0.030779842 0.039847843 0.06787224 -0.012527071 0.043570828
-0.06952137 -0.0644935 -0.08422581 0.06147754 0.013984268 0.077668175 0.054518633 0.07287159
-0.060778126 -0.04684588 0.07326256 0.026176011 0.018550698 0.07132111 0.059834745 -0.03938627
-0.0075406255 0.054926254 0.1272008 -0.031988677 0.028355027 0.023773426 0.08793927 0.04867768
-0.008680734 -0.06416108 -0.02465118 -0.05911482 -0.053755887 -0.058182854 0.0036346065 0.053225745
0.0101187695 -0.028316455 -0.0050156848 -0.019133907 0.06971734 -0.009682855 0.049747534 0.04347856
-0.0902367 0.008190314 -0.10151508 0.06506783 0.08440244 -0.03259297 0.038580246 -0.022927117
0.0029405348 -0.009661312 -0.062781416 -0.047478613 0.004392519 0.04005841 0.10255965 -0.022016365
0.050208252 0.00969931 0.018020758 -0.054096885 0.04651347 -0.054059487 0.049979094 0.024980161
0.03932068 -0.013583508 -0.09108903 -0.08870168 0.05517714 0.01740203 -0.042494226 0.014991513
-0.07406362 -0.0110885175 -0.029990785 -0.10262388 0.039133493 -0.044089228 -0.056876034 -0.025053943
0.060292523 -0.049913384 0.062424436 0.033130124 -0.009852064 -0.020242143 0.08346733 -0.043408405
0.0014514567 0.05890597 0.05301781 0.07556469 0.056839865 -0.06313318 0.037918627 -0.0018736317
-0.03028253 0.02855407 -0.025161266 0.008054016 0.07120569 -0.07029033 0.06118579 0.07101111
-0.09824509 0.021164928 0.090747826 -0.020119352 -0.031181576 -0.07409999 0.06416893 0.06628862
0.036614034 0.029317461 0.055896666 -0.07187429 -0.093497254 0.0010722041 -0.022965752 -0.021332923
-0.011361548 -0.0053039645 -0.00049670204 -0.054031193 -0.08394786 -0.0060503823 -0.045240015 0.0052460534
0.08667987 -0.051022813 -0.052844353 0.029635035 -0.043421112 0.0067824316 0.08444499 0.058249004
-0.09393643 -0.043888547 -0.004812227 -0.027838655 0.00092629436 0.04519123 0.04677257 -0.013174142
-0.039876077 0.045120474 -0.07334134 -0.056848984 0.029429598 -0.038818114 -0.05501427 -0.039316688
0.033213913 -0.033785403 -0.09730547 0.015248303 -0.037263826 0.041222334 0.055391807 -0.02813824
0.046404127 -0.074249394 0.03838246 0.016332855 -0.037189044 0.0025354247 0.014445808 0.010098397
0.0633729 -0.020697398 -0.07845545 0.008188743 -0.015614783 0.054585613 -0.06773534 0.06837167
-0.078330934 0.027372712 -0.07011567 0.0124372095 0.025312413 -0.063759804 0.04344966 0.028582603
-0.07939959 -0.018713227 0.09043647 0.042634796 0.014950673 -0.050442476 0.07796292 -0.014891994
00000000: dbb2 b73d dc7d ebbb 4975 143d 6e11 8f3d
00000010: 1058 6c3d 94ab 0b3c 4d2f e2bd 60cc 01bd
00000020: cf2f 9cbd 09f3 063c 1cb0 933d fb49 983d
00000030: 5f3a c5bc b35f 1bbd 4abb 023d 9e39 a73d
00000040: 6a30 26bd 6f42 733d e9e6 45bd e07d 153e
00000050: 6695 0c3d 93e6 36bd 182a 9dbd 1983 ed3c
00000060: 7496 0abd b8d0 9c3c 4241 a93c 8c73 ac3d
00000070: dd45 50bd dddb a6bc 27e6 e03c fe98 833d
00000080: 84d4 443d 1f4c 203b 76cb dbbc 50dd 04bd
00000090: 133c fc3c 1ba5 123d e136 293d d4ea 03bd
000000a0: d270 a8bd 1008 723d 6e09 4cbd 9888 9d3d
000000b0: c87e 3bbd d567 fabc e861 cbbc 3080 3e3d
000000c0: 0c93 a83d 3754 50bd 2a02 c3bb 35ea 6a3d
000000d0: 9e89 62bc d854 983d 8d05 9d3c 1b3a e0ba
000000e0: 4d87 91bc 6576 7a3d 1cfb 8f3d 0226 fc3c
000000f0: 7e37 233d 9a00 8b3d 583e 4dbc 5377 323d
00000100: 3861 8ebd 2b15 84bd 957e acbd dfcf 7b3d
00000110: 451e 653c 7e10 9f3d ee4e 5f3d b33d 953d
00000120: 7cf2 78bd 77e1 3fbd ae0a 963d 136f d63c
00000130: a2f7 973c cd10 923d 4715 753d 7f53 21bd
00000140: 5a17 f7bb 5afa 603d ed40 023e 8f06 03bd
00000150: cd48 e83c 7dc0 c23c 8119 b43d 3f62 473d
00000160: a339 0ebc e266 83bd 45f1 c9bc 6222 72bd
00000170: 222f 5cbd 2551 6ebd 9432 6e3b 3d03 5a3d
00000180: 32c9 253c e9f7 e7bc 9d5a a4bb b6be 9cbc
00000190: f7c7 8e3d d6a4 1ebc 12c4 4b3d 9316 323d
000001a0: 05ce b8bd ab30 063c 23e7 cfbd 4842 853d
000001b0: 30db ac3d 3580 05bd 5206 1e3d a6d1 bbbc
000001c0: fdb5 403b 7b4a 1ebc 8b93 80bd ef78 42bd
000001d0: 1fef 8f3b 4a14 243d cb0a d23d aa5b b4bc
000001e0: 2ba7 4d3d dbe9 1e3c 45a0 933c b294 5dbd
000001f0: e984 3e3d 7b6d 5dbd e1b6 4c3d 32a3 cc3c
00000200: b90e 213d 5d8d 5ebc e38c babd 3aa9 b5bd
00000210: 6d01 623d b48e 8e3c 6d0e 2ebd f79e 753c
00000220: abae 97bd 9dac 35bc 3caf f5bc 782c d2bd
00000230: 714a 203d e896 34bd d8f6 68bd ed3d cdbc
00000240: 4bf5 763d fa71 4cbd c4b0 7f3d 74b3 073d
00000250: 8d6a 21bc dad2 a5bc ebf0 aa3d 03cd 31bd
00000260: ce3e be3a 6347 713d 3429 593d a9c1 9a3d
00000270: ebd0 683d f84b 81bd 9050 1b3d a694 f5ba
00000280: 1113 f8bc 3aea e93c 001f cebc fef4 033c
00000290: 4ad4 913d 60f4 8fbd f39d 7a3d 466e 913d
000002a0: b934 c9bd 1262 ad3c ffd9 b93d 57d1 a4bc
000002b0: 8170 ffbc bcc1 97bd 006b 833d 54c2 873d
000002c0: 99f8 153d 2c2b f03c e7f3 643d d432 93bd
000002d0: 7d7b bfbd 3389 8c3a ac22 bcbc 62c2 aebc
000002e0: c925 3abc e1cc adbb 1c35 02ba d04f 5dbd
000002f0: dbec abbd 4942 c6bb 984d 39bd 16e7 ab3b
00000300: 3785 b13d 4cfd 50bd 5273 58bd 2cc5 f23c
00000310: 56da 31bd 293f de3b 7ff1 ac3d 8296 6e3d
00000320: be61 c0bd 7ac4 33bd e3af 9dbb e40d e4bc
00000330: 90d2 723a 701a 393d 9894 3f3d 5bd8 57bc
00000340: 1955 23bd 3fd0 383d fc33 96bd 7bda 68bd
00000350: 5716 f13c beff 1ebd a556 61bd 890a 21bd
00000360: 500b 083d 9062 0abd 1748 c7bd 05d4 793c
00000370: f4a1 18bd c0d8 283d 85e2 623d 2b82 e6bc
00000380: 4112 3e3d 1110 98bd ed36 1d3d 7bcc 853c
00000390: 8a53 18bd 5e29 263b 1cae 6c3c bf73 253c
000003a0: a7c9 813d 978d a9bc 40ad a0bd 142a 063c
000003b0: 26d5 7fbc 2a95 5f3d d3b8 8abd 7206 8c3d
000003c0: f86b a0bd bd3c e03c ce98 8fbd 70c5 4b3c
000003d0: fa5b cf3c 8094 82bd 45f8 313d 1026 ea3c
000003e0: 419c a2bd 7b4c 99bc c236 b93d d3a1 2e3d
000003f0: abf3 743c c59c 4ebd 06ab 9f3d 8dfd 73bc

lstm.weight_hh_l1 f4 [512, 128]
0.07537003 -0.035299733 -0.036698494 0.06612506 0.029100707 0.014984711 -0.06708069 -0.060742743
-0.062310874 -0.036904957 0.06316062 0.08207488 0.0891396 -0.009587317 -0.026332403 -0.029732842
0.07465058 0.078484334 -0.06707218 0.010416047 -0.010020498 0.04572985 -0.034157395 -0.03477076
-0.060145367 -0.014948986 -0.05296498 -0.029643636 0.048068814 0.039618626 0.016819462 -0.040527873
-0.074429356 0.021513956 0.0005092107 0.03616411 -0.007596815 -0.026983006 -0.06377407 -0.06355365
-0.03913327 -0.024190996 -0.055129163 -0.0610779 0.010775189 0.08276267 -0.047367122 -0.024236085
-0.013105029 -0.0831887 0.047901243 -0.060527883 -0.021544201 -0.010117726 -0.070925966 -0.026730033
-0.010295579 0.051367052 -0.064980686 0.03588802 0.025470013 -0.07509356 0.010497039 0.022195928
0.08056424 0.052431036 -0.07143592 -0.0304742 0.03210187 -0.008127656 -0.07521531 -0.06393454
0.001267253 -0.018741963 0.06578442 -0.085533045 -0.035812896 0.047174532 0.046709888 -0.07648928
0.06382807 0.03461954 0.06366929 0.06927927 0.00065607094 -0.07732947 -0.07402745 0.09331005
-0.025012767 0.057713315 -0.08329626 0.033435892 0.03098815 -0.042259853 -0.053574245 -0.0545454
0.025648959 -0.08051615 0.07920979 0.008082353 0.010446373 -0.035633445 0.04437382 -0.050255477
0.02950985 0.060403883 0.05063065 0.05954237 -0.06568018 -0.04485339 0.0791114 0.057720847
0.039218977 0.013285498 0.024746865 0.0069123395 -0.0052077454 -0.022475403 0.073110566 0.08035769
-0.0134678 -0.025368448 0.029091347 0.07473218 -0.0060900184 0.048335634 -0.06298203 0.0077847703
-0.057734583 0.0010039393 0.044080786 -0.019365909 0.015744258 0.067666814 -0.03648313 0.029980984
-0.061603658 -0.040198706 0.084388494 0.0160109 -0.054263722 0.032913733 -0.027774535 0.0022631742
0.08240054 0.043886494 -0.061228737 -0.003227685 0.028782677 -0.06324201 0.068278745 0.035325106
0.036933824 0.033777338 -0.04029076 -0.08494715 0.020629918 0.0017464538 -0.02330282 0.016657768
-0.046805024 0.071125306 0.023915567 0.04466164 -0.05995038 -0.0331067 0.07397753 -0.08643403
0.06756607 0.08320334 0.026442947 -0.021521483 0.08090004 0.10444867 0.085206896 -0.009061826
0.008396978 -0.014733128 -0.025477644 -0.07837668 -0.004995331 0.010006124 0.030873498 -0.06733997
0.05886776 -0.09170924 -0.016416281 0.068981454 -0.0015001773 -0.051766787 -0.031660873 -0.06335031
-0.009769574 0.0860027 -0.07313145 0.06268775 -0.084946506 -0.045206536 -0.0028249593 -0.008793415
-0.07409631 -0.084435396 0.022534817 -0.0749764 0.066546656 0.08163995 -0.036615342 -0.004894975
0.07967724 -0.04427172 0.07485438 0.0059345313 0.015620959 0.05157171 0.06940182 -0.05347149
0.048204977 -0.0002892062 -0.042712696 -0.002684059 0.06982175 0.022689251 -0.043273356 -0.04382143
-0.07226702 0.05009725 -0.038397957 -0.084823504 -0.08431854 -0.029276833 -0.034087352 0.017901853
0.013810639 -0.04524435 -0.05380275 0.076769315 0.08582238 0.024078166 0.071291186 -0.0295811
-0.05910044 0.06276909 0.0630202 -0.05221512 -0.005860386 -0.051561054 0.0080754785 0.062995315
0.0036345774 0.0740574 -0.051312096 -0.020191142 0.03820581 -0.09140131 -0.11759521 -0.057688415
00000000: 9a5b 9a3d 7496 10bd 2951 16bd 936c 873d
00000010: 9b64 ee3c 6f82 753c 9a61 89bd 62cd 78bd
00000020: b039 7fbd a729 17bd 5b5a 813d e016 a83d
00000030: d38e b63d 1f14 1dbc 0db7 d7bc 4a92 f3bc
00000040: 67e2 983d 65bc a03d 245d 89bd 11a8 2a3c
00000050: 042d 24bc 394f 3b3d a0e8 0bbd c96b 0ebd
00000060: fd5a 76bd 97ec 74bc cff1 58bd 36d7 f2bc
00000070: cee3 443d 2447 223d f8c8 893c 8e00 26bd
00000080: 6b6e 98bd 093e b03c 8d7c 053a d120 143d
00000090: b4ee f8bb 770b ddbc fb9b 82bd 6b28 82bd
000000a0: 354a 20bd 322c c6bc 1ecf 61bd d22c 7abd
000000b0: 6b8a 303c 7a7f a93d 0704 42bd c18a c6bc
000000c0: 7ab6 56bc d65e aabd 1834 443d 16ec 77bd
000000d0: 777d b0bc d2c4 25bc a241 91bd f1f8 dabc
000000e0: caae 28bc 4266 523d 9814 85bd 51ff 123d
000000f0: 7da6 d03c a7ca 99bd c6fb 2b3c 3cd4 b53c
00000100: ddfe a43d edc1 563d ff4c 92bd 08a5 f9bc
00000110: 407d 033d dc29 05bc 7c0a 9abd 1df0 82bd
00000120: f419 a63a bf88 99bc fbb9 863d f32b afbd
00000130: 8bb0 12bd 153a 413d de52 3f3d 69a6 9cbd
00000140: 4bb8 823d 38cd 0d3d 0b65 823d 4ae2 8d3d
00000150: 2dfc 2b3a ea5e 9ebd b49b 97bd 5719 bf3d
00000160: 93e7 ccbc cc64 6c3d 3b97 aabd 13f4 083d
00000170: dcda fd3c ab18 2dbd ab70 5bbd ff6a 5fbd
00000180: c41d d23c a7e5 a4bd be38 a23d d86b 043c
00000190: 4427 2b3c 60f4 11bd 53c1 353d b0d8 4dbd
000001a0: a4be f13c 106a 773d 1662 4f3d b3e2 733d
000001b0: 5583 86bd 30b8 37bd 2805 a23d b26c 6c3d
000001c0: 14a4 203d 6bab 593c f0b9 ca3c e880 e23b
000001d0: bca5 aabb 561e b8bc feba 953d 9392 a43d
000001e0: 0ca8 5cbc 7ed1 cfbc fa50 ee3c 2f0d 993d
000001f0: c78e c7bb 96fb 453d b9fc 80bd 6317 ff3b
00000200: 197b 6cbd 9d96 833a 0e8e 343d 41a5 9ebc
00000210: 1afa 803c e694 8a3d 566f 15bd ae9a f53c
00000220: 1e54 7cbd 66a7 24bd e0d3 ac3d 4a29 833c
00000230: a343 5ebd 8dd0 063d 6c87 e3bc c351 143b
00000240: 9dc1 a83d 53c2 333d fcca 7abd 9287 53bb
00000250: a6c9 eb3c 0785 81bd bad5 8b3d 0fb1 103d
00000260: ec47 173d 1b5a 0a3d ed07 25bd c5f8 adbd
00000270: 1300 a93c 44e9 e43a 8ee5 bebc df75 883c
00000280: a0b6 3fbd 25aa 913d 94ea c33c 20ef 363d
00000290: 888e 75bd e49a 07bd 8881 973d 5304 b1bd
000002a0: 1460 8a3d 8366 aa3d e19e d83c d24d b0bc
000002b0: ecae a53d 2fe9 d53d f480 ae3d 0e78 14bc
000002c0: 7a93 093c 3863 71bc 7eb6 d0bc f483 a0bd
000002d0: e0af a3bb baf0 233c 6bea fc3c 8ae9 89bd
000002e0: 521f 713d 0ed2 bbbd 707b 86bc 2646 8d3d
000002f0: 99a1 c4ba 6909 54bd d5ae 01bd cfbd 81bd
00000300: 9010 20bc 2f22 b03d f1c5 95bd 6f62 803d
00000310: 6ff8 adbd 7d2a 39bd f422 39bb 4112 10bc
00000320: cebf 97bd 77ec acbd f09a b83c 3a8d 99bd
00000330: 9d49 883d d932 a73d f8f9 15bd 0766 a0bb
00000340: d22d a33d 4356 35bd 414d 993d 7576 c23b
00000350: 0def 7f3c db3c 533d 8b22 8e3d ec04 5bbd
00000360: 9572 453d 99a0 97b9 82f3 2ebd 0ae7 2fbb
00000370: b5fe 8e3d cfde b93c 673f 31bd 1a7e 33bd
00000380: bb00 94bd c632 4d3d 2d47 1dbd f2b7 adbd
00000390: 33af acbd f8d5 efbc 2e9f 0bbd e8a6 923c
000003a0: 0546 623c 2452 39bd 4660 5cbd 3b39 9d3d
000003b0: a5c3 af3d 933f c53c 1d01 923d 1054 f2bc
000003c0: 4e13 72bd 158d 803d bc10 813d 86df 55bd
000003d0: 7b08 c0bb af31 53bd 034f 043c b003 813d
000003e0: 1732 6e3b 68ab 973d a22c 52bd e567 a5bc
000003f0: b27d 1c3d 9c30 bbbd c2d5 f0bd b04a 6cbd

lstm.bias_ih_l1 f4 [512]
0.026426047 0.043830328 -0.04569611 -0.04429236 -0.04023181 0.02227123 -0.06453399 0.03534787
0.01418958 0.020427983 0.01901253 -0.06754534 -0.061755016 -0.02591814 0.04325723 0.029011922
0.07582161 -0.06155218 -0.061074074 -0.011431905 0.007422194 -0.05675557 -0.002267421 -0.0023050774
-0.035752743 0.05499323 0.023429299 0.04752456 -0.08072309 -0.06604389 0.12894817 0.036660817
0.02239105 0.057509083 -0.0018186878 0.06610811 0.009427053 0.047873925 -0.024642779 -0.03408916
-0.048044555 0.08506608 0.042076644 -0.04307216 0.2164389 -0.052705932 0.04903036 -0.0147062205
0.048993062 0.24625085 0.043445613 0.04513167 -0.0471845 -0.005333996 -0.035253424 -0.0021362265
0.17792976 0.06814565 0.013733958 0.02324801 0.14980993 0.063310705 0.1792245 -0.047360353
-0.021037577 -0.06392144 0.030889511 0.04224977 0.08815732 0.014404059 0.0013339368 0.022875706
0.052416723 0.04175264 0.032673806 -0.038370077 -0.02520576 -0.07315196 0.07359846 -0.05873456
-0.033108648 0.04347116 0.06908865 0.039385326 -0.056893867 -0.021175513 0.03197202 0.052650627
0.06874348 0.011721524 -0.0065876595 -0.016947063 -0.09558037 0.06388002 0.020032132 -0.013091546
0.079068206 0.07271703 0.04146467 0.017285459 -0.001980379 -0.081533335 -0.039174087 0.04686969
-0.035376076 0.0037307632 0.058690093 0.08495552 0.0539096 -0.026149087 -0.08779138 -0.047290202
0.066950694 -0.013606637 0.07288757 0.016926914 0.051910944 0.059106924 -0.00782123 0.09831299
-0.027576586 0.07060418 0.08431824 -0.00093380734 -0.00783613 0.030857705 0.053949676 0.086396664
0.015984574 -0.03734546 -0.08045705 -0.060755823 -0.058441557 -0.031061146 0.03240851 -0.041494057
-0.031170448 -0.016920837 0.05925097 0.08168109 0.033896357 0.08885699 -0.07042469 -0.09310847
-0.022273978 -0.0015315642 0.016214432 0.06432497 0.059182342 -0.0715071 0.0020870646 -0.0526472
0.031943373 0.07195818 0.059154 0.009422851 0.0068125585 -0.024647184 -0.09679441 -0.054698147
0.03341891 0.08613388 0.026914027 0.013574582 -0.009713569 -0.03865977 0.08474494 -0.024310056
-0.040762715 0.038086087 -0.08865133 -3.2287917e-05 -0.06316209 -0.06821428 -0.08840855 0.0739456
0.057015847 -0.07116837 -0.08291905 0.063732654 -0.00074078195 0.030540999 0.00091312145 -0.06502245
-0.04826714 0.049238186 -0.014963182 0.022373699 -0.037429854 -0.09423205 -0.035572253 -0.071188375
-0.034343172 0.08486843 -0.084471114 0.087801196 0.046287414 0.0053799166 -0.02369769 0.068027355
0.08310582 0.0903084 -0.01761119 0.047264732 0.0855787 -0.0024832967 0.030319152 0.056197863
0.05841184 0.0019458784 0.021355622 0.08830532 -0.028772606 -0.08697568 -0.010380889 -0.06444837
-0.009703741 -0.06481423 0.02654369 -0.046050858 0.067399204 0.07241779 -0.056601893 -0.0049058944
0.022395926 -0.0321577 0.046076868 -0.03509821 -0.055300932 -0.08495573 0.006268688 0.011611999
0.05281832 -0.032302387 -0.065966 -0.05931748 0.049510676 0.04810446 -0.036620095 0.045960844
0.07011747 0.018821266 0.013077164 0.041028686 0.059394997 -0.007395811 0.05485619 -0.08245382
-0.020355284 -0.013058587 -0.032756153 0.085269205 0.015570046 -0.08760835 -0.068289265 -0.044645153
00000000: 707b d83c 6e87 333d d82b 3bbd e86b 35bd
00000010: 1cca 24bd 2872 b63c 662a 84bd eec8 103d
00000020: 6a7b 683c 9658 a73c 2ac0 9b3c 3655 8abd
00000030: d4f2 7cbd 4752 d4bc 7e2e 313d 69aa ed3c
00000040: 5c48 9b3d 241e 7cbd cf28 7abd e34c 3bbc
00000050: e035 f33b 8778 68bd 0399 14bb c810 17bb
00000060: 7871 12bd 9540 613d cdee bf3c 1da9 423d
00000070: 2652 a5bd 0542 87bd fd0a 043e a729 163d
00000080: 6f6d b73c a58e 6b3d 0961 eeba b063 873d
00000090: ed73 1a3c 7317 443d a7df c9bc 13a1 0bbd
000000a0: 5eca 44bd 2037 ae3d 8f58 2c3d 6f6c 30bd
000000b0: 29a2 5d3e 2de2 57bd 0fd4 483d 5cf2 70bc
000000c0: f3ac 483d 2f29 7c3e 07f4 313d fcdb 383d
000000d0: 8944 41bd cdc8 aebb e565 10bd efff 0bbb
000000e0: 3833 363e f28f 8b3d 6504 613c 9c72 be3c
000000f0: c667 193e 0ba9 813d a186 373e eefc 41bd
00000100: ff56 acbc 3ee9 82bd 000c fd3c 180e 2d3d
00000110: d38b b43d 01ff 6b3c 7ed7 ae3a d565 bb3c
00000120: ebb2 563d d104 2b3d f8d4 053d f129 1dbd
00000130: 4f7c cebc b2d0 95bd caba 963d a693 70bd
00000140: ef9c 07bd d10e 323d 5a7e 8d3d 8252 213d
00000150: 8b09 69bd 4578 adbc 18f5 023d 2fa8 573d
00000160: 62c9 8c3d a30b 403c 4bdd d7bb 91d4 8abc
00000170: a4bf c3bd 87d3 823d 6d1a a43c ec7d 56bc
00000180: 83ee a13d abec 943d dcd6 293d 3c9a 8d3c
00000190: 3fc9 01bb f3fa a6bd 0275 20bd 6ffa 3f3d
000001a0: 81e6 10bd d27f 743b 0665 703d 29fd ad3d
000001b0: 50d0 5c3d 9c36 d6bc f8cb b3bd 5fb3 41bd
000001c0: 721d 893d 5fee 5ebc 1446 953d 50aa 8a3c
000001d0: 92a0 543d 1a1a 723d 9e24 00bc 5258 c93d
000001e0: 4be8 e1bc ed98 903d 0baf ac3d c0ca 74ba
000001f0: 1d63 00bc 4cc9 fc3c 56fa 5c3d bcf0 b03d
00000200: 15f2 823c 8ef7 18bd aac6 a4bd 19db 78bd
00000210: 6a60 6fbd f273 febc c9be 043d acf5 29bd
00000220: 2b59 ffbc 919d 8abc 25b1 723d 6a48 a73d
00000230: e8d6 0a3d a7fa b53d d23a 90bd a7af bebd
00000240: eb77 b6bc c4be c8ba 21d4 843c cfbc 833d
00000250: 2f69 723d 5072 92bd 22c7 083b 97a4 57bd
00000260: 0ed7 023d cf5e 933d 774b 723d 4d62 1a3c
00000270: e23b df3b e4e8 c9bc 263c c6bd 2a0b 60bd
00000280: 44e2 083d f666 b03d ce7a dc3c ec67 5e3c
00000290: a925 1fbc b559 1ebd c18e ad3d e225 c7bc
000002a0: cef6 26bd 2800 1c3d d48e b5bd e36c 07b8
000002b0: 205b 81bd eeb3 8bbd 8b0f b5bd ca70 973d
000002c0: 7389 693d b9c0 91bd 76d1 a9bd 4486 823d
000002d0: 0931 42ba 1e31 fa3c 8b5e 6f3a 7e2a 85bd
000002e0: c4b3 45bd fbad 493d 2228 75bc 0c49 b73c
000002f0: 0c50 19bd bcfc c0bd 36b4 11bd 36cb 91bd
00000300: 6dab 0cbd 80cf ad3d 31ff acbd 1dd1 b33d
00000310: df97 3d3d 034a b03b a821 c2bc ed51 8b3d
00000320: 6233 aa3d 9cf3 b83d 5845 90bc aa98 413d
00000330: e343 af3d cebe 22bb df5f f83c bb2f 663d
00000340: 4141 6f3d d80c ff3a fcf1 ae3c 6bd9 b43d
00000350: 87b4 ebbc 4e20 b2bd 9b14 2abc 82fd 83bd
00000360: 71fc 1ebc 53bd 84bd 2772 d93c d39f 3cbd
00000370: 9808 8a3d c74f 943d 63d7 67bd a0c1 a0bb
00000380: a977 b73c cbb7 03bd 19bb 3c3d 24c3 0fbd
00000390: 3b83 62bd 45fd adbd 9169 cd3b 4140 3e3c
000003a0: 0658 583d 824f 04bd 2f19 87bd e3f6 72bd
000003b0: b5cb 4a3d 2f09 453d f4fe 15bd 7041 3c3d
000003c0: c099 8f3d 0e2f 9a3c 9a41 563c b20d 283d
000003d0: 2b48 733d 8f58 f2bb e2b0 603d 8cdd a8bd
000003e0: 20c0 a6bc aff3 55bc 512b 06bd 9fa1 ae3d
000003f0: 8219 7f3c 026c b3bd 3edb 8bbd d6dd 36bd
