models/0288.HK_lstm_Close.pth (torch, 809156 bytes, 9 tensors)

lstm.weight_ih_l0 f4 [512, 5]
0	0x3c7431c5	0.014904444
1	0x3d14b663	0.03630675
2	0xbc2968bd	-0.010339913
3	0x3c981fe4	0.018569894
4	0x3d86859e	0.06568454
5	0x3c630f86	0.013858682
6	0xbd37234a	-0.04471139
7	0xbd073909	-0.033013377
8	0x3cda6512	0.026659522
9	0xbc28109c	-0.010257866
10	0xbbeeab40	-0.007283598
11	0x3b8ed98c	0.0043594297
12	0x3c1afb6d	0.009459359
13	0x3d4cb5c1	0.04997802
14	0x3d5219c9	0.051294122
15	0x3db4a007	0.08819585
16	0xbcf239eb	-0.029568633
17	0x3d343d3a	0.044003703
18	0xbc23dee6	-0.010001874
19	0x3dbea9ec	0.09309754
20	0x3cde6b5a	0.027150799
21	0x3d957eb0	0.07299554
22	0xbd278683	-0.040899765
23	0xbd260f07	-0.040541675
24	0x3c4ed71f	0.012624531
25	0xbd3c426a	-0.045961775
26	0x3c78d44b	0.015187333
27	0x3c1ba3b5	0.00949948
28	0x3d3161c7	0.04330614
29	0xbd694f3e	-0.056960337
30	0x3dab3331	0.08359373
31	0x3db81c29	0.08989746
32	0x3e02088a	0.1269857
33	0x3dc17bcb	0.0944744
34	0x3dd497d2	0.1038052
35	0x3d5862b4	0.052828506
36	0x3d41cc08	0.04731372
37	0x3cc0a07c	0.023514025
38	0xbd85f4ac	-0.06540808
39	0xbd72c2d8	-0.05926785
40	0x3cf9b8b5	0.030483583
41	0x3d7dc177	0.06195208
42	0x3d040ac3	0.032236826
43	0x3dbe878d	0.09303198
44	0x3d85e72e	0.06538235
45	0xbdb6ecbf	-0.089318745
46	0x3ce78be4	0.028264947
47	0x3cce39fe	0.025174137
48	0x3d7e6878	0.062111348
49	0xbd7119a1	-0.058862332
50	0xbc90ef3c	-0.0176922
51	0xbd8566d1	-0.06513751
52	0x3d5d036f	0.053958353
53	0x3d37a0c3	0.04483105
54	0x3d631d0e	0.05544763
55	0x3da6129c	0.08109018
56	0x3d15eb53	0.036601376
57	0x3db73fce	0.08947717
58	0x3d2e64c2	0.04257656
59	0xbcc4730a	-0.023980636
60	0x3879a288	5.9517595e-05
61	0x3cbb2188	0.022843137
62	0x3dbe1fb1	0.092833884
63	0x3d78e245	0.060762662
64	0xbca3dbb2	-0.02000222
65	0xbd82e720	-0.0639174
66	0x3dd9c455	0.106331505
67	0xbd24edef	-0.040265974
68	0x3d3fcec4	0.046828046
69	0x3bb190ca	0.0054188715
70	0x3cb3d125	0.021950314
71	0x3c9d6bfe	0.019216534
72	0x3db40218	0.08789462
73	0x3d1105cb	0.035405915
74	0x3dd7f2fe	0.10544394
75	0xbd339d0f	-0.043850955
76	0x3d9d1dd6	0.076717064
77	0xbc983ce9	-0.018583732
78	0xbc90a273	-0.017655587
79	0xbd3a5398	-0.045489877
80	0x3d0d04f5	0.034428556
81	0xbd29b8c6	-0.04143598
82	0x3d3beb4d	0.045878697
83	0x3c8e2c4c	0.017355107
84	0xbd01a102	-0.03164769
85	0x3dd43dbb	0.10363337
86	0xbb959093	-0.0045643537
87	0x3d11a536	0.035557948
88	0x3dc2656a	0.094919994
89	0xbc9aae35	-0.018881897
90	0x3df7612d	0.12079082
91	0x3cba08b8	0.022709236
92	0xbcac51a0	-0.021035016
93	0xbcc60e48	-0.024176732
94	0x3bcebadc	0.0063088965
95	0xbc61e589	-0.013787636
96	0xba9bb3cc	-0.0011879145
97	0xbd73eb16	-0.059550367
98	0xbd77abba	-0.060466506
99	0x3cba6b45	0.022756228
100	0x3da1c1e3	0.07898309
101	0xbc9957b7	-0.018718584
102	0x3d72475f	0.059150096
103	0x3dcde436	0.100532934
104	0x3dbbd230	0.091709495
105	0xbc9c6857	-0.019092722
106	0xbd38e008	-0.045135528
107	0xbcd8081a	-0.02637105
108	0x3db658af	0.08903634
109	0x3b4565c3	0.003012047
110	0xba148870	-0.0005666083
111	0xbcc9b497	-0.024622245
112	0x3db4283c	0.087967366
113	0x3d758bb5	0.059947688
114	0xbc8489fb	-0.016179075
115	0xbd6b19b2	-0.05739755
116	0x3d0c23a7	0.03421369
117	0xbc7c53e8	-0.015400864
118	0x3d63a7e8	0.05558005
119	0xbd83e6dd	-0.06440518
120	0x3b26e0bc	0.0025463542
121	0x3c93b011	0.018028291
122	0xbe02e6b7	-0.12783323
123	0xbde62622	-0.11237742
124	0xbd08240c	-0.033237502
125	0x3d2956ad	0.041342426
126	0xbcc01f9f	-0.023452578
127	0x3daa9874	0.083298594
128	0xbca9e974	-0.020741202
129	0x3b8fad65	0.004384684
130	0x3c6b6251	0.014366702
131	0xbca4e0f4	-0.020126797
132	0x3d54182b	0.05178086
133	0xbd8d4afb	-0.06899067
134	0xbbd8afb9	-0.0066127446
135	0xbc27d47f	-0.010243534
136	0x3c9dff2c	0.019286714
137	0xbcac6ea8	-0.021048859
138	0x3da54b2d	0.08070979
139	0xbbd28c78	-0.0064254366
140	0x3d4bfcf1	0.04980177
141	0xbc3b7ace	-0.011442853
142	0x3d164c9e	0.03669416
143	0xbc92d207	-0.017922414
144	0x3d3f6856	0.046730362
145	0x3d817404	0.06320956
146	0x3d8d6cd2	0.069055215
147	0xbd988094	-0.07446399
148	0x3c43ddb8	0.011954717
149	0xbca90e57	-0.02063672
150	0xbaa619bd	-0.0012672466
151	0x3d6d1065	0.057876963
152	0x3ce7952b	0.028269371
153	0xbbe87d97	-0.0070950496
154	0xbd8a268c	-0.067456335
155	0xbd301ab0	-0.0429942
156	0x3b56e4cf	0.003279019
157	0x3d855b14	0.065115124
158	0x3d85954b	0.06522616
159	0xba2b67b0	-0.0006538583
160	0xbd8c47d7	-0.0684964
161	0xbdb990f8	-0.09060854
162	0xbceba1ae	-0.028763618
163	0xba94e910	-0.0011360962
164	0xbccfdc19	-0.025373505
165	0xbcb23c4a	-0.021757264
166	0x3d4ec3c9	0.050479684
167	0xbdcda282	-0.100407615
168	0xbd7d1d36	-0.061795436
169	0x3d82ab5a	0.06380339
170	0x3d7a68a9	0.061134968
171	0x3d4d79fe	0.05016517
172	0xba3fe59d	-0.0007320287
173	0x3d0303eb	0.03198616
174	0xbcbd39a8	-0.023098782
175	0xbd1dd849	-0.038536344
176	0x3d3e2585	0.0464225
177	0x3d95b363	0.07309606
178	0xbd53b778	-0.05168864
179	0x3cbb7200	0.022881508
180	0x3d2b806a	0.041870512
181	0xbcf19309	-0.029489057
182	0x3de3420c	0.11096582
183	0x39e0bd9f	0.00042865888
184	0x3dd4d628	0.103924096
185	0x3b6cf551	0.0036156962
186	0xbdfeb6c7	-0.12437206
187	0x3cf21a95	0.02955369
188	0xbd87dbfe	-0.06633757
189	0xbd01fcea	-0.03173534
190	0x3bb2d4d6	0.005457501
191	0x3c810b31	0.015752407
192	0x3cfb6483	0.030687576
193	0xbd399c6b	-0.045315187
194	0x3ce6c7f7	0.028171523
195	0x3ddd1a6b	0.107960545
196	0xbc3a4143	-0.011368099
197	0x3ccde3ba	0.025133003
198	0x3de17658	0.110089004
199	0xbd45dcc0	-0.048306227
200	0x3df24091	0.11828721
201	0x3de81ee2	0.113340154
202	0x3ddf59c0	0.1090579
203	0xbca38f14	-0.019965686
204	0x3d952105	0.072816886
205	0x3d787932	0.060662456
206	0x3cb87751	0.022517832
207	0xbcbb71db	-0.022881439
208	0x3c88e2f4	0.016709782
209	0x3c8ae8c5	0.016956696
210	0x3d5553fc	0.052082047
211	0xbd2ecf0c	-0.042677924
212	0xbbef9526	-0.007311481
213	0x3d9df487	0.077126555
214	0x3cbe2fdc	0.02321618
215	0x3bd4c652	0.006493368
216	0xbc193a01	-0.009352208
217	0xbccb4bc9	-0.02481641
218	0x3d1e258a	0.03861002
219	0x3daa4647	0.083141856
220	0xbcccf085	-0.025017032
221	0xbc94eca1	-0.01817924
222	0xbd123517	-0.03569516
223	0xbce91e38	-0.028456792
224	0x3c4b96dc	0.012426104
225	0x3d252ff0	0.04032892
226	0x3daa8e77	0.08327954
227	0x3cc998f3	0.024609065
228	0xbbec5645	-0.0072124326
229	0xbcd8a9a6	-0.026448082
230	0x3cae7625	0.02129657
231	0xbc4c3766	-0.01246438
232	0xbc4a083f	-0.012331068
233	0xbb23cff6	-0.002499578
234	0xb9fb421a	-0.000479237
235	0x3dcf1d1d	0.10112975
236	0x3d66845b	0.056278568
237	0x3dcb620a	0.09930809
238	0x3df21d9a	0.11822052
239	0x3c6a8f97	0.014316461
240	0xbcdbc030	-0.02682504
241	0x3cc70997	0.024296565
242	0x3dbbcfbb	0.09170481
243	0x3bc20128	0.005920548
244	0x3d9dd28c	0.07706174
245	0x3d7bff89	0.061522994
246	0x3db6c0a5	0.08923463
247	0xbd85a521	-0.065256365
248	0x3cb66d2d	0.022268856
249	0x3dab98ed	0.08378778
250	0x3dd8843f	0.10572099
251	0xbc3a7bbc	-0.01138204
252	0x3d839295	0.06424443
253	0x3dafcadb	0.085836135
254	0x3b9895e5	0.0046565407
255	0x3bcb4411	0.0062031825

lstm.weight_hh_l0 f4 [512, 128]
0	0x3d14a5b6	0.036290847
1	0x3d3ebefb	0.046568852
2	0xbc8b1007	-0.016975416
3	0xbda82b16	-0.08211343
4	0x3d8a9d10	0.067682385
5	0xbdb5afb2	-0.08871402
6	0xbd2158ad	-0.03939121
7	0xbd2bbf26	-0.04193034
8	0xbcb61634	-0.022227384
9	0xbd95d48f	-0.07315933
10	0xbd86e26f	-0.065861575
11	0xbc839a08	-0.016064659
12	0x3cb70414	0.022340812
13	0x3d859273	0.065220736
14	0xbc8da7d6	-0.017291944
15	0xbd068856	-0.032844864
16	0x3d3020d0	0.043000042
17	0xbcfee476	-0.031114798
18	0xbd09ecf1	-0.03367323
19	0xbd29297a	-0.04129932
20	0xbdaf77ff	-0.08567809
21	0xbd8cf520	-0.068826914
22	0x3cf82c7b	0.030294647
23	0x3c1eb0e1	0.009685726
24	0x3dac4eaf	0.08413445
25	0x3d415497	0.04719981
26	0x3d9605c0	0.073253155
27	0x3d6c92da	0.057757236
28	0x3da1b0da	0.0789506
29	0xbd885acb	-0.066579424
30	0xbc72a818	-0.0148105845
31	0xbd3394f8	-0.04384324
32	0x3da584db	0.08081981
33	0xbd55a543	-0.05215956
34	0x3c9b61fa	0.018967617
35	0xbc871b28	-0.016492441
36	0x3c6cdc1c	0.014456775
37	0xbd1cbae7	-0.03826418
38	0x3a46f7d2	0.00075900287
39	0x3d2cb11b	0.04216109
40	0x3d4adcac	0.049526855
41	0xbd9f7c37	-0.07787364
42	0xbda88c49	-0.08229882
43	0x3da3d101	0.07998849
44	0x3d0eeb1a	0.03489218
45	0x3bbabbb8	0.0056986474
46	0x3cd1903a	0.025581468
47	0x3dc149d4	0.0943791
48	0x3d98dedb	0.07464381
49	0x3da429e6	0.08015804
50	0xbdc097c9	-0.09403951
51	0x3d89e03f	0.06732225
52	0xbd8f4ae7	-0.06996708
53	0xbc1a4a73	-0.009417164
54	0xbda877df	-0.082259886
55	0x3da50696	0.08057897
56	0x3cf4b6e7	0.02987237
57	0x3d239b4e	0.039943032
58	0x3d01b5e9	0.031667624
59	0x3d7c0a27	0.06153312
60	0xbd5cd7a7	-0.0539166
61	0xbd4a077f	-0.049323555
62	0x3d48eef8	0.049056023
63	0x3c6679f5	0.014067163
64	0xbdd3f03e	-0.10348557
65	0xbcc177db	-0.023616722
66	0x3ba112b2	0.0049155587
67	0x3c5c58b4	0.013448883
68	0xbcada256	-0.021195572
69	0x3cab89c9	0.020939725
70	0x3d91734e	0.07102071
71	0x3d8861d7	0.066592865
72	0x3d8f9e45	0.070126094
73	0xbda3528c	-0.07974729
74	0xbd2f2f74	-0.042769864
75	0xbd39df46	-0.045378946
76	0x3d010e57	0.031507816
77	0xbbd3cad2	-0.006463387
78	0xbd736272	-0.059420057
79	0xbd34dade	-0.04415404
80	0xbd24a135	-0.0401928
81	0xbdab57aa	-0.0836633
82	0x3d58c72d	0.052924324
83	0x3c01f550	0.007932022
84	0xbc906b40	-0.017629266
85	0x3d5bb730	0.053641498
86	0x3b8fa241	0.004383356
87	0x3c6a7ccd	0.014311981
88	0x3db56101	0.08856393
89	0xbd81893a	-0.06325002
90	0x3da41468	0.08011705
91	0xbd13536f	-0.03596824
92	0xbc5f5ebc	-0.013633426
93	0x3d6e5bdb	0.05819307
94	0xbd55d14b	-0.05220155
95	0xbc2c6af7	-0.010523549
96	0xbd66ec90	-0.056377947
97	0x3c807a31	0.015683265
98	0xbccac880	-0.024753809
99	0xbdae3237	-0.085056715
100	0x3d106d4a	0.035260476
101	0xbd87895e	-0.066179976
102	0xbdb20b90	-0.086936116
103	0xbda320a2	-0.079652086
104	0x3d11f509	0.035634074
105	0xbd80755f	-0.06272387
106	0xbd9e0a95	-0.07716862
107	0xbd80672e	-0.0626968
108	0x3d32554f	0.043538388
109	0xbda5e054	-0.08099428
110	0x3cc5523d	0.024087066
111	0x3d525fd7	0.05136093
112	0x3d751f64	0.05984439
113	0x3c521459	0.012822234
114	0xbc44fa32	-0.012022542
115	0xbd078f3a	-0.033095576
116	0xbd96459d	-0.073374964
117	0x3d416d25	0.04722323
118	0xbcd8fcfb	-0.026487818
119	0x3d45f9b5	0.048333842
120	0xbd3c7e0b	-0.04601864
121	0xbc188973	-0.009310114
122	0x3cc67354	0.024224915
123	0xbd96c0cd	-0.073609926
124	0x3d3297b5	0.04360171
125	0xbd763313	-0.060107302
126	0x3d84db49	0.06487138
127	0x3d908e75	0.070584215
128	0xbdb2b44e	-0.08725797
129	0x3c9cfd98	0.019163892
130	0xbd397d6b	-0.045285624
131	0x3b670b57	0.0035254562
132	0xbd15f02c	-0.036606
133	0xbd8c358a	-0.06846149
134	0x3c859a6d	0.016308988
135	0x3d9e3c0f	0.07726299
136	0xbdacf8cd	-0.084458925
137	0x3ca4a6ca	0.020099062
138	0xbd2e3e7e	-0.042540066
139	0x3cbfe424	0.023424216
140	0x39d8fa7d	0.0004138536
141	0xbd44a310	-0.04800707
142	0x3d5cfd55	0.053952534
143	0xbd8c84f0	-0.06861293
144	0x3da8027d	0.082035996
145	0x3d7e8ac6	0.062144063
146	0x3bce2b11	0.006291755
147	0xbd1589a4	-0.036508217
148	0x3d6759f3	0.056482267
149	0x3d398009	0.04528812
150	0xbd21b9eb	-0.039483946
151	0x3d7b5e3e	0.061369173
152	0xbd87402d	-0.066040374
153	0x3d5d9c2a	0.054104008
154	0x3d69601e	0.05697643
155	0x3d9bca05	0.076068915
156	0x3d2e07e6	0.042488
157	0xbc6d7d30	-0.014495179
158	0xbd868b8d	-0.06569586
159	0x3c6604c7	0.014039225
160	0x3d9e8623	0.07740428
161	0xbd86b43f	-0.06577348
162	0xbd8b775f	-0.068098776
163	0x3d6ab4ff	0.057301518
164	0xbd67ece2	-0.056622393
165	0x3d44c11b	0.048035722
166	0x3d761d4e	0.06008654
167	0x3bd46748	0.0064820386
168	0x3da48263	0.08032682
169	0x3be8d726	0.007105726
170	0x3b90fff5	0.0044250437
171	0x3c6dbe6c	0.014510732
172	0x3d369735	0.044577796
173	0x3d06ff00	0.03295803
174	0xbba7418a	-0.0051042484
175	0x3d4b758b	0.049672645
176	0x3da2a5c7	0.07941776
177	0xbdc80897	-0.097672634
178	0x3d53d94e	0.05172091
179	0xbd98da50	-0.07463515
180	0x3dc37ee7	0.09545689
181	0xbd9132c7	-0.07089763
182	0x3d52121c	0.0512868
183	0x3da23003	0.07919314
184	0x3dd15429	0.102211304
185	0xbdb78ef3	-0.08962812
186	0x3ca43a18	0.020047233
187	0xbd1f003b	-0.03881858
188	0x398e0cf4	0.00027094
189	0xbd0def22	-0.034651883
190	0x3d69d523	0.05708803
191	0xbdb98f1f	-0.09060501
192	0x3c8bb6e2	0.017054979
193	0xbd5f120c	-0.05446057
194	0xbca7f52c	-0.02050265
195	0x3b2ac3d4	0.0026056664
196	0xbc2667f1	-0.0101566175
197	0xbc0e1409	-0.008671769
198	0x3d95a076	0.07305996
199	0x3d761c5e	0.060085647
200	0xbd47f3e1	-0.048816565
201	0x3dcc4409	0.09973914
202	0xbd35623a	-0.04428313
203	0x3c736129	0.014854708
204	0x3bce09f9	0.00628781
205	0xbd148bd0	-0.036266148
206	0x3d84eace	0.06490098
207	0xbc937b3d	-0.0180031
208	0x3c145475	0.009053339
209	0xbdc95ead	-0.09832511
210	0xbdb8c957	-0.090227775
211	0xbd9b9a7a	-0.075978234
212	0x3d83ed58	0.06441754
213	0x3d889bbc	0.06670329
214	0xbba30ea5	-0.004976111
215	0xbbcba366	-0.006214547
216	0x3c5d4060	0.013504118
217	0x3bf7de58	0.0075643472
218	0xbcbe018e	-0.0231941
219	0xbd3bc1b1	-0.045839015
220	0x3d749407	0.059711482
221	0x3d0c0b0f	0.034190234
222	0xbc3fac11	-0.011698739
223	0x3cafcca3	0.021459883
224	0xbd4e29c3	-0.050332796
225	0x3d0e4d07	0.034741428
226	0x3d96f7e9	0.07371504
227	0xbc1d898e	-0.009615315
228	0xbd1f23cc	-0.038852498
229	0x3cb7587e	0.022381064
230	0xbbb74179	-0.0055925217
231	0xbd3ddc4b	-0.046352666
232	0xbd589305	-0.052874584
233	0xbdd63493	-0.104592465
234	0xbd6ea11e	-0.058259122
235	0xbd18de4c	-0.037321374
236	0xbdb7e44f	-0.08979093
237	0x3cbfe1cb	0.023423096
238	0xbd8b11b0	-0.06790483
239	0x3c8941c6	0.016754996
240	0x3c6bb523	0.014386448
241	0xbb663c1d	-0.0035131045
242	0xbd430afd	-0.0476179
243	0xbd773373	-0.0603518
244	0x3d363da1	0.044492368
245	0x3d881828	0.066452324
246	0x3c0f855e	0.008759825
247	0x3db018a1	0.085984476
248	0x3d405296	0.04695376
249	0xbc43d591	-0.011952774
250	0xbc7870ac	-0.015163582
251	0x3d7ad3e3	0.061237227
252	0xbd722f5c	-0.059127197
253	0xbce3d4e4	-0.027811475
254	0x3c7cb4ff	0.015424012
255	0x3d97e69e	0.074170336

lstm.bias_ih_l0 f4 [512]
0	0x3dba420e	0.0909463
1	0xbce8645f	-0.028368173
2	0xbbd54cca	-0.006509398
3	0x3d9966c8	0.07490307
4	0x3d3e3957	0.046441402
5	0x3d2b9511	0.041890208
6	0x3da44728	0.080213845
7	0xbbcfafa2	-0.0063380757
8	0x3d063d0b	0.03277306
9	0xbc8465fa	-0.016161907
10	0xbd9e32de	-0.07724546
11	0x3d8582b0	0.06519067
12	0xbbe704b4	-0.007050121
13	0x3c79f943	0.0152571825
14	0x3d8ae106	0.06781201
15	0x3d768bf9	0.060192082
16	0x3d52c292	0.051455088
17	0x3c8d67e3	0.017261451
18	0xbcddd6ad	-0.027079904
19	0x3d2cdf47	0.04220512
20	0xbd7461df	-0.05966365
21	0xbcd8ed09	-0.026480215
22	0x3dba9ea9	0.09112293
23	0xbd669183	-0.056291115
24	0xbbea494e	-0.007149852
25	0xba86247b	-0.0010234261
26	0x3c0a66a6	0.008447325
27	0x3cf908cb	0.0303997
28	0x3c823e42	0.015898827
29	0x3c9da86f	0.019245354
30	0x3d6cd15a	0.05781684
31	0x3c9c8533	0.019106483
32	0xbdb5ee6c	-0.08883366
33	0x3d6ae63c	0.057348475
34	0xbcf49e66	-0.029860687
35	0x3d8d4f84	0.06899932
36	0x3cc8bf50	0.024505287
37	0xbd21b4ad	-0.039478946
38	0xbd2ddd07	-0.042447116
39	0xbd2ef5cc	-0.04271488
40	0x3d07b349	0.033129964
41	0x3dada9cc	0.08479652
42	0xba365fa7	-0.00069570023
43	0xbd8a3e13	-0.06750121
44	0x3bdf53f1	0.0068154265
45	0xbd9ce978	-0.07661718
46	0x3dd04f95	0.10171429
47	0x3d560a4f	0.052255925
48	0x3cb21718	0.021739528
49	0xbd3b17de	-0.04567706
50	0x3d9ca683	0.07648947
51	0xbd015d61	-0.031583194
52	0x3e1f1cf2	0.15538386
53	0xbafdb5f6	-0.0019356597
54	0x3dacdeb8	0.08440918
55	0xbc2f4ae5	-0.010699009
56	0x3dbe2d03	0.09285929
57	0x3dd2b6c5	0.10288767
58	0x3d94d14c	0.07266483
59	0x3bece301	0.0072292094
60	0x3d2f6505	0.04282095
61	0xbd42f041	-0.047592405
62	0xbd219a6e	-0.039453916
63	0x3b99a0bd	0.004688351
64	0xbc9ce42f	-0.019151775
65	0x3d4e236a	0.050326742
66	0xbd0952a5	-0.03352608
67	0x3d0a7693	0.033804487
68	0xbb92dac1	-0.004481644
69	0xbd60c0eb	-0.05487148
70	0x3db8dd16	0.09026544
71	0x3d9dbfb3	0.07702579
72	0x3dda870d	0.1067029
73	0x3b9ea6ac	0.004841646
74	0xbd2ccd79	-0.04218814
75	0xbcbaa598	-0.02278404
76	0xbdad9f40	-0.0847764
77	0x3b935815	0.004496584
78	0xbd9b7718	-0.07591075
79	0x3d92024f	0.071293466
80	0xbd76579c	-0.060142145
81	0xba461c78	-0.0007557343
82	0x3d352db8	0.044233054
83	0xbc6dfa65	-0.014525031
84	0x3d163eee	0.03668111
85	0x3c69a8d3	0.014261442
86	0xbd4d8a80	-0.050180912
87	0x3dd238b1	0.10264719
88	0xbdb315eb	-0.08744415
89	0x3b79be47	0.00381078
90	0xbd35200f	-0.044220027
91	0xbb761836	-0.0037551052
92	0xbcbb0ee4	-0.022834249
93	0xbc735c5d	-0.014853564
94	0x3d22e7cd	0.039771844
95	0xbd244484	-0.040104404
96	0x3c68c326	0.014206683
97	0xbd98aa58	-0.074543655
98	0xbd94c484	-0.07264045
99	0x3efc5f19	0.49291304
100	0xbd78c6dc	-0.060736522
101	0x3c9a3466	0.018823814
102	0x3c843e02	0.016142849
103	0x3d8af682	0.06785299
104	0x3d71c6d5	0.05902751
105	0x3ddc2d73	0.10750856
106	0x3dabc602	0.08387376
107	0x3d14f6e3	0.036368262
108	0x3dc99a42	0.098438755
109	0x3d39537d	0.045245636
110	0x3cfc916c	0.030831061
111	0xbd1e1020	-0.038589597
112	0x3db6149a	0.08890648
113	0x3cad5fc0	0.021163821
114	0xbd000434	-0.03125401
115	0xbdabea44	-0.08394292
116	0xbd8dd25d	-0.06924889
117	0x3bce69d1	0.0062992354
118	0xbc8e8049	-0.017395156
119	0x3d7b121b	0.061296564
120	0x3d92e9fe	0.07173537
121	0x3cef7827	0.029232098
122	0x3d8ab5c3	0.067729495
123	0x3d8f383f	0.0699315
124	0xbd79fa0b	-0.061029475
125	0xbd9794c6	-0.07401423
126	0xbd15f4a7	-0.03661027
127	0x3d324cbb	0.043530207
128	0xbd9fe92e	-0.07808147
129	0xbcd29ed9	-0.02571051
130	0xbcab290f	-0.020893602
131	0xbd88db67	-0.06682473
132	0xbd957240	-0.07297182
133	0xbd88c7c5	-0.06678728
134	0xbc3e1985	-0.011602764
135	0x3cad860d	0.021182084
136	0xbd96e40a	-0.07367714
137	0x3d992bb9	0.074790426
138	0xb832d5d6	-4.2637657e-05
139	0xbdab1495	-0.08353535
140	0xbd62b9a1	-0.05535281
141	0xbda79448	-0.08182579
142	0x3db3e1a7	0.08783274
143	0xbcda1287	-0.026620163
144	0xbcfcb6ac	-0.030848823
145	0x3c78f332	0.015194701
146	0xbd91585e	-0.07096933
147	0xbdc6a718	-0.09699839
148	0x3d4dd134	0.05024834
149	0xbd0f816c	-0.035035536
150	0x3c8c930d	0.017159963
151	0x3cb2da83	0.02183271
152	0xbd667963	-0.056268107
153	0x3d6bc66e	0.057562284
154	0xbd4be40a	-0.049778022
155	0x3dd35528	0.10318977
156	0xbceba42b	-0.028764805
157	0x3bcc622a	0.006237288
158	0xbd879dd8	-0.06621903
159	0x3d0c7205	0.034288425
160	0xbd873e87	-0.06603723
161	0x3d586fe9	0.0528411
162	0xbc332f9e	-0.010936646
163	0xbc38ce84	-0.011279706
164	0xbbb35309	-0.005472545
165	0x3db81554	0.08988443
166	0x3d913859	0.070908256
167	0x3ceba854	0.028766789
168	0xbd95b7d9	-0.07310457
169	0xbd79c2fe	-0.060976975
170	0xbcf4c4b8	-0.029878959
171	0xbbc2ea6d	-0.005948356
172	0x3cd9f296	0.026604932
173	0xbc82235b	-0.015886
174	0xbd827a41	-0.06370974
175	0xbd475b97	-0.04867133
176	0xbcf7a232	-0.030228708
177	0x3d2cbb92	0.04217107
178	0xbdf9e8aa	-0.1220258
179	0x3d78b955	0.06072362
180	0xbdd4629f	-0.10370373
181	0xba8eeea6	-0.0010904863
182	0xbd809e8b	-0.0628024
183	0xbda192d1	-0.07889331
184	0x3cc87484	0.024469621
185	0x3d1a0f2d	0.03761213
186	0xbd9f60a9	-0.07782108
187	0x3d3e2441	0.046421293
188	0x3d3abb89	0.045589004
189	0x3d833ddb	0.06408282
190	0x3d9d62c1	0.076848514
191	0xbd57c80f	-0.052681025
192	0x3dd7f0d5	0.10543982
193	0xbc75a4d6	-0.014992913
194	0x3cefe552	0.029284153
195	0x3d0f19f6	0.034936868
196	0x3d0fc8b0	0.0351035
197	0xbbb84318	-0.0056232326
198	0x3ced320c	0.028954528
199	0x3dacad2a	0.08431466
200	0xbd8d41a6	-0.06897287
201	0xbd9100b7	-0.070802145
202	0xbd93a4db	-0.07209178
203	0x3d78db50	0.060756028
204	0xbd949ee1	-0.07256866
205	0xbc3ef520	-0.011655122
206	0xbcb098d4	-0.02155725
207	0x3d2fac26	0.042888783
208	0x3c807e59	0.015685247
209	0x3d99fa23	0.07518413
210	0xbcaeeb0b	-0.021352312
211	0xbcfecb4b	-0.031102797
212	0xbd3d957e	-0.046285145
213	0x3d03fbe5	0.032222647
214	0x3d09d569	0.03365079
215	0x3dc63fe9	0.09680159
216	0x3b8e54dc	0.004343612
217	0x3d4fb535	0.050709922
218	0x3db0d54c	0.08634433
219	0xbd554235	-0.052065093
220	0x3daa6da4	0.083216935
221	0x3d18af11	0.03727633
222	0x3d8f5663	0.06998899
223	0xbd0ba55c	-0.034093246
224	0x3d40345d	0.046924938
225	0xbd8f46f0	-0.06995952
226	0xbd989ae9	-0.07451422
227	0xbe6353e3	-0.22199969
228	0x3b03526e	0.0020038146
229	0xbd23e4a2	-0.040012963
230	0xbd851278	-0.06497663
231	0x3db7c43d	0.08972976
232	0x3bdda07c	0.006763516
233	0xbdb864e3	-0.090036176
234	0xbc8e6aed	-0.01738497
235	0xbd13c06b	-0.036072176
236	0x3d6b0bac	0.057384178
237	0x3d0c0447	0.034183767
238	0x3d0fec21	0.0351373
239	0x3cb1b033	0.021690464
240	0x3c9912ff	0.018685816
241	0x3c95a8b5	0.018268922
242	0xbd8e0471	-0.06934441
243	0x3d901502	0.07035257
244	0xbda6de78	-0.08147901
245	0xbd884f6a	-0.06655772
246	0xbbd652e0	-0.006540641
247	0xbda06fd7	-0.07833832
248	0xbc0afb78	-0.008482806
249	0xbc31c0b7	-0.010849169
250	0xbd52a3fb	-0.051425915
251	0xbc8f5086	-0.017494451
252	0x3d7f3877	0.06230971
253	0x3cabe06b	0.020981034
254	0xbcaf6b9c	-0.021413617
255	0x3aad78c8	0.0013234848

lstm.bias_hh_l0 f4 [512]
0	0xbda3503d	-0.079742886
1	0xbc0b867b	-0.008515949
2	0x3d856a18	0.065143764
3	0x3c68875c	0.014192428
4	0x3d6bb3e3	0.0575446
5	0x3d63622f	0.055513557
6	0x3e01ebd5	0.12687619
7	0xbcd41ed5	-0.025893608
8	0xbda36de4	-0.07979944
9	0xbd489a9b	-0.04897557
10	0xbd5fb0ac	-0.054611847
11	0x3ccf9bdb	0.025342872
12	0x3d8fbf7f	0.07018947
13	0xbc80c06d	-0.015716756
14	0xbc6db364	-0.014508102
15	0xbd6652aa	-0.05623118
16	0x3c442b5f	0.011973231
17	0x3d52f921	0.05150712
18	0xbcb210a2	-0.021736447
19	0x3cf9d339	0.030496227
20	0xbd356f93	-0.04429586
21	0x3ce91aab	0.0284551
22	0x3da707ec	0.08155808
23	0x3c428cae	0.011874361
24	0x3d6790a9	0.056534443
25	0x3cd6e196	0.026230615
26	0xbd64db7d	-0.055873383
27	0x3d812387	0.063056044
28	0x3d7590bc	0.059952483
29	0xbdac65d2	-0.08417858
30	0xbd455bc7	-0.04818323
31	0x3c639251	0.013889865
32	0x3d9eac17	0.07747667
33	0xbc891ca7	-0.016737295
34	0x3d07934e	0.033099465
35	0xbc827e65	-0.01592941
36	0x3ce7d21f	0.028298436
37	0x3c77f53d	0.015134153
38	0xbd2c179d	-0.042014707
39	0x3d313d41	0.043271307
40	0x3d953e9f	0.07287335
41	0xbd2821d4	-0.041047886
42	0xbc1f942b	-0.009739916
43	0xbca50bf3	-0.0201473
44	0x3a43f01b	0.0007474438
45	0xbc8eb3f3	-0.01741979
46	0x3dbb2075	0.0913705
47	0x3d37ebd3	0.044902634
48	0xbbf8265d	-0.0075729326
49	0x3a12c606	0.0005598966
50	0x3e0bf33a	0.13667002
51	0x3d16f5de	0.03685557
52	0x3e0f40c7	0.13989554
53	0x3d0293c9	0.03187922
54	0x3d83cc9a	0.06435509
55	0x3c35ae5e	0.011088936
56	0x3e162c1b	0.14665262
57	0x3dc28237	0.09497493
58	0xbcc05c3e	-0.023481485
59	0x3d0e6d0b	0.03477196
60	0xbcf935d9	-0.030421184
61	0x3cbb1eb1	0.022841783
62	0xbd92b8fe	-0.07164191
63	0x3da292a4	0.07938126
64	0xbcdde9ea	-0.027089078
65	0x3d90c0a1	0.07067991
66	0x3ca3ec1a	0.020010043
67	0xbc19e7f2	-0.009393679
68	0x3d95ca52	0.0731398
69	0xbbb62e2c	-0.0055597033
70	0x3da46555	0.0802714
71	0x3db5ae37	0.088711195
72	0x3caa0ff1	0.020759555
73	0x3ba041d9	0.004890662
74	0xbd21809d	-0.039429296
75	0x3ba2037c	0.004944263
76	0xbdcca3b0	-0.099921584
77	0x3d50f639	0.051016066
78	0xbd71fc09	-0.05907825
79	0xbb6bbe66	-0.003597164
80	0x3d0d1ad0	0.0344494
81	0x3ce7a133	0.028275108
82	0x3d87d8e6	0.06633167
83	0xbd3bc7de	-0.045844905
84	0x3d886b75	0.06661121
85	0x3ca8081b	0.020511677
86	0xbcaa3787	-0.02077843
87	0x39687b1d	0.00022171107
88	0x3c3bbaed	0.011458141
89	0xbd1f4aa4	-0.038889542
90	0x3d92b187	0.07162767
91	0x3d3f3b97	0.04668769
92	0x3d84a77c	0.064772576
93	0xbd251ffb	-0.040313702
94	0xbd7cf979	-0.061761353
95	0xbd79c90c	-0.06098275
96	0x3d66df22	0.05636514
97	0x3da70b64	0.081564695
98	0x3d83e681	0.064404495
99	0x3ecfc9c0	0.4058361
100	0xbc8f3591	-0.017481597
101	0x3d9c384b	0.076279245
102	0xbd62e48a	-0.055393733
103	0xbcdead2f	-0.02718219
104	0xbcebfcbc	-0.028807037
105	0x3e12b822	0.14328054
106	0x3d8b9c23	0.0681689
107	0xbcf32e0d	-0.029685045
108	0x3dcb0aef	0.09914195
109	0xbcfc6cd6	-0.030813616
110	0xbd736351	-0.059420887
111	0xbdadf1a7	-0.08493357
112	0x3dc96e86	0.09835534
113	0x3c3b6925	0.011438643
114	0x3d384e25	0.0449964
115	0x3d9f00b5	0.07763807
116	0xbd619db5	-0.05508204
117	0xbd17da9a	-0.03707371
118	0x3da0d613	0.078533314
119	0xbd8f27d7	-0.06990021
120	0x3cb85526	0.02250154
121	0xbc34ad4d	-0.011027646
122	0x3dcc1643	0.099651836
123	0xbd28a8d0	-0.041176617
124	0x3dac0b40	0.08400583
125	0xbd887a20	-0.066639185
126	0x3d1dc069	0.038513575
127	0xbda66cf9	-0.08126254
128	0xbba007ab	-0.0048837266
129	0x3d9ddaac	0.07707724
130	0xbd6925e0	-0.056920886
131	0x3d86482d	0.06556735
132	0xbda5e802	-0.081008926
133	0xbd91b728	-0.071150124
134	0xbd814c3a	-0.06313367
135	0xbc2313f8	-0.009953491
136	0xbcf370c3	-0.029716855
137	0xbd330a98	-0.043711275
138	0xbcac3efa	-0.021026123
139	0xbbd2c176	-0.0064317537
140	0x3d7a1522	0.06105531
141	0xbc538f66	-0.012912607
142	0x3d84711b	0.06466886
143	0x3d80d9f1	0.06291569
144	0xbd2ac4ee	-0.041691713
145	0xbdb66e8b	-0.08907803
146	0x3d504e8a	0.05085615
147	0xbd99200c	-0.074768156
148	0x3ca3a526	0.01997621
149	0x3d79166c	0.0608124
150	0x3cae0fc0	0.021247745
151	0xbc33f36c	-0.010983329
152	0xbd8bb40b	-0.0682145
153	0x3d34601b	0.044036966
154	0xbd33b020	-0.043869138
155	0x3d63adba	0.0555856
156	0xb999705d	-0.0002926615
157	0xbcae12eb	-0.021249255
158	0x3c912908	0.01771976
159	0x3babfa9d	0.0052483813
160	0xbcbbc269	-0.02291985
161	0xba285f79	-0.0006422918
162	0x3ca6bfce	0.020355131
163	0x3d03cfa8	0.03218046
164	0xbd471916	-0.04860791
165	0x3bae0059	0.0053101
166	0x3c988ef4	0.018622853
167	0xbd53c2b9	-0.051699374
168	0xbdbd40c5	-0.092408694
169	0xbc8af074	-0.01696036
170	0x3cc2caed	0.023778403
171	0x3ce526b8	0.027972564
172	0xbcead23f	-0.028664706
173	0xbd57f3d0	-0.052722752
174	0xbd0fec6a	-0.03513757
175	0x3d0e148e	0.03468757
176	0xbd01f11a	-0.031724073
177	0x38a241b1	7.736998e-05
178	0xbcced9ec	-0.025250398
179	0x3d731f16	0.059355818
180	0x3ae95fab	0.0017805
181	0x3d2e4ea5	0.04255547
182	0xbd3ae5af	-0.0456292
183	0x3d1a6cbc	0.037701353
184	0xbce61d37	-0.028090103
185	0xbceb438e	-0.028718736
186	0xbdb64745	-0.08900312
187	0xbd902791	-0.07038797
188	0xbd535fc6	-0.05160501
189	0xbdb6ca98	-0.089253604
190	0xbcd35af6	-0.02580021
191	0xbc33b73e	-0.010968981
192	0x3dde0f15	0.108427204
193	0x3d9a1bef	0.07524859
194	0xbd8da0b6	-0.06915419
195	0x3d87913a	0.06619497
196	0xbd72696c	-0.05918257
197	0x3c29277e	0.010324357
198	0x3d31566d	0.043295313
199	0x3cbce13c	0.023056619
200	0x3cab1c24	0.020887442
201	0xbd981926	-0.07426672
202	0xbdab3da2	-0.08361365
203	0x3d5aaba7	0.053386357
204	0x3cf1ce45	0.029517302
205	0x3d27a9cf	0.040933426
206	0xbd235076	-0.039871655
207	0xbd8f0c3e	-0.06984757
208	0xbcdb0ab7	-0.026738508
209	0xbcef0003	-0.02917481
210	0xbd277ca3	-0.040890347
211	0x3d42a25a	0.04751811
212	0xbbcd4471	-0.0062642624
213	0x3c0443f5	0.008072843
214	0x3d208b12	0.039195128
215	0xbc621dda	-0.0138010625
216	0xbc25657c	-0.010094997
217	0x3c1b7bae	0.009489937
218	0xbc106ea0	-0.008815438
219	0xbd657976	-0.056024037
220	0x3ce54420	0.027986586
221	0xbd76ce3f	-0.060255285
222	0x3d9251d2	0.07144512
223	0xbd9b1714	-0.07572761
224	0x3d43c2c9	0.047793183
225	0xbd89c6a3	-0.0672734
226	0xbd9c444b	-0.07630213
227	0xbe04ef3e	-0.12981889
228	0x3d598ff1	0.05311579
229	0x3bd2cc1f	0.0064330245
230	0x3d9968f7	0.074907236
231	0x3d708a10	0.058725417
232	0xbd449c0a	-0.048000373
233	0xbd359657	-0.04433283
234	0x3da42ffa	0.08016963
235	0xbd765bef	-0.06014627
236	0xbca5d11f	-0.020241318
237	0x3d0a9c3e	0.03384041
238	0x3d6a47b3	0.057197284
239	0x3c18fd84	0.009337787
240	0x3da6e89a	0.08149834
241	0xbcf93c76	-0.030424338
242	0x3bd80293	0.0065921037
243	0xbd5fc1cb	-0.054628175
244	0xbd5ae2cd	-0.05343895
245	0xbd881874	-0.06645289
246	0x3d3fcbd6	0.046825252
247	0xbdaed22c	-0.08536181
248	0x3d15f462	0.036610015
249	0x3da9285e	0.082596526
250	0x3db96b98	0.09053725
251	0x3cfbf7d2	0.030757818
252	0xbd85d31c	-0.065344065
253	0xb9941bde	-0.00028249522
254	0x3d1dacb7	0.03849479
255	0x3b0864a8	0.002081195

lstm.weight_ih_l1 f4 [512, 128]
0	0xbda65a1b	-0.08122655
1	0x3dc9d35c	0.09854767
2	0xbd4fb5c3	-0.05071045
3	0xbb905ac1	-0.00440535
4	0xbc658bf6	-0.01401042
5	0x3d66d47c	0.056354985
6	0xbdc5ff06	-0.096677825
7	0xbd4d1316	-0.05006703
8	0xbc114653	-0.008866864
9	0x3d760ebd	0.06007265
10	0xbdba617e	-0.091006264
11	0xbd56a330	-0.05240172
12	0x3b293122	0.002581664
13	0x3d38c035	0.045105178
14	0xbd7de606	-0.061986946
15	0x3d901ab1	0.07036341
16	0xbd120662	-0.03565062
17	0x3b788b2f	0.0037924757
18	0x3d46685d	0.048439372
19	0x3c68d9d0	0.014212087
20	0x3d8528ea	0.06501944
21	0xbdb3e0e9	-0.087831326
22	0xbc832ef8	-0.016013607
23	0x3c127f6e	0.008941514
24	0x3c08d5ec	0.008351784
25	0x3d80a374	0.06281176
26	0xbd0c9982	-0.034326084
27	0xbd0c71e9	-0.03428832
28	0xbc7fd394	-0.015614409
29	0xbda6bdd0	-0.081416726
30	0xbce0a9ae	-0.02742466
31	0x3dc2e7d1	0.09516872
32	0xbd1b19a3	-0.037866246
33	0xbd5dd85c	-0.054161415
34	0x3cf12766	0.029437732
35	0xbbc46a3f	-0.005994111
36	0xbd3380ba	-0.043823935
37	0x3d2cdb75	0.042201478
38	0x3b021d9a	0.001985407
39	0x3d9f216e	0.07770048
40	0x3d57df03	0.052702915
41	0xbc483338	-0.012219243
42	0xbdcc5a34	-0.099781424
43	0x3c863f43	0.016387587
44	0xbd140b75	-0.03614374
45	0x3b9a6763	0.0047120317
46	0x3d298117	0.041382875
47	0xbca4e7de	-0.020130094
48	0x3c13ed9c	0.009028818
49	0xbdb57371	-0.08859909
50	0xbced9b7e	-0.029004809
51	0xbdb91794	-0.090377
52	0x3d7bedd9	0.061506126
53	0xbca83965	-0.02053518
54	0xbd63a27e	-0.055574887
55	0xbd4e781f	-0.050407525
56	0x3c9f2496	0.019426625
57	0xbba1b820	-0.0049352795
58	0xbc334bbd	-0.01094335
59	0xbd0bc805	-0.0341263
60	0xbd45eb19	-0.04831991
61	0xbc976762	-0.018481914
62	0x3cf8fc1d	0.030393654
63	0x3cc9a397	0.024614139
64	0x3c75879f	0.014985948
65	0x3d41da81	0.047327522
66	0x3b4cb54e	0.0031235996
67	0xba0eb291	-0.00054434786
68	0xbcd5a409	-0.026079195
69	0xbd6c75f9	-0.057729695
70	0xbd628d29	-0.055310402
71	0xbb8d84d0	-0.004318811
72	0xbccc744d	-0.0249578
73	0xbd3ba056	-0.045807205
74	0x3c3545ad	0.011063975
75	0xbdd80de9	-0.10549528
76	0x3d8af89c	0.067857
77	0xbc531008	-0.01288224
78	0xba4da9c1	-0.00078454247
79	0xbd09c48d	-0.03363471
80	0xbd963a9c	-0.073353976
81	0x3c44ab89	0.012003788
82	0xbcc445fe	-0.023959156
83	0xbc92ddb3	-0.01792798
84	0xbda95260	-0.08267665
85	0xbd7cf2ee	-0.061755113
86	0x3cdd5ce4	0.027021833
87	0x3db92ae4	0.09041384
88	0x3c5a5883	0.013326767
89	0x3d83f456	0.06443088
90	0x3d5e9c47	0.054348256
91	0xbdc24859	-0.094864555
92	0x3c847bac	0.016172253
93	0xbccd960f	-0.025095968
94	0x3d9f76dc	0.077863425
95	0x3d967432	0.07346381
96	0xbd945a06	-0.07243733
97	0x3c34183b	0.010992105
98	0x3d4c41fe	0.049867623
99	0x3d061358	0.03273329
100	0xbd95526b	-0.072911106
101	0x3d168753	0.03675015
102	0x3d83bd5d	0.064326026
103	0xbc79e7c5	-0.015253012
104	0xbccc4993	-0.024937427
105	0xbd95ce15	-0.07314698
106	0x3d885e12	0.066585675
107	0xbc6eaeed	-0.014568073
108	0x3d244d4e	0.040112786
109	0xbd6b5f58	-0.057463974
110	0x3dc17475	0.094460405
111	0x3cc7b002	0.02437592
112	0x3d14d03c	0.0363314
113	0x3c93c45c	0.018037967
114	0x3d102d05	0.035199184
115	0xbd143a2e	-0.036188297
116	0x3d65f33b	0.056140166
117	0x3cfb7bcc	0.03069868
118	0xbd0b2b4b	-0.033976834
119	0x3da02847	0.07820182
120	0x3daf7b7e	0.08568476
121	0xbd0dbcc0	-0.034603834
122	0xbd59ce4c	-0.053175256
123	0xbcb1f21f	-0.021721898
124	0xbd94ddd0	-0.0726887
125	0xbce9864b	-0.028506419
126	0xbdbd6293	-0.09247317
127	0xbd39f679	-0.04540107
128	0x3d36146b	0.044453066
129	0x3d1b21d2	0.03787405
130	0x3db76b7a	0.089560464
131	0x3d22e19e	0.039765947
132	0xbcba153d	-0.022715205
133	0xbdb8f1d7	-0.09030502
134	0xbe09005b	-0.13379042
135	0xbd486578	-0.048924893
136	0x3d2c234c	0.04202585
137	0xbc32542e	-0.010884328
138	0xbcb00027	-0.021484448
139	0x3acee67a	0.001578524
140	0x3ce11329	0.027474957
141	0xbc374919	-0.011186861
142	0xbdf00612	-0.11719908
143	0x3c800403	0.015626913
144	0x3d327e06	0.043577217
145	0xbbaf0288	-0.005340878
146	0x3d21564d	0.039388943
147	0xbded8c4e	-0.115990266
148	0x3cec2b8d	0.02882936
149	0x3c167afe	0.009184597
150	0x3e033e67	0.12816773
151	0xbcbf186d	-0.023327077
152	0xbd11d4db	-0.035603385
153	0x3cbbfc60	0.02294749
154	0x3d676895	0.05649622
155	0x3e006e8c	0.1254217
156	0xbd2ce351	-0.042208973
157	0xbd6dd8d5	-0.058068115
158	0xbcf21522	-0.029551093
159	0x3c074d24	0.008258138
160	0xbd20806c	-0.039184973
161	0x3d916848	0.07099968
162	0x3d9572c7	0.07297283
163	0x3e06cd08	0.1316415
164	0x3c122aad	0.0089213075
165	0xbcce3a4f	-0.025174288
166	0x3c8d1f7c	0.017226927
167	0xbd16df84	-0.036834255
168	0x3c58a9fd	0.013224122
169	0xbdf9edee	-0.122035846
170	0xbcb36152	-0.021896992
171	0xbd869e0e	-0.06573115
172	0xbcface2e	-0.030615892
173	0xbdd431ed	-0.10361085
174	0xbc888935	-0.016666988
175	0x3d136b12	0.035990782
176	0x3dc24aa0	0.0948689
177	0x3d1f522a	0.038896717
178	0x3e052f49	0.13006319
179	0x3d91f753	0.071272515
180	0x3cb48623	0.022036618
181	0xbc364391	-0.0111245075
182	0x3decfd5a	0.115717605
183	0x3c786253	0.015160161
184	0x3db701f9	0.08935923
185	0x3dc786b5	0.0974249
186	0xbc7241d0	-0.014786199
187	0x3ce04960	0.027378738
188	0xbdbf4f85	-0.09341339
189	0xbd292f17	-0.041304674
190	0x3d6a07ce	0.05713635
191	0xbd050ba3	-0.0324818
192	0xbddf3253	-0.108982705
193	0x3c978fbf	0.01850116
194	0x3d7a170e	0.061057143
195	0x3d60d84a	0.05489377
196	0x3ce8fcd0	0.028440863
197	0xbd010fa2	-0.03150905
198	0xbcec9e1b	-0.028883984
199	0x3da0f0be	0.07858418
200	0xbc6b5116	-0.014362594
201	0x3cf1e3f8	0.02952765
202	0xbd49bd73	-0.04925294
203	0xbd75bbf9	-0.059993718
204	0xbca2969e	-0.01984721
205	0xbd81c969	-0.06337244
206	0x3cb33533	0.021875953
207	0xbcc7e4b5	-0.024401048
208	0xbdaad80d	-0.0834199
209	0x3d0a863e	0.03381943
210	0xbd0ad440	-0.033893824
211	0x3cc7e43e	0.024400827
212	0x3d8e2d2e	0.06942211
213	0xbddba9b6	-0.10725729
214	0xbda54fb3	-0.08071842
215	0xbcc76f8b	-0.02434518
216	0x3d9537e5	0.07286052
217	0x3dd8da2f	0.1058849
218	0x3d20446b	0.03912775
219	0xbdce8370	-0.100836635
220	0x3b48ed1c	0.0030658906
221	0xbd308474	-0.043095067
222	0xbd5caad9	-0.05387387
223	0xbd91b89e	-0.07115291
224	0xbd553266	-0.052050017
225	0xbd1c1ed2	-0.03811533
226	0xbcc61fed	-0.024185145
227	0x3e80f8f7	0.25189945
228	0x3c2ada6f	0.010428055
229	0xbc2a62fc	-0.010399576
230	0x3da02845	0.07820181
231	0x3d925f3e	0.07147072
232	0xbdc86c13	-0.097862385
233	0xba9dac69	-0.0012029532
234	0x3d7a6f6b	0.061141413
235	0x3d55ddcf	0.052213486
236	0xbd79fd6b	-0.061032694
237	0xbd2c2c8c	-0.04203467
238	0x3c153139	0.009105974
239	0xbda4b33f	-0.08042001
240	0xb9d2ef8c	-0.00040232798
241	0xbd5fce18	-0.054639906
242	0xbdce3854	-0.100693375
243	0xbd05922c	-0.032610103
244	0xbc6e69bf	-0.014551579
245	0xbba81bd4	-0.0051302705
246	0x3cafea19	0.021473931
247	0xbbe29256	-0.0069144173
248	0xbdc11310	-0.09427464
249	0xbd2c5be4	-0.04207982
250	0x3d5411ae	0.051774673
251	0x3caa33dc	0.020776682
252	0xbc7532a3	-0.014965686
253	0xbcf9f401	-0.030511858
254	0xbd87f093	-0.06637683
255	0x3d049631	0.032369796

lstm.weight_hh_l1 f4 [512, 128]
0	0xbdaa98fc	-0.08329961
1	0x3d861435	0.06546823
2	0x3d6ce6ff	0.057837483
3	0xbd3bda6a	-0.045862593
4	0xbd78228b	-0.060579818
5	0x3d405684	0.046957508
6	0xbc6c15bc	-0.014409479
7	0xbc9c93f5	-0.01911352
8	0xbd56a211	-0.052400652
9	0xbbdbf147	-0.006712112
10	0xbd3ebd81	-0.046567444
11	0xbd33c51d	-0.043889154
12	0x3d49715f	0.049180385
13	0xbc9479f4	-0.018124558
14	0xbd435d98	-0.04769668
15	0x3d3629c0	0.04447341
16	0x3db9dca9	0.09075291
17	0xbda93f66	-0.082640454
18	0xbd9c9719	-0.07646007
19	0xbdaf9059	-0.08572454
20	0x3c90069a	0.017581273
21	0xbce69295	-0.028146068
22	0x3d445140	0.04792905
23	0x3daa704c	0.083222
24	0xbc6f4aeb	-0.014605264
25	0x3d4c3ab7	0.049860682
26	0xbc1e440f	-0.009659781
27	0x3b9757cc	0.0046186205
28	0xbd8fd01e	-0.07022117
29	0x3ca15a70	0.019696444
30	0x3d8fa27c	0.07013413
31	0x3d5dfe49	0.054197583
32	0x3d072663	0.032995593
33	0xbd80f9f0	-0.06297672
34	0x3d198030	0.037475765
35	0xbd5b6d67	-0.05357113
36	0x3d4491ea	0.047990717
37	0xbd62729a	-0.055285074
38	0x3d9af082	0.075654045
39	0xbdc5b713	-0.09654059
40	0x3d68344c	0.0566905
41	0x3d8f670d	0.07002077
42	0xbb546259	-0.0032407253
43	0xbd2b6d24	-0.04185213
44	0xbb8c0b0b	-0.0042737774
45	0xbc3a708b	-0.011379371
46	0xbd637e97	-0.055540647
47	0xbd933d08	-0.07189375
48	0xbd089e64	-0.033354178
49	0xbd7bd78d	-0.061484862
50	0xbcc11283	-0.023568397
51	0x3c8cb089	0.017174022
52	0xbcdd1581	-0.026987793
53	0xbd3db1c0	-0.046312094
54	0xbd5e495e	-0.054269187
55	0x3c3162ce	0.0108267795
56	0xbb5a8291	-0.0033341984
57	0x3c3304c8	0.010926433
58	0x3b46f563	0.0030358664
59	0xbcc4fa84	-0.024045236
60	0xbc870815	-0.016483346
61	0xbc7589c8	-0.014986463
62	0x3d790202	0.06079293
63	0xbd9d0599	-0.07667083
64	0x3d532cea	0.051556505
65	0xbbcd330c	-0.006262189
66	0xbd8107a1	-0.06300283
67	0x3b06ddca	0.0020578974
68	0x3d722a85	0.05912258
69	0x3db46390	0.088080525
70	0xbad6ef29	-0.001639818
71	0x3c45ddb7	0.012076787
72	0xbd395b7e	-0.04525327
73	0xbd816dd8	-0.06319779
74	0x3d948775	0.07252399
75	0xbd0fceb4	-0.035109237
76	0xbd730910	-0.059334815
77	0xbd62f1de	-0.055406444
78	0xbd85964a	-0.06522806
79	0x3d53b83e	0.05168938
80	0xbc8364f4	-0.01603935
81	0x3da9708a	0.08273418
82	0x3d4ed218	0.05049333
83	0xbd55b34c	-0.052172944
84	0x3d5d1d0e	0.053982787
85	0x3c4ec24d	0.012619567
86	0xbc60dc0c	-0.013724338
87	0xbd0bca93	-0.034128737
88	0x3d540a5e	0.0517677
89	0x3d1c2263	0.03811873
90	0xbd4f044b	-0.050541203
91	0xbcbd2f2b	-0.02309378
92	0xbdbc7083	-0.092011474
93	0x3d78ff9c	0.060790643
94	0xbcf99212	-0.03046516
95	0xbc6c2b54	-0.014414627
96	0xbc5f3eac	-0.013625782
97	0x3c7dd440	0.015492499
98	0x3d8d4428	0.068977654
99	0xbd680a9b	-0.05665074
100	0x3b378adc	0.002800635
101	0xbda46c31	-0.080284484
102	0xbd3f6afd	-0.04673289
103	0x3d14441e	0.036197774
104	0x3d302a3b	0.043009024
105	0x3d2903fd	0.04126357
106	0x3c8ecfba	0.017433036
107	0x3db3e24b	0.08783396
108	0x3ccf2e1a	0.025290538
109	0xbc8ed3dd	-0.017435009
110	0x3d394f3c	0.04524158
111	0x3dab38f5	0.08360473
112	0xbda0af9e	-0.07845996
113	0xbcec8862	-0.028873626
114	0xbda66674	-0.0812501
115	0xbd5c08b4	-0.053719237
116	0x3ce6e097	0.028183265
117	0xbd347c5c	-0.04406391
118	0xbc6a2e76	-0.014293304
119	0x3da54f2b	0.08071741
120	0x3cc3c6eb	0.023898562
121	0xbc9d9e9f	-0.019240675
122	0x3d976d4e	0.07393895
123	0x3dbf867f	0.09351825
124	0xbb3b2fec	-0.00285625
125	0xbb96e882	-0.004605354
126	0xbd52b057	-0.051437702
127	0xbd28368d	-0.04106765
128	0x3c9eec14	0.01939968
129	0xbd40b9b9	-0.04705212
130	0x3c5e9ee5	0.013587688
131	0x3d65ee1a	0.056135274
132	0x3d2f2635	0.042761046
133	0xbd9834ae	-0.07431923
134	0xbdb435e3	-0.087993406
135	0x3c62c60b	0.013841162
136	0xbd1d8f79	-0.038466904
137	0x3d0175e6	0.031606577
138	0x3d72dd04	0.05929281
139	0x3cb1df06	0.021712791
140	0x3cef660c	0.029223464
141	0x3d354830	0.044258296
142	0xbda272dd	-0.07932065
143	0xbdc4879a	-0.095961764
144	0x3d3344d7	0.043766823
145	0x3d2579f2	0.0403995
146	0x3af1c84f	0.0018446537
147	0xbdb6f3db	-0.089332305
148	0xbb56b83a	-0.0032763616
149	0x3d4fa772	0.050696798
150	0xba224e98	-0.0006191521
151	0x39fb168e	0.00047891255
152	0xbcb4d60f	-0.022074727
153	0x3c972704	0.018451221
154	0x3d213fd6	0.03936752
155	0xbd651c4f	-0.0559352
156	0xbcbc648a	-0.02299716
157	0x3cfdbd04	0.030973919
158	0x3cafc79c	0.021457486
159	0xbd1d8298	-0.038454622
160	0xbd969a06	-0.073535964
161	0x3dafe8bc	0.085893124
162	0x3db66431	0.08905829
163	0x3d8b7a4a	0.06810434
164	0xbc993443	-0.018701678
165	0x3cb137ce	0.021633055
166	0x3d99a576	0.07502262
167	0x3d6b321b	0.05742083
168	0xbb09f05e	-0.002104781
169	0xbbfb802f	-0.007675193
170	0x3c67a1ad	0.014137668
171	0x3c6183cb	0.013764332
172	0xbcc4e8e3	-0.02403683
173	0x3d891061	0.06692577
174	0xbd6378e8	-0.055535227
175	0xbc9b7de0	-0.01898092
176	0xbd9b6b61	-0.0758884
177	0xbdc3abab	-0.095542274
178	0xbc11bf70	-0.00889574
179	0x3d654e6c	0.055982992
180	0xbc90dfeb	-0.017684897
181	0xbc4c22a1	-0.012459428
182	0x3c2af2cf	0.010433867
183	0x3d70e84f	0.058815297
184	0xbd2dbdaf	-0.042417224
185	0xbdce655d	-0.10077927
186	0x3dcb8b1f	0.099386446
187	0xbdca3c7a	-0.09874816
188	0xbd8c8019	-0.0686037
189	0xbc6badbf	-0.014384686
190	0x3ce10c28	0.027471617
191	0x3b3b7b63	0.002860748
192	0xbd11a88d	-0.035561133
193	0xbab1de8d	-0.0013570354
194	0xbb4be649	-0.0031112602
195	0xbd6c18d5	-0.05764087
196	0xbbb9b29e	-0.005667045
197	0x39b6b7eb	0.00034850775
198	0x3d678ec4	0.056532636
199	0xbd850155	-0.06494395
200	0xbb577fac	-0.0032882495
201	0xbc51670a	-0.012780914
202	0x3d740724	0.059577122
203	0xbdad4aa7	-0.084615044
204	0xbd37beec	-0.04485981
205	0xbdb22326	-0.0869811
206	0x3d938cd7	0.072045974
207	0x3ccb0d99	0.024786757
208	0x3ce843a1	0.02835256
209	0xbbdbd5cb	-0.0067088357
210	0x3d1e0b7c	0.03858517
211	0xbd8fcc8f	-0.07021438
212	0x3d97deda	0.074155524
213	0xbdafed8c	-0.0859023
214	0xbd1812f2	-0.037127443
215	0x3b4396cb	0.0029844518
216	0x3c9dfb0e	0.019284751
217	0x3c695ccd	0.014243317
218	0x3a4eec3e	0.0007893479
219	0xbc0dc254	-0.0086522885
220	0xbd7f5b60	-0.062343
221	0x3938dc9c	0.00017629791
222	0x3c95e2d8	0.018296644
223	0xbbaab0d7	-0.0052090692
224	0xbbaab0a6	-0.0052090464
225	0x3d878574	0.06617251
226	0xbdc98f07	-0.098417334
227	0xbd91fbcc	-0.071281046
228	0x3d9b9d95	0.07598416
229	0x3dab5395	0.083655514
230	0x3dce5acb	0.10075911
231	0xbc9cc25c	-0.019135647
232	0xbd8da513	-0.06916251
233	0xbcfc0a57	-0.03076665
234	0x3d5ff18e	0.054673724
235	0x3d12d945	0.035851736
236	0xbc1fcc72	-0.009753333
237	0x3d164b81	0.0366931
238	0xbcc9cd2a	-0.024633963
239	0xbd76ebec	-0.060283586
240	0x3d5a9ea1	0.053373937
241	0x3cd5e5fc	0.026110642
242	0xbcc40136	-0.023926359
243	0x3d84153c	0.06449363
244	0xbb96dafa	-0.0046037408
245	0x3d3f9043	0.046768438
246	0xbd54581d	-0.051841844
247	0x3d595269	0.053057108
248	0xbd5adea0	-0.053434968
249	0xbd02198b	-0.03176264
250	0x3cea6197	0.028610988
251	0x3d6e3542	0.05815626
252	0xbdc697a5	-0.09696893
253	0xbbff2250	-0.007786073
254	0x3d20f189	0.039292846
255	0x3d79b129	0.06095997

lstm.bias_ih_l1 f4 [512]
0	0x3dbd2d4f	0.092371576
1	0xbc2bc3b1	-0.010483668
2	0xbd6e0776	-0.058112584
3	0x3d564f27	0.05232158
4	0x3d66a738	0.056311816
5	0x3dfbae26	0.122890756
6	0x3cff0998	0.031132504
7	0x3cffb831	0.031215759
8	0xbd4aedac	-0.049543068
9	0xbcce30df	-0.025169788
10	0xbac70fc4	-0.0015187194
11	0xbd6a3cb9	-0.057186816
12	0x3dc8321e	0.09775184
13	0xbd84de9c	-0.06487772
14	0xbcedfc60	-0.029051006
15	0x3d5eef37	0.05442735
16	0x3d457067	0.0482029
17	0x3db7f962	0.08983113
18	0xbd701a0f	-0.0586186
19	0x3deca30a	0.11554535
20	0xbd9da19a	-0.07696839
21	0x3cf9364e	0.030421402
22	0x3cdd73bf	0.027032731
23	0xbd9a4d71	-0.07534302
24	0x3ccff01e	0.025383051
25	0x3d4d1186	0.05006554
26	0x3db37a89	0.08763606
27	0x3d6dbc3a	0.058040835
28	0x3d097b19	0.03356466
29	0xbc5d6c7e	-0.013514636
30	0x3d86f392	0.06589426
31	0x3d78f17a	0.060777165
32	0x3db0466e	0.086071834
33	0xbc445d5e	-0.011985151
34	0x3dbd99f1	0.092578776
35	0xbc0d1c27	-0.008612669
36	0xbc657818	-0.014005683
37	0xbcce88f9	-0.025211798
38	0x3bedf15b	0.007261438
39	0x3d82ab5f	0.06380343
40	0x3de21eb0	0.110410094
41	0x3da1ccd3	0.07900395
42	0xbce92d6c	-0.028464042
43	0xbd4902b2	-0.049074836
44	0x3ca878d3	0.020565426
45	0x3d5f2776	0.054480992
46	0x3cb8c414	0.022554435
47	0x3dbea4d1	0.0930878
48	0x3daf4b09	0.08559234
49	0x3d69e892	0.057106562
50	0x3d48b5e7	0.0490016
51	0x3dc0faad	0.094228126
52	0xbcf4e71c	-0.029895358
53	0x3dae2b4b	0.08504351
54	0x3daee3b2	0.08539523
55	0xbd620568	-0.055180937
56	0xbd4bae27	-0.04972663
57	0xbd28f921	-0.041253213
58	0xbdcb2d7a	-0.09920783
59	0xbda75170	-0.0816983
60	0x3c22be65	0.009933089
61	0x3a8487af	0.0010111238
62	0xbda3e3a8	-0.08002406
63	0x3d8559c9	0.06511266
64	0x395e7b00	0.00021217391
65	0x3d8112a2	0.06302382
66	0x3d4dc9fb	0.05024145
67	0x3d566450	0.05234176
68	0x3d74c520	0.059758306
69	0xbcf15d2e	-0.029463377
70	0x3c6c4a00	0.01442194
71	0xbd429c08	-0.047512084
72	0xbd00828f	-0.03137451
73	0xbd0c57c1	-0.034263376
74	0x3b0b84a7	0.0021288784
75	0x3d23011b	0.039795976
76	0x3cca9b24	0.02473218
77	0x3d08f6db	0.033438545
78	0x3d5eee3f	0.054426428
79	0x3c537818	0.012907051
80	0x3c0cdb43	0.008597198
81	0xbd0fe52f	-0.035130676
82	0xbc90d6e6	-0.017680597
83	0x3cdb9007	0.026802076
84	0x3e26b33f	0.16279314
85	0xbd4ee6a4	-0.050512925
86	0x3d322a4d	0.043497372
87	0x3d9f1665	0.07767943
88	0xbd536102	-0.051606186
89	0x3c3695ec	0.011144143
90	0x3d3d61f1	0.046235982
91	0x3ca12bcc	0.019674204
92	0x3d64583f	0.05574822
93	0x3ca72640	0.020403981
94	0xbc7f6ff8	-0.01559066
95	0x3d3450ce	0.044022374
96	0x3d026cf4	0.031842187
97	0x3d881bb9	0.06645913
98	0x3d2a331c	0.041552648
99	0x3d9fe7d5	0.0780789
100	0xbbeb5621	-0.007181898
101	0x3d6bb7d5	0.057548363
102	0x3d4c9f5a	0.049956657
103	0xbd9944f9	-0.074838586
104	0xbd329bf4	-0.04360576
105	0xbd637c4f	-0.05553847
106	0x3ce7861c	0.02826219
107	0x3d3075fc	0.04308127
108	0x3da31554	0.079630524
109	0x3d38bb13	0.045100283
110	0xbcb3c35e	-0.021943744
111	0x3db4d32b	0.088293396
112	0xbdb405c2	-0.08790161
113	0xbbae5dae	-0.005321226
114	0x3c592e6a	0.013255695
115	0xbd434e25	-0.047681946
116	0xbc5d3a7a	-0.013502711
117	0xbd98918d	-0.074496366
118	0x3dece7bf	0.115676396
119	0xbd9a7879	-0.075425096
120	0xbd87cdc5	-0.06631044
121	0x3db73141	0.08944941
122	0x3d11b157	0.035569515
123	0xbca61135	-0.020271877
124	0x3cd6ce5c	0.026221447
125	0xbd1af9ce	-0.03783589
126	0xbcde5ef2	-0.027144883
127	0x3d4eb3a3	0.050464284
128	0x3d11a730	0.035559833
129	0xbb85a12b	-0.0040780506
130	0xbb87a89c	-0.004139973
131	0xbd6a6f61	-0.057235125
132	0xbda9593a	-0.08268972
133	0x3d13185b	0.0359119
134	0x3d74f82f	0.059807
135	0x3d1ebe94	0.03875597
136	0xbd7896fd	-0.06069087
137	0x3d9802d6	0.07422416
138	0x3d716df8	0.058942765
139	0x3c498078	0.012298696
140	0xbdbc1d6c	-0.09185299
141	0x3c636eb3	0.013881373
142	0x3d8f320f	0.0699197
143	0xbd01d6f7	-0.031699147
144	0xbd970377	-0.07373708
145	0xbe05ac7b	-0.13054077
146	0xbd021557	-0.031758633
147	0x3bddec56	0.006772558
148	0x3b831c7b	0.004001198
149	0xbd2529a8	-0.04032293
150	0x3cac3263	0.02102012
151	0x3d93efb9	0.07223458
152	0x3d5ad474	0.053425267
153	0xbc8a1269	-0.016854482
154	0xbdbfa8e3	-0.093583845
155	0x3db54118	0.08850306
156	0x3dbb1abc	0.091359586
157	0xbcffaf69	-0.031211572
158	0xbdb67fd5	-0.08911101
159	0x3ce7f8a4	0.028316803
160	0x3d271f6a	0.040801443
161	0x3c6cb74f	0.014448001
162	0x3c98c3b1	0.018648
163	0x3d307a2c	0.043085262
164	0xbda3f92a	-0.08006509
165	0xbd1e5312	-0.03865344
166	0x3d7e88b2	0.06214208
167	0xbda663bd	-0.08124492
168	0x3baf3ab7	0.0053475755
169	0xbd99d01e	-0.07510398
170	0xbd30f99d	-0.0432068
171	0xbc877c79	-0.016538845
172	0x3d42401f	0.047424432
173	0x3b6ea1a0	0.0036412254
174	0xbb124003	-0.0022315986
175	0x3d972311	0.07379735
176	0x3d933734	0.071882635
177	0x3d9d2fb2	0.07675113
178	0x3d95457b	0.07288643
179	0xbcf2095d	-0.02954548
180	0xbda29ec2	-0.07940437
181	0xbd086f04	-0.033308998
182	0xbd9161ef	-0.070987575
183	0x3d40bda6	0.047055863
184	0x3c8fb095	0.017540256
185	0xbdc779a6	-0.097399995
186	0x3d0a3483	0.033741485
187	0x3d029d67	0.03188839
188	0xb95f3bef	-0.00021289264
189	0xbdcd8b7e	-0.10036372
190	0xbdb84a8f	-0.08998596
191	0xbd0e5bb8	-0.03475544
192	0x3d9fc9ea	0.07802184
193	0x3cb98b33	0.022649383
194	0x3d17c665	0.03705444
195	0xbc37d931	-0.011221216
196	0xbdb93442	-0.090431705
197	0xbd981edb	-0.0742776
198	0x3d670a21	0.056406144
199	0x3d02543d	0.031818617
200	0xbb92f6ca	-0.004484986
201	0xbcbaece3	-0.022818035
202	0xbd3215d6	-0.043477856
203	0x3cc00d2c	0.02344378
204	0xbd0caea5	-0.03434624
205	0xbd8e3d2c	-0.06945261
206	0xbd85f881	-0.06541539
207	0xbca1437e	-0.019685503
208	0xbbcf6909	-0.00632966
209	0x3d5a83f2	0.05334849
210	0x3d4cb917	0.049981203
211	0x3d0ec63a	0.034857012
212	0xb85a9bf1	-5.2120482e-05
213	0x3d3e48c1	0.046456102
214	0x3b9ae2b6	0.004726733
215	0x3cada514	0.02119688
216	0xbd568031	-0.052368347
217	0xbcf6f4e1	-0.030146064
218	0x3cbeb510	0.023279697
219	0x3c3ab51c	0.011395719
220	0x3db97a3b	0.09056517
221	0xbce33593	-0.027735507
222	0xbd34aa7a	-0.04410789
223	0x3d0968e8	0.033547312
224	0x3c28545c	0.010274019
225	0x3d8de220	0.069278955
226	0xbb6796ae	-0.0035337615
227	0x3ca0e1c0	0.019638896
228	0x3cd3def7	0.025863154
229	0xbbc55a78	-0.0060227476
230	0x3d6e8c48	0.05823925
231	0xbdc55df4	-0.09637061
232	0xbd9338c0	-0.071885586
233	0x3ce72e64	0.028220363
234	0x3d8971a6	0.0671113
235	0x3d863cf0	0.06554592
236	0xbd911dcf	-0.07085764
237	0x3d026a2f	0.031839546
238	0x3d182ff6	0.037155114
239	0x3ca46573	0.020067906
240	0xbda9021b	-0.08252355
241	0x3cb09d96	0.021559518
242	0xbd5b2e96	-0.053511225
243	0x3d45c7f1	0.048286382
244	0x3c5f0052	0.013610916
245	0xbcb24d8f	-0.021765498
246	0xbd4db089	-0.050217185
247	0x3cd6ac3c	0.026205175
248	0x3d65073f	0.055915114
249	0xbd946e18	-0.07247561
250	0x3d90c237	0.070682935
251	0xbcbb70b0	-0.022880882
252	0xbd8b173c	-0.06791541
253	0x3d6a604b	0.05722074
254	0xbc1e8062	-0.009674164
255	0xbd91356a	-0.07090266
