models/2318.HK_lstm_SMA50_diff.pth (torch, 807217 bytes, 9 tensors)

lstm.weight_ih_l0 f4 [512, 4]
00000000: d4f4 293d 2943 d03d 4dbe 0b3c befd b73d
00000010: 53a6 7f3d 9877 d23c 673b fa3d ebf5 813c
00000020: 95a2 fd3b 894f 993d f24c 333d bd88 e8bc
00000030: fc4e a83d 99d3 323d f39d 8f3d 422f 01be
00000040: 41a2 383d ee0d c23d 96f4 2fbd 584e 8c3d
00000050: f4b5 10bc 8986 82bb 72c0 00bd aa7d 2abd
00000060: 3ac7 f9bc 7c04 82bd d011 b8bb 2387 cf3b
00000070: 6d98 393d 5318 7dbc 3d06 86bd 4879 363d
00000080: 9a8b 663d ff42 84bd 8742 3ebd f9c5 ba3d
00000090: d11e a03d 34ee b1bc 4c69 debc 99eb b43d
000000a0: 4caf 403d b985 953d dc0f b93d 1996 453d
000000b0: 5178 28ba 2624 bf3d ed18 1ebd ae5c abbb
000000c0: f2d1 2d3e 990a f83d c2b8 1a3e a759 223c
000000d0: ae72 993d 2607 a03d 65b3 573d 47ef ca3c
000000e0: 126d b23d f82e 27bd 805b c93d 7f48 853c
000000f0: 753d b63d 3599 2fbc ceed 793d 8a4a eebc
00000100: b0cb 733d 45a8 24bd f22f 9f3d 8887 893d
00000110: 9ed7 923d 7620 a23d 9ac9 a33d 3b41 2a3d
00000120: e18c 42bd 5acf a73d 50a6 ab3d 71e0 b6bc
00000130: 3717 e23c 0458 5bbc 1e5b bdbc 3a02 b83d
00000140: fddf b0bc b84c 463d d4f3 023e ae67 27bc
00000150: f767 0b3d 3236 9f3b d1db 283d 8bbc 653c
00000160: 78f7 523d dce2 273d d21e bc3d 6ff0 63bc
00000170: 3267 60bd 3b40 35bd b722 b53d 68e2 983d
00000180: 4e51 1dbd cdee b63d c461 8bbd b5ac e13c
00000190: 09c8 9d3c 1ad3 b6bc 4db1 32bd fa17 86bb
000001a0: 5c47 4cbb 6793 833d 4d94 043d ae6d ab3d
000001b0: 5492 093e aa66 543d 5506 5e3c 56ab ffba
000001c0: 6442 773d 39c0 073e f086 443c e63c c5bc
000001d0: a7f3 c03d 9088 2d3a 8933 5dbd aed7 803c
000001e0: 3308 cabc bf49 d7bd e369 9abd 91d9 e23b
000001f0: 25f6 0fbd 4c51 b13c 9439 343c af64 92bd
00000200: e1e6 8abd 4d96 d6bc 62c1 b83d babf b8bc
00000210: aeec 9a3d 1da6 a33c 232b 453d 7320 1d3d
00000220: 487c 813d c070 b03c 7be0 52bd f170 c23d
00000230: 6b3c d93c 8f85 fabb 80ca 6d3d 225a 6fbd
00000240: 1d4a 5dbd 0e3c 73bc 65b5 9ebd 62e6 5c3d
00000250: 7396 593b 3509 3fbd 9bd6 383d 14fb cdbc
00000260: 8c56 b73c 2b76 a7bc e4af eebc 8533 473d
00000270: 0cc9 9c3d e74b 27bd d565 1ebd c401 29bd
00000280: c804 e3bd 758e 51bd b020 84bd 0192 1dbd
00000290: 732b bbbd 53c3 febc 2d70 913d 6b85 edbb
000002a0: 93db 7c3d af29 a63d 057f 9d3d 173d a63d
000002b0: 0e23 d1bc 1fa8 da3d 6ce0 903d df37 713d
000002c0: 5ebb efbd 2ba5 9abd 19ac 93bd 7785 91bd
000002d0: 7f14 24bb 4489 603d d870 8bbc e811 9e3c
000002e0: 9717 163d d088 893d ce40 85bb 1780 20bb
000002f0: b5be 163e d1a6 433e 7909 133e 5cdf 653d
00000300: 8712 1ebd 7ab8 d73c 07a3 81bd 2850 40bd
00000310: 169e 2b3e a8f9 fb3c 2c82 df3c c7c7 bb3c
00000320: 0d29 3e3d 480c 3e3d fa44 66bc 10d2 fb3a
00000330: e506 6e3d b3d5 a43b 5570 ee3d d76d c3bc
00000340: e457 b9bd ec55 4b3c 98ae 363d 7a2b 423d
00000350: 2719 9e3e 3f67 873e 406f 813e c003 a13e
00000360: 940a 853d 94cf a33d 84ea 943c e343 643d
00000370: 1f9f 5b3d f647 c63d 115e de3a 41f5 8d3b
00000380: 5080 823d 487c 4e3c 623b 0bbd dac2 833d
00000390: b0a3 a33d d0bb 9e3d 0f3e c3bb 25b8 0a3d
000003a0: fe5e 8fbd 9f21 a3bc 29d5 093d 3de4 ed3d
000003b0: 6c37 3cbc 42ca 3e3d 85bf 763d 2628 ec3c
000003c0: a18a febc d638 953b 91da 22bd a42d 7abc
000003d0: 9cd2 a3bd 4997 9ebb 3ae4 18bd f9d2 f23b
000003e0: f655 cb3d dc3b d33c c691 8f3c dbcc 893d
000003f0: a174 163d 721d 49bd b30e 40bd e603 f63c
0.041493252 0.1016906 0.008529258 0.08983944 0.06241448 0.025691792 0.12218361 0.015864333
0.0077403286 0.07485873 0.043774553 -0.028385514 0.0821819 0.043658827 0.07012548 -0.12615684
0.045076612 0.09475313 -0.042957865 0.068508804 -0.0088324435 -0.003983323 -0.03143353 -0.04162375
-0.030490506 -0.063485116 -0.005617358 0.006333248 0.04531138 -0.015447694 -0.065441586 0.044549257
0.05628548 -0.06458091 -0.046450164 0.091197915 0.07818378 -0.02172003 -0.027149819 0.08833999
0.047042176 0.07300896 0.09036228 0.048238847 -0.000642662 0.09333067 -0.03859799 -0.005229554
0.16974619 0.12111396 0.15109542 0.00990907 0.074925765 0.078138635 0.05266132 0.0247723
0.0871221 -0.040816277 0.09831905 0.01626992 0.08898441 -0.01071768 0.061017804 -0.029088277
0.059520423 -0.040199537 0.07772817 0.06715304 0.07170032 0.07916348 0.07997437 0.041566115
-0.047497634 0.08193846 0.08381331 -0.022323819 0.02759896 -0.013387684 -0.023114737 0.089848
-0.021591181 0.04841301 0.12788326 -0.01021759 0.034034695 0.0048587555 0.04122526 0.014022003
0.051505536 0.040987834 0.09185566 -0.013912304 -0.054785915 -0.044250708 0.08844512 0.074650586
-0.038407616 0.089322664 -0.06805757 0.027548173 0.019260423 -0.022317458 -0.04362612 -0.0040922137
-0.0031170463 0.06424599 0.032367993 0.08370529 0.13434726 0.05185572 0.013551314 -0.0019506018
0.06036605 0.13256921 0.011995062 -0.02407689 0.09421473 0.00066197757 -0.054004226 0.015727844
-0.024662113 -0.10512113 -0.075397275 0.0069229086 -0.03514685 0.02164521 0.011000056 -0.0714811
-0.06782318 -0.026194716 0.0902126 -0.02255236 0.07564674 0.01997667 0.04813684 0.038361024
0.06322533 0.021538138 -0.051483613 0.09494198 0.026518067 -0.007645316 0.058054447 -0.058435567
-0.054025758 -0.014845861 -0.07749442 0.053930648 0.0033201247 -0.04663964 0.04512654 -0.025144137
0.022380136 -0.020442089 -0.029136606 0.048633117 0.07655534 -0.04084387 -0.038671333 -0.04126145
-0.11084896 -0.05116125 -0.06451547 -0.03846932 -0.09139147 -0.031098997 0.07101474 -0.0072485707
0.06173284 0.08113419 0.07690243 0.08117121 -0.02552941 0.10676598 0.07074055 0.058891173
-0.11705659 -0.075510345 -0.072105594 -0.071055345 -0.002503663 0.054818407 -0.017021582 0.019295648
0.03664359 0.06715548 -0.004066563 -0.002449041 0.14721186 0.19106604 0.14359082 0.056121215
-0.038591888 0.026333082 -0.06329923 -0.046951443 0.16759524 0.030758694 0.02728375 0.02292241
0.046425868 0.04639843 -0.014054531 0.0019212384 0.058112044 0.0050303577 0.116425194 -0.023856087
-0.09049967 0.012410622 0.0446001 0.047404744 0.30878565 0.26445958 0.2528019 0.31448174
0.06496158 0.07998577 0.018178232 0.055728804 0.053618547 0.09681694 0.001696529 0.004332215
0.0637213 0.012602873 -0.03399218 0.06433649 0.07990205 0.07750666 -0.0059583257 0.03386702
-0.0700054 -0.019913493 0.03365055 0.116157986 -0.011487823 0.046579607 0.06024124 0.028827738
-0.031071963 0.0045538945 -0.039759222 -0.015269671 -0.07999155 -0.004839812 -0.03732703 0.007410404
0.09928505 0.02578538 0.017525565 0.06728526 0.03673232 -0.049100347 -0.04688902 0.030031156

lstm.weight_hh_l0 f4 [512, 128]
00000000: 095f 44bd bb10 a93d 1535 ba3c 9937 00bd
00000010: b972 543d 1662 7bbd c755 5d3d a052 c3bd
00000020: 0999 0c3d f2c5 eabd 771c b93d cb15 c4bc
00000030: 764a a53a 6171 ccbd 08e5 1fbd 8815 33bd
00000040: 5031 65bd 4f43 11bc 4c26 be3d 6844 b53d
00000050: a1bc 3b3d be53 113e 0e4a afbd e11f b6bd
00000060: be16 67bc cc3c 44bd 7eb4 c13c 2efa ebbc
00000070: e1d3 8cbb cfb7 903d 8960 113e f535 113c
00000080: 51bb 223d 8dc8 a53d 7b74 933d e19e c43d
00000090: ef05 7eba 2eb2 8e3c 3cb6 8e3d ceff 9b3b
000000a0: b021 d3bd f77d dfbc 63cd f9bb 03de 673d
000000b0: a590 183c 5480 8a3c 6058 bb3d 3ac9 503d
000000c0: df57 bb3d d1dd 22bc 76c8 23bc 3ea9 fbbb
000000d0: c981 323d a69d a23c bc65 f9bc b7c6 03be
000000e0: a2f8 efbd 3aa4 1f3d 3973 da3d d58a dabc
000000f0: 165c c4bc a2ef a3bd 41cb af3d 2351 2b3c
00000100: 0eb1 70bd 26df 1e3d 0436 05bc 64c0 91bd
00000110: 66f6 b93c b996 c0bc 53cc bdbd b04a c7bd
00000120: 1ea4 fe3b 1984 193d 3c85 933d 18eb 9a3c
00000130: 5300 99bc f7aa 26bd ac64 4d3d 6311 c9bc
00000140: 14c9 b23c 9ea0 be3c 822f 1cbc b5c0 6abd
00000150: adf5 1fbd b4d1 5abd 7415 59bd 0f53 a7bc
00000160: 4850 bb3d b601 aebc 2d08 b73d 8135 0abe
00000170: 37cc f0bd 0a44 93bd eceb 4bbd a51e 22bd
00000180: a466 adba ca5b d43c d534 803c 76fd c7bd
00000190: db23 79bc 4b83 863c 4e0e 09be a688 d6bd
000001a0: 13f3 14bd 8e11 8cbd 6044 babd 272a 923b
000001b0: e03c 80bd a4c1 d8ba 47bf 043e 16c6 ebbd
000001c0: 714a 5cbd 6a09 a3bc e834 d53d e269 94bd
000001d0: c817 e6bd e56e 073e cc2b 4dbd fbec 833d
000001e0: c00c 2c3d 6e20 32bd 30ca 2e3d 4085 1bbd
000001f0: bbe7 82bd 48b2 cf3d bf25 ca3d ae86 2fbd
00000200: a563 efbd 8aaa d83d d5e4 e93c 7b72 75bb
00000210: 1173 2d3d 0d44 713d 57a7 3e3d 340b 613d
00000220: 934b 19bd e317 af3d 3ea1 c3bd bf1e 11bc
00000230: 82d5 15be 8022 b9bc 83ba bebd 48a8 363d
00000240: 63f6 babd aa72 1b3d c53c 9e3b f95e 45bd
00000250: ed0f 1c3d 3767 67bd ef75 f3bc 003f 343d
00000260: e75d fe3c b11c a13c 22ae 2f3d 1e6b 823d
00000270: f2ce ec3d b2f2 87bd a5a4 faba 6859 c0bd
00000280: 8014 8e3d cdf2 bf3d f336 f03d 9c12 8c3d
00000290: 43f0 a5bd b9b6 a1bd 067d b7bb 6076 e138
000002a0: eacc 9e3d 7ebf e03d 53bd c33d 0356 a2bd
000002b0: a983 813d 3ad9 9bbb 7c85 923d d82b bebd
000002c0: 1591 36bd 4dd4 393e 20de 1cbd 224c 3b3d
000002d0: 917b b33d 88a8 5cbc 481e 83bd 34c3 ecbd
000002e0: 9d65 363d 3dab 67bc 15ca d03d 8a3b e8bd
000002f0: 5799 a2bd 5096 d13b 59c6 dabc 1846 033d
00000300: 9189 383d 2a71 5cbd e51b 98bd a117 9abd
00000310: dadb 743d 9173 c8bc 4978 e23c 1e99 673c
00000320: fb83 88bd 77ca 0cba 9e65 a63d f2c8 c2bd
00000330: a62a 2fba 3c08 7dbd 53b0 22be f6d6 1fbd
00000340: 783e f5bb da53 933d 27d6 29bd 2824 c1bc
00000350: 76ac 74bd b6a1 bebb b218 c9bd 0bd7 c8bc
00000360: a0fa 5fbd a2a1 7fbd ac92 15bd 8aa2 003e
00000370: 526c a43b 7a96 e9bb 6dab 48bd c6c5 edbc
00000380: c41d 143c 2339 e43a f270 0b3d fdd4 67bd
00000390: a16a 843d 73ac 553d 03d2 97bd 599e 26bd
000003a0: aba8 ae3b d6a9 323d b4a9 433d 8fe1 173e
000003b0: 25c2 22bd d8b5 c8bc 5381 26bd 71b0 9cbd
000003c0: 9ddc d8bd 8884 ae3c 6a65 2fbd f94d cfbd
000003d0: 8b1b 273d 2092 83bc e2a5 71bb 36d8 90bc
000003e0: e93e aebb 82de 28ba 9b11 b0bb 09f9 023d
000003f0: f3d7 2d3d 3f28 ad3d 99b4 e63d fff5 2fbc
-0.047942195 0.08255144 0.02273039 -0.031303022 0.05186722 -0.06137284 0.05403688 -0.09537244
0.034325633 -0.11463536 0.09038632 -0.023936173 0.0012610692 -0.09982563 -0.03903678 -0.043721706
-0.05595523 -0.008866145 0.09284648 0.08850938 0.045834187 0.14192101 -0.08559047 -0.08892799
-0.014104543 -0.047909543 0.023645636 -0.028805818 -0.004297719 0.07066309 0.14196981 0.008862962
0.03972942 0.08094893 0.07199951 0.09600616 -0.0009690215 0.017418947 0.06968352 0.004760719
-0.1030916 -0.027281744 -0.007623361 0.05660821 0.00931183 0.016906895 0.091477156 0.050973155
0.091476195 -0.00994058 -0.009996524 -0.0076800874 0.043580804 0.019850563 -0.030444019 -0.12868772
-0.11717345 0.038974978 0.10666508 -0.026677528 -0.023969691 -0.08004691 0.085836895 0.010456356
-0.058762603 0.03878703 -0.008130554 -0.07116774 0.0227005 -0.02350937 -0.092674874 -0.097310424
0.007771029 0.037479494 0.07203147 0.01891093 -0.018676912 -0.04069039 0.050144836 -0.024544423
0.021824397 0.023269948 -0.009532811 -0.057312686 -0.039052654 -0.053422645 -0.052998975 -0.020425348
0.09146172 -0.02124105 0.08937106 -0.13496973 -0.11757701 -0.07190712 -0.04978554 -0.039580006
-0.0013229442 0.025922675 0.015650192 -0.09765141 -0.0152063025 0.016420027 -0.13384363 -0.10475282
-0.036364626 -0.06839286 -0.09095073 0.0044605914 -0.06261611 -0.0016537202 0.12963592 -0.11512391
-0.05378193 -0.01990195 0.10410482 -0.07246758 -0.11235005 0.13225897 -0.050090596 0.06441685
0.042004347 -0.04348796 0.04267329 -0.037968874 -0.06391855 0.10141426 0.09870481 -0.04285305
-0.116889276 0.10579403 0.028551498 -0.003745227 0.042346064 0.05890279 0.046546306 0.054942325
-0.03742559 0.08549478 -0.09552239 -0.008857428 -0.14632228 -0.022599459 -0.09312918 0.04459408
-0.09129026 0.03795115 0.0048290216 -0.048186276 0.038101126 -0.056494918 -0.029719321 0.044005394
0.031050636 0.019667001 0.042890675 0.06368087 0.11562909 -0.06638087 -0.0019122554 -0.09392053
0.06937504 0.093724824 0.11729231 0.06839487 -0.08102467 -0.0789618 -0.0055996208 0.00010750885
0.07753928 0.10974024 0.09557595 -0.07926562 0.0632394 -0.00475612 0.071543664 -0.09285706
-0.044571955 0.18147393 -0.038297772 0.045726903 0.08763803 -0.013467915 -0.0640226 -0.115606695
0.0445305 -0.0141399475 0.10194794 -0.11339481 -0.079394035 0.0063960925 -0.026705908 0.03204927
0.04505307 -0.05381886 -0.074271955 -0.07524038 0.05977998 -0.024469169 0.027645247 0.014135627
-0.06665798 -0.0005370746 0.08124851 -0.095109835 -0.00066820753 -0.06177543 -0.15887575 -0.039023362
-0.0074842535 0.07193728 -0.041463997 -0.023576811 -0.059734784 -0.0058176173 -0.098191634 -0.024516603
-0.054682374 -0.062410004 -0.03651683 0.12562004 0.0050177956 -0.007128534 -0.04899161 -0.02902497
0.0090403 0.0017412048 0.03404326 -0.056599606 0.0646565 0.052166414 -0.074131034 -0.040678356
0.0053301654 0.043619 0.047769263 0.14832138 -0.039735932 -0.024500772 -0.040650677 -0.07650841
-0.10588954 0.02130343 -0.042821325 -0.10122294 0.04079775 -0.016060889 -0.0036872556 -0.017681222
-0.005317558 -0.00064418477 -0.0053731925 0.03197578 0.042442273 0.08454942 0.11264915 -0.010739802

lstm.bias_ih_l0 f4 [512]
00000000: 077f 073d 2259 773d c2bb b8bc 0863 1fbd
00000010: 55e6 52bc 2319 243d c075 923d 78a4 593d
00000020: 69ae 1eba ca69 1dbd c3e3 a7bc af1e 913d
00000030: 0a27 913d 7c2d 77bd 93b0 bb3b d9bc 283d
00000040: 3918 ad3c 8669 833d d368 8c3d be7b 173d
00000050: 57c8 e53d 4ae6 543d 7158 a23d 3312 9abd
00000060: 1b9b a63d 5d3b 823d 97f2 74bd ac34 e43c
00000070: c15e 68bd 5d25 b3bc 3c6a 29bd 1b62 67bc
00000080: 5b91 2ebd 0989 913c 49ca 593d c717 a63d
00000090: a1c3 6e3d 882f 5e3d 0483 033d 511f 313d
000000a0: e7ba 613c 4a7e 76bd 36cd 383c 6629 66bd
000000b0: a800 0f3d 3401 a7bd 5778 c0bd 1418 0d3e
000000c0: f227 5b3d 840f 7d3d c87d 493d 726a 713c
000000d0: ec5f a63d 17ae ae3e 4705 dfbc a716 ccbc
000000e0: 8302 d7bc 3401 19bc 9db1 bfbc 33bc 403a
000000f0: 7c19 7bbd bc8a 133c 8517 37bc ff0f c43b
00000100: 95a5 4fbd d3eb 55bd c6b8 a83d eb7c 9cbc
00000110: 4157 6c3e 4573 07bd da04 183d 342d 37bd
00000120: cd8e e93b 2393 b1bc b7a4 a73d f8ac 533e
00000130: e013 fd3c 5a26 9bbd 62e6 8e3e 85b6 bb3d
00000140: bd03 b63c c40d 673d 760c 11ba 6412 013e
00000150: 547d 22bd 7607 043d 2718 b63c d7bd 703d
00000160: f153 00bd 0db8 3fbc e9f9 933d eecb c83d
00000170: 0023 a13d ac18 683d 372b bb3c d0c5 843d
00000180: 6911 4e3d 6df2 4dbd 0971 5f3c 2e47 253d
00000190: 534c 0cbd 75be 403d 55df 9a3d ca65 653d
000001a0: 230a 3bbd 392a 9e3d 6117 a93d dd11 133e
000001b0: 3f0b 2e3d 99fe 26bd 386e 8bbc a592 853d
000001c0: b4c1 c23d 295a 593e 05a3 6e3c b984 273a
000001d0: e8fa a3bd c308 993d 464b b03c bf76 da3b
000001e0: cf11 a1bd 18e6 623d ee04 8bbd 5b33 3abd
000001f0: d34a 98bd d47d 513c d390 aa3d 0557 a13d
00000200: a5fe dabb ad71 c13c b0f6 3fbd 603d 77bd
00000210: 1647 083c d12d ef3c ba20 933d 555b 873d
00000220: df0c 703d 2f21 203c 489b 4dbd 9c7c 963d
00000230: b8de 483d 35aa 55bd d978 1dbc e603 8fbd
00000240: 601e 7d3d 2b47 7c3d 7f75 283c 60fb b2bd
00000250: 417d d03d c995 a0bd f342 b0bd ffea 9e3d
00000260: 4e13 c3bc c266 9d3d adda 2dbd 85b9 20bd
00000270: be7f 43bd 7528 acbb 697c 683d 5675 1d3d
00000280: f617 783d 55bb 0a3d 18e0 b43c 2c4e fd3c
00000290: edf1 a7bd 53df a13d b9fe c83c 9adc 653c
000002a0: 1ba7 bebc a389 583d a5eb 5d3d 78e9 7a3d
000002b0: 0723 37bc 34b9 643c b01e 3c3d a1bc 0cbe
000002c0: 4ffd a3bd 0c80 793c 2d6f 343c 5d42 aebd
000002d0: a812 e5bc ba8f 23be e800 4dbd a635 a7bd
000002e0: 93c6 6f3d 28d0 dc3c 005d 213d 373d 0c3d
000002f0: c1bc b43b 67ce 853d 6fd0 73bd 035e 8f3d
00000300: b724 883b a7be b33b b737 f13c 5dc3 dd3c
00000310: c929 78bc 24fc 9c3c 1cc2 0abd d0d5 0e3d
00000320: efc5 6d3b 9078 92bd 1ee7 97bd aed1 c0bd
00000330: 79d1 ac3c 3810 0fbd d6ff 90bd 7d33 ffbc
00000340: 955f 49bd 4c2b 083c 8fc0 96bc e228 9fbd
00000350: abf8 f6bc f599 6f3b e4e7 ec3c b20c cbbd
00000360: f4e7 59bd bcdb 92bc cbf9 73bd f45c cabd
00000370: 2d96 da3c 8d89 a7bc 0bcf a23c 426e 5ebb
00000380: 9c7a 40bd bbe7 a1bd 3da9 59bb 80d7 833d
00000390: 047d 8abd 6615 753d 6e5e 713d e1fa 933d
000003a0: 66c0 7cbd aaaf 743d 53a5 8fbd 8de2 e6ba
000003b0: 379b 08bd a7d7 a53d 8e08 c23c b41d 91bd
000003c0: c504 9ebd 4643 56bc 8ca6 673d 552d 48bc
000003d0: 602a 72bd fff8 acbd bec9 873d e145 b5bd
000003e0: bb62 f1bb 8656 583d 9b45 68bd fe15 e5bc
000003f0: 5e3d 213d 53f5 21bd 39bc 6a3d c6d9 9aba
0.033080127 0.060387738 -0.022550467 -0.038912803 -0.012872298 0.040063035 0.07151365 0.053135365
-0.0006053211 -0.038430966 -0.020494347 0.070859306 0.07087524 -0.06034611 0.0057278364 0.041195724
0.021129714 0.064166114 0.06855931 0.036983244 0.112198524 0.051977433 0.07927025 -0.075230025
0.08135053 0.06358979 -0.059801664 0.027857147 -0.05673099 -0.021868402 -0.04136108 -0.014122511
-0.04261909 0.017765539 0.05317143 0.08110004 0.058292035 0.054244548 0.032107368 0.043242756
0.013777471 -0.060179032 0.011279395 -0.056191824 0.034912735 -0.08154526 -0.09397953 0.13778716
0.05350489 0.061782375 0.04919222 0.014734851 0.081237644 0.34117195 -0.027224196 -0.024913145
-0.026246315 -0.009338666 -0.023400122 0.00073522626 -0.0613036 0.009005245 -0.011175041 0.005983352
-0.05069502 -0.052226853 0.08238368 -0.019102534 0.2308016 -0.033068914 0.037114 -0.044720843
0.007127619 -0.021676606 0.08185714 0.20671451 0.030893266 -0.07575674 0.27910143 0.09165672
0.02221858 0.056409612 -0.0005533168 0.12604672 -0.039670303 0.032233678 0.022228314 0.058774795
-0.031330053 -0.011701596 0.07225401 0.098045215 0.07868004 0.056664154 0.022847755 0.06483042
0.050309572 -0.050280023 0.0136377895 0.040351085 -0.034252476 0.047056634 0.075621285 0.056005277
-0.045663964 0.07722897 0.08256412 0.14362283 0.042491194 -0.040770147 -0.01702033 0.06522111
0.09509602 0.212258 0.014565234 0.00063903217 -0.08006841 0.07472374 0.021520268 0.0066669877
-0.07864725 0.055395216 -0.0678805 -0.045459133 -0.074361466 0.012786347 0.08328404 0.07877926
-0.006683188 0.023613775 -0.04686612 -0.060361266 0.008317729 0.029196652 0.071839765 0.06609217
0.058606025 0.009773537 -0.050196916 0.07347986 0.049040526 -0.052164275 -0.009611332 -0.069831654
0.061796546 0.06159131 0.0102819195 -0.08739352 0.1018014 -0.07841069 -0.086065196 0.07759666
-0.023812916 0.07685615 -0.042444874 -0.039239425 -0.047729246 -0.0052538463 0.05675927 0.03844198
0.060569726 0.03387006 0.022079512 0.030921064 -0.082004406 0.07903924 0.024535524 0.014029646
-0.023273041 0.052865636 0.054179806 0.06125781 -0.011177785 0.0139601715 0.045927703 -0.13743831
-0.08007299 0.015228283 0.0110128345 -0.085087515 -0.027962998 -0.15972796 -0.050049692 -0.081645295
0.058538985 0.026954725 0.039395332 0.034238067 0.0055156653 0.06533509 -0.05952495 0.07000353
0.0041547674 0.005485374 0.029445512 0.027070696 -0.015146681 0.019163199 -0.033876523 0.034871876
0.0036281308 -0.07151902 -0.07417129 -0.09414993 0.021095978 -0.034927577 -0.07080047 -0.031152481
-0.04916342 0.008311104 -0.018402366 -0.0777147 -0.030147871 0.0036560271 0.028919168 -0.09914531
-0.053199723 -0.017927043 -0.059564393 -0.09881011 0.026682938 -0.020451332 0.019874116 -0.003394023
-0.04699193 -0.07905527 -0.0033212446 0.06437588 -0.06762126 0.05983486 0.058927946 0.07225586
-0.061706923 0.05973784 -0.07013955 -0.0017615125 -0.03335115 0.08097773 0.02368572 -0.070857435
-0.077157535 -0.013077563 0.056555316 -0.012217839 -0.059122443 -0.0844593 0.06630276 -0.08851219
-0.007366506 0.05281689 -0.056707006 -0.027964588 0.039365165 -0.0395406 0.05730841 -0.0011814169

lstm.bias_hh_l0 f4 [512]
00000000: 00d1 27bb 7917 c7bc e947 1cbd 5e93 493b
00000010: 128b 483d 6089 2cbd 5d9e 5a3d a941 03bc
00000020: 413b 9dbd 216c 9cbc 8b49 bfbc 72ef 773d
00000030: 5ecc 103e a1e6 823c 23b2 883c b44a 3e3d
00000040: 1fca 34bd a9ab a33d 8116 5cbd 681a 3e3c
00000050: 25c0 003e be46 2bbd 2b3d 66bc ef88 3f3d
00000060: 2894 463d b527 5a3d fcb4 143d bc43 303d
00000070: 6208 e83d f4b0 c63c 6214 bc3d 82d6 5b3d
00000080: b850 733d bdfb 8dbd 9837 0e3c b962 0cbd
00000090: a88b 83bd 5e14 88bd b824 f43c 6e2f 58bd
000000a0: 4573 abbd f0b2 c43b 63b1 473b 5738 953c
000000b0: 1a71 b8bb 099f b53b 43f7 60bd b6d8 5d3e
000000c0: 592b b0ba 759f 173e 418a b4bc a8e4 1e3b
000000d0: c4d8 1a3e a850 ab3e 67bd dd3c 26b5 b13c
000000e0: 0352 433c e548 87bd 0f3b b33d e11b c23c
000000f0: 8a4a f13c ec1f ec39 a1c4 b43d a546 fbbc
00000100: c99d 84bd afe7 18bd 9195 29bd 0892 313d
00000110: e5eb 2b3e 751d 70bd ac01 8e3b 754d 2fbd
00000120: 9a54 9abd 75e4 6fbd 53f6 9ebd 294d 7d3e
00000130: 8c20 523d dc72 873d a78b 893e 17f6 9f3c
00000140: a36d a13c 50dc 043d aa45 2fbd 898a 093d
00000150: 797b 673b bd9f 133d df18 e13c 45e7 bb3c
00000160: 0d0c e83c 8c58 5cbd 98ed 75bd ea61 0cbd
00000170: 33c7 96bb 9a8e ae3d 03d1 393d 0199 afbc
00000180: 65a4 fa3d eedf a3bc e210 7dbd c738 363d
00000190: d837 3e3d 8f7e 983c 4cfc 113c d96a 43bd
000001a0: 5093 86bc 20bd 963d 1318 5bbd b0cd 133e
000001b0: c6b2 16bd 1435 bc3d 7999 50bd 5aca 163d
000001c0: 542b 41bc 032b 9f3e 8ace 983d 3e4b 1a3d
000001d0: 6c23 9fbd a372 913c 0c2c 723d ffb7 593d
000001e0: 1253 11bd e0b6 04bd 3bb3 8b3d 2a97 8abc
000001f0: cd1a 53bd 9f1b 46bd e6ca 0fbd 3c41 d53d
00000200: b2c7 9e3d d266 10bd 023a 09bb 4dd5 6b3c
00000210: 4879 b5bd 55e8 113d e101 93b9 6f8f 133d
00000220: 3449 60bd 2f30 8f3d 9498 623d 6038 0dba
00000230: be79 4fbd 66ee a7bd 09ba 9cbd 6cc7 1b3d
00000240: 8e29 8d3d 85bc 13bc 6267 90bd b5e0 4e3d
00000250: 73b8 de3d 9c58 9bbd 5c5f 293d 9eec 9ebc
00000260: d6e2 3f3d 22d8 a43d db47 ee3c 1ca8 9f3c
00000270: c64e a93d e717 33bc 129e 0ebc b307 323d
00000280: 0efc 943a bff5 193a a624 9e3d f9b8 503d
00000290: 19e7 98bd fad6 a03d 4da5 043d 0e82 95bc
000002a0: 8194 b5bd 0a54 30bd 0f5e 513d 5caf 5c3d
000002b0: 348f 6c3c 0fd3 34bd a3e1 0b3d 747e cbbd
000002c0: 762d 153d fc46 1b3d 4696 1ebd 7857 57bd
000002d0: e0a8 0c3d 6206 41be 6fc0 a4bd 733a 253c
000002e0: e83a 1e3d a64f fb3c ef7d 8bbd d1b5 8cbc
000002f0: 7e72 663c b2af 5c3d 5779 a5bc 62b8 f23c
00000300: 57e8 37ba 2f0f aabd 3b52 6ebd ee96 a73d
00000310: 25ab 1fbd 3f78 363c 89a3 a03b 4770 a4bb
00000320: 5b59 ec3b 55a3 7e3a 1195 8a3d 795d 293d
00000330: 8b88 bdbb eb86 db3c de2c 4cbe a5cb 983c
00000340: 4c86 043d b9f0 d63c 08fa 4dbd 29a9 4cbd
00000350: 6f59 893d 058b ab3c 0a50 71bd ad31 c9bd
00000360: c8f5 a53d 56f6 f23c 8476 193d 84cf 2cbd
00000370: 7477 74bd 657d 4a3d 91b1 76bd 163a 0f3d
00000380: 8cd7 b9bc ec47 553d 755c 91bc ac76 9ebd
00000390: 1b77 2a3d 36dc 893d b9bf 8bbd ff3c ac3d
000003a0: c531 c63c 340d a03d 09dc 863d 6621 893d
000003b0: b8c3 02bd bf12 ba3d 0613 513d f29f 733c
000003c0: a8a3 efbc 18fe 28be 97f5 1dbd e787 cbba
000003d0: 244e 953d e1b4 6fbd f709 5d3d 8ea3 aa3d
000003e0: 7479 393d 8ce0 93bd 4635 6ebd df1f 90bc
000003f0: e472 9dbc 32ce 863d dba1 18bd 3102 843a
-0.0025606751 -0.024303185 -0.038154516 0.0030758004 0.048960753 -0.0421232 0.053373683 -0.00801126
-0.076773174 -0.019094529 -0.023350498 0.060531087 0.1414046 0.015979113 0.016686505 0.04645796
-0.04413807 0.07991726 -0.0537324 0.011602975 0.12573297 -0.041815512 -0.0140526695 0.04676145
0.048481137 0.053260524 0.036305413 0.043033347 0.11329724 0.0242543 0.09183575 0.053671367
0.05940315 -0.06932781 0.008680247 -0.034273837 -0.06423122 -0.0664451 0.029802665 -0.052779607
-0.08371595 0.0060027763 0.003047072 0.018215341 -0.005628717 0.00554264 -0.054923307 0.216647
-0.0013440653 0.14806922 -0.02203858 0.0024245176 0.15121752 0.33459973 0.027067853 0.021692824
0.011921409 -0.066057004 0.08751499 0.023694934 0.029454488 0.0004503721 0.088265665 -0.030673334
-0.06475408 -0.037330326 -0.041402403 0.043352157 0.16789205 -0.058621842 0.0043336954 -0.04279848
-0.07535668 -0.058567483 -0.07761826 0.24736466 0.05130057 0.066137046 0.2686436 0.019526524
0.0197056 0.03243667 -0.042791046 0.033579383 0.0035321398 0.03604101 0.02747768 0.022937426
0.028326059 -0.053795382 -0.06004104 -0.034273066 -0.004601383 0.08523293 0.045365345 -0.021435263
0.12238387 -0.020004239 -0.06178368 0.04448774 0.046439976 0.018615035 0.00891025 -0.04770932
-0.016427666 0.073602915 -0.053489756 0.14433932 -0.036791585 0.09189811 -0.050927613 0.03681407
-0.011790115 0.31087503 0.07461269 0.037669413 -0.07770428 0.017754858 0.059124038 0.053153988
-0.035479613 -0.032400966 0.06821295 -0.016917784 -0.05153923 -0.048366185 -0.03510561 0.10412833
0.077529326 -0.035254307 -0.0020939116 0.014394117 -0.08861023 0.03562196 -0.00028039425 0.03602546
-0.054757312 0.06991612 0.05532129 -0.00053871237 -0.05065321 -0.08199768 -0.07652671 0.03803198
0.068926916 -0.0090171145 -0.07050969 0.050507266 0.10875025 -0.0758526 0.041350707 -0.019399937
0.046847187 0.080490366 0.029086998 0.01948934 0.08266978 -0.010930992 -0.008704679 0.043464374
0.0011366622 0.0005873106 0.07721834 0.050957654 -0.074659534 0.078535035 0.032384206 -0.018250491
-0.088662155 -0.043048896 0.051115092 0.053878173 0.014438439 -0.044146594 0.03415073 -0.099362284
0.036420308 0.037909493 -0.03871753 -0.05257365 0.03434074 -0.18850091 -0.08044516 0.010084736
0.038630396 0.030677628 -0.06811129 -0.01717654 0.014065383 0.053878494 -0.02019946 0.029628936
-0.00070155173 -0.08303677 -0.05818389 0.081830844 -0.038981576 0.011137067 0.0049023074 -0.0050182673
0.0072128004 0.00097136694 0.067667134 0.041348908 -0.0057840995 0.026797732 -0.1993899 0.018651793
0.032354638 0.026237832 -0.050287277 -0.04996601 0.06706511 0.020940313 -0.05891422 -0.09823928
0.0810352 0.029658478 0.03746654 -0.04219009 -0.059684232 0.04943599 -0.060227934 0.034967504
-0.022685789 0.052070543 -0.017744282 -0.077374786 0.041617494 0.06731455 -0.068236776 0.084100716
0.024193654 0.07815018 0.06584937 0.06695823 -0.031924933 0.09085607 0.051043533 0.014869677
-0.029252842 -0.16503179 -0.03856429 -0.0015528173 0.07290295 -0.05852211 0.05396458 0.08331977
0.045281842 -0.07220563 -0.058156274 -0.017593322 -0.019219823 0.065822974 -0.037263732 0.0010071454

lstm.weight_ih_l1 f4 [512, 128]
00000000: 0acd c1bd 4db4 863c edc1 7dbb 7f7a bebc
00000010: 989b 173d a684 e83c cee5 3bbd 6658 cfbc
00000020: 2b87 1cbd 5ab3 b63b 5bd0 193b 7063 0fbd
00000030: 424c 5bbd 1591 5e3d ad03 e7bb 314f 5d3c
00000040: 29db c6bd 0a1d bf3b fba0 b23b 22ac 413d
00000050: 827c 01bd 0de5 8e3d 9c3d b0bc 2c5d 5abd
00000060: 59c1 863d eb65 50bd 87f1 54bd 87c5 6b3c
00000070: 221b f9bb b316 0d3b c1be c6bb fcc5 26bd
00000080: 00e1 7e3d 83f5 5e3c 965a 9abd d3c5 5d3d
00000090: c69f 793c c83a 933d bf1b c4bc 2919 8e3d
000000a0: 3024 ab3d 0fa5 a93d bbae f03c 89af 9cbd
000000b0: f827 42bd d978 95bd 8417 533c 192e 2abd
000000c0: d0e7 543d a79a 593e 3b90 a23c e06f 8cbd
000000d0: 8e46 7f3d 6256 47be ca54 fbba d24c a13d
000000e0: 6ffa 103d 6098 fdbc 81b5 d53c b2bf 88bd
000000f0: 1b9f b03d 283e 00bd 114e d83c 50a6 2fbd
00000100: dcdf ec3a c90b f53c 7a5c 183d 1264 51bd
00000110: faa1 bd3d 38ab 463b a784 77bd c2a7 8ebc
00000120: 4e42 98bc 38f3 e63c 3f68 0d3c 0bc5 cabd
00000130: 257c 41bc 3e21 86bd b16b 43be a323 49ba
00000140: fc3d b8bd df65 4d3d 5179 83bd 0b4c 9bbd
00000150: e97c 203d 2706 7b3d 49c1 b2bd 18c1 c93c
00000160: a3c2 1d3d bfb6 d83a 34bb cdbb 0b73 3c3d
00000170: 0b7b 393d 9308 483a 1e2b 70bd 7c7e 833d
00000180: 04f5 0c3c 7276 a43d 7756 0fbd 02ce 733c
00000190: bc2f b8bc 4fbe 6d3d 64e1 f53c 9cfd 9e3c
000001a0: d113 a0bd 368c 36bc a205 8bbd f116 4b3d
000001b0: cc38 ad3d c2fc 8cbd 8732 293d 45d5 f43c
000001c0: 55ac 04bd 87d7 cc3d 3e41 b53b 2329 9dbc
000001d0: 73e5 a03d 1e5b 523d 6bfc 6abd b275 c6bc
000001e0: e59b 893c 9f61 1f3d 8bf7 babc 27d8 a13d
000001f0: d716 b03d 2b81 803d 6af2 b1bc 4687 cbbd
00000200: 5a5f b9bd a071 04bd b5e2 9f3c ef20 913d
00000210: 3942 483d fb99 d0bb fbc9 913c 8feb e3bc
00000220: 8135 4fbc 9400 3ebd b18b 783c c1a6 173c
00000230: c979 85bd 1b1f a5bd 7f95 86bd 3a0e 463d
00000240: a58f 203c 12e3 d5bc 6280 903c 367a b83d
00000250: 0530 15bd 7f8a bbbd d03a 6ebd 0b15 42bd
00000260: 750e 64bd 4bc5 91bd 7716 4abd 1a2b 5f3d
00000270: 21d2 613d d3ad 933c 1ec7 313d db22 91bd
00000280: b6b0 993d 09a8 61bd a7b9 1a3d 51b2 2a3d
00000290: 01be a5bd 91ed 003c 9ade 83bd 8cce a4bd
000002a0: c600 aabc b787 bd3d 1e14 96bd 0aa2 c53c
000002b0: 13ae 2e3c 1479 b5bc 222e 843d 1f60 a53c
000002c0: e0ac 9cbc 6544 823d 278d f3bb 7478 d53d
000002d0: 56b7 6dbc 9357 93bc 01e7 c8bd 1e70 c2bd
000002e0: 3bb4 5c3d b207 5a3d 719b a9bd 14d6 b4bd
000002f0: 1b34 9dbd 1066 773c 0225 533d f639 943c
00000300: 7e56 26bd 1fd4 963c 79bb febb 1da7 52ba
00000310: c5e7 a2bc 9e11 863d 7579 c0bd 53e3 48bc
00000320: 9b08 94bb 7f76 c73d 90aa 893d 7652 f0bc
00000330: 4771 653d a341 813d 5061 873c 8790 adbd
00000340: 887b 32bd 1524 90bd 67a5 ac3c 18de 8fbd
00000350: 3bc3 5a3d 7c96 1ebd bc23 3cbd 228c e33c
00000360: 8a5e fdba fd72 b9bd 4899 40bd f4db df3d
00000370: 0a8a 33bd 43e0 323d 3bb1 7b3d c225 98bd
00000380: 4d64 0e3d 9dec 69bd 73ae 6e3d c688 8abd
00000390: 43a4 a03d 667b 4ebc 71ad 61bd 244e 6d3d
000003a0: 60bb e8bb 79f4 8abd 8284 963d 5a26 ce3d
000003b0: 9c59 0b3b ae4e aebd f8b1 293d addf 3fbd
000003c0: 701d e83a 79a4 e03d 6157 e23c 1495 753d
000003d0: 954f 713d 66be 74bd 6413 663d 3d1e 39bd
000003e0: 4fe5 773c 2ebe a9bd a8e3 273d ccdd 9fbd
000003f0: 8293 44bc 32a1 0b3d d369 ae3c 9d71 6ebc
-0.09462936 0.016443396 -0.0038720325 -0.02325177 0.03701362 0.028383564 -0.045873456 -0.025310706
-0.038214844 0.0055755796 0.0023470137 -0.03500694 -0.053539522 0.05433758 -0.0070499987 0.01350765
-0.0970977 0.005832319 0.0054513193 0.0472833 -0.03161288 0.06977282 -0.021513753 -0.053311512
0.06579847 -0.050878447 -0.05198815 0.014390356 -0.0076021114 0.0021528422 -0.00606522 -0.040716156
0.062226295 0.013608339 -0.07536809 0.054143738 0.015235847 0.07188946 -0.023939012 0.06938393
0.083565116 0.082834356 0.029380193 -0.07650668 -0.0474014 -0.072984405 0.0128840245 -0.04154787
0.051978886 0.21250401 0.019844165 -0.06857276 0.062323146 -0.19466546 -0.0019175049 0.078759804
0.035395082 -0.030956447 0.026087524 -0.06677188 0.08624097 -0.031309277 0.026404412 -0.042883217
0.0018072086 0.029912846 0.037197568 -0.051120825 0.0925941 0.0030314457 -0.06042924 -0.017413978
-0.018586304 0.028192148 0.008630811 -0.09900864 -0.0118093835 -0.06549309 -0.1908405 -0.0007672852
-0.089961976 0.05014598 -0.06419624 -0.075828634 0.039181624 0.061285164 -0.087282725 0.024628207
0.0385157 0.0016533955 -0.00627842 0.04600815 0.04528336 0.0007630672 -0.05863487 0.06420609
0.008603338 0.08030404 -0.03499457 0.014880659 -0.022483699 0.05804282 0.030014701 0.01940804
-0.0781628 -0.011141827 -0.06788184 0.049582426 0.08458099 -0.06884147 0.041307952 0.029886851
-0.03239091 0.10002046 0.005531459 -0.019184655 0.07856264 0.051356427 -0.05736963 -0.024226043
0.01679797 0.038911458 -0.022823116 0.07902556 0.08598106 0.06274637 -0.021722037 -0.09937911
-0.0905139 -0.032334924 0.019517282 0.0708636 0.04889128 -0.006366012 0.017796507 -0.027822284
-0.012647034 -0.04638727 0.015170024 0.009256066 -0.06517369 -0.080625735 -0.06571483 0.04835341
0.0097998725 -0.026109252 0.017639343 0.09007685 -0.036422748 -0.091572754 -0.058161557 -0.04738335
-0.05567785 -0.07117709 -0.04933783 0.054484464 0.055132035 0.018027222 0.043402784 -0.07086726
0.07504408 -0.05509189 0.037774708 0.041673962 -0.08092881 0.00786914 -0.06438942 -0.08047208
-0.020752322 0.09254401 -0.07328056 0.024125118 0.01066162 -0.022152461 0.06454112 0.020187436
-0.019125402 0.063607015 -0.007432598 0.10423365 -0.014509043 -0.017986095 -0.098096855 -0.09494041
0.05388282 0.053229995 -0.08281601 -0.08829895 -0.07675954 0.015100017 0.051548965 0.018094044
-0.04060983 0.018411694 -0.0077738133 -0.0008035766 -0.019885907 0.06546329 -0.09398166 -0.01226123
-0.0045176274 0.09739398 0.06721985 -0.029336195 0.056016233 0.06311347 0.016525894 -0.08474832
-0.04357484 -0.07038132 0.021074964 -0.07024783 0.053408843 -0.03871773 -0.045932516 0.027776781
-0.0019330543 -0.090551354 -0.04702118 0.109306246 -0.043832816 0.043670904 0.061448317 -0.07429077
0.034763623 -0.057110418 0.058271836 -0.06764369 0.078438304 -0.012602663 -0.055097047 0.05793585
-0.007102415 -0.06784911 0.073494926 0.10065909 0.0021263128 -0.08511101 0.04142949 -0.046844173
0.0017708968 0.10968871 0.027629556 0.059956625 0.058913786 -0.05975189 0.056170836 -0.045194853
0.015130355 -0.08288227 0.040988594 -0.07805976 -0.011998059 0.034089275 0.021290695 -0.014553455

lstm.weight_hh_l1 f4 [512, 128]
00000000: 68cf b63d 72d3 543d 13d0 8b3d 672b a6bd
00000010: 43ae babd 6d4a ca3d 7a21 c43d 6948 5fbd
00000020: 0af1 fc3c 90d1 9e3c ca35 cebc e489 1bbd
00000030: 44e7 26bd ee72 b4bb 092e caba 19de 5ebd
00000040: 480f 803d f27d 8abb ce5f 3a3d 9be8 7d3d
00000050: 2027 353d 914b 4dbd decc 733d 6f2e b7bc
00000060: 07b4 d83d f446 803d edfc 793d 4e76 26bb
00000070: eeb4 b3bd ff7b 983d 3328 063d fb64 90bd
00000080: 4ea9 aebb 0a6a 3c3d 9eec 673d 5437 aa3d
00000090: 6c84 87bd c4f6 583d ffdd 8bbd 105b 0cbd
000000a0: eb75 a93d 4e9b ba3d 9a6c 9b3d 9112 6cbd
000000b0: 0869 a83c 344f 59bd e482 b63d 01bb 24bd
000000c0: 5407 74bd 68bb 483d d3ca 153d 68f6 fb3b
000000d0: 1582 e23b 7359 9abc 9803 e7bc d98c 0dbd
000000e0: a469 5d3c 5917 8d3d d5b6 3d3d 1a8f 9e3b
000000f0: 14aa babc 7177 ac3d 1991 2bbb 1b65 64bd
00000100: d01a 66bd 49e1 853d d807 033d bd0d f93c
00000110: efd6 b93d eccc 843c 70de 1bbd c1d6 0e3d
00000120: a8d1 513d d4b3 0ebe 8792 473d ea13 e3bc
00000130: 19f4 cdbd 6197 163d 999a 3f3d 3e6f 823d
00000140: cecf 723d 2ec2 8a3c 135c 64bb 4df8 16bd
00000150: 18a0 d1bc 8609 28ba 7c79 613d 8eee cf3c
00000160: 53a2 823d 8389 2cbc 47ca 393d b6b5 7c3d
00000170: d5fd 383d 7c94 c0bc 63ed 8abd e65a 73bd
00000180: 2522 bd3d eefe 863d 4b77 313d d013 753d
00000190: 07bc 9fbd 6e04 3e3d f2ba 803d 476b cc3c
000001a0: bc0b 6cbd 5f65 c43c e002 33bd d047 97bc
000001b0: 271d 923c e106 a1bd c0c5 2d3c f0c1 813d
000001c0: 6643 91bd ae44 8f3d 95d9 dd3d 6720 9ebc
000001d0: 51ad 8dbc b695 9dbd ae12 b93d 4da8 713d
000001e0: 877f f2bc 4029 a23c 88da 1b3c 5825 433d
000001f0: 01e9 263d 5c98 803d 805f e03c 40ac b8bc
00000200: 4ab2 8b3d 178e 1cbd 2657 643d 0e4e 4ebd
00000210: de82 a43d 5034 17bd c188 723d a7a5 303d
00000220: b71a 353c 961b 313c 6c3d b33c 5db2 933a
00000230: 141b 753d 2119 f5bc cf4f 203d e113 3c3d
00000240: cc67 47bd c0d0 703c 3e7a 853d cf0c 283d
00000250: b5f4 c03d 1075 e1bc 2b53 abbc ba9e 2f3d
00000260: 7444 92bd 5e96 503d 39d1 b7bd 9801 7e3b
00000270: 3737 7fbd c318 063d ca4f 0d3d ac67 a1bd
00000280: bf6e a5bc ea45 8b3c 7ff7 a5bd 4de8 8e3d
00000290: b385 26bd d66a 65bc 986e 0d3d 2dfd 48bd
000002a0: d0ef 483d 5fc8 a7bc 095a ab3c 322d a6bc
000002b0: 41a1 06bc d39b 39bc 4d81 9a3d bca4 563c
000002c0: 5cf8 1cbc ec97 ba3b c749 08bd 96b7 e53a
000002d0: 714d 793d ce1a bebc f4fe 6bbd 2c82 c23d
000002e0: ec85 9cbd 2377 b73b 9643 2e3d 4148 78bd
000002f0: cebd cdbc 1f14 54bd fc58 023d 41f8 853d
00000300: 8aea 513d c1e3 11bd d075 0b3c 54f5 a1bd
00000310: 2449 633d 8208 843d 8e24 b6bd 9bc4 6ebd
00000320: 57b5 b0ba 03ff 20bc d347 8c3c 0633 853d
00000330: 7abf e8bc 074d 6ebd 489a 90bc 8f5d 27bd
00000340: f07f 0c3b 7642 623d 0e32 b13b 9607 97bd
00000350: fbea 08bd 715f 1ebc 1e21 013d 4708 7b3c
00000360: 9aa5 abbb 5f80 a3bc faa6 a23c 0023 bebb
00000370: fbf2 b9bd 735a 2cbd 7d8e 8bbd 0d8d 3d3d
00000380: fbf2 843d d96d ae3d 9c5a 7d3d 11b6 083d
00000390: 9bc9 6a3d b0c1 713c da13 053d f792 97bc
000003a0: 82b2 37bd 8895 4d3d 2fdb a3bd 587b 6ebd
000003b0: 6cb7 0fbd ce24 83bd d009 ae3d 7233 7dbc
000003c0: 8fa7 493d 8ab9 74bd b056 933d 8334 8cbd
000003d0: 1973 26bc e780 a5bb 3115 87bd 5899 54bd
000003e0: 8e6b a2bd a512 17bd 8dc4 723d 8e2a 793d
000003f0: 8050 e13b 9327 7a3d c1ad 333d 05e3 6b3d
0.08926278 0.051959462 0.068267964 -0.08113747 -0.09115269 0.09877477 0.09576698 -0.054512415
0.030876655 0.019387037 -0.025172133 -0.0379733 -0.040747896 -0.0055068647 -0.0015425096 -0.054411028
0.06252915 -0.0042264396 0.045501523 0.061989408 0.044226766 -0.050120894 0.05952155 -0.022361008
0.105812125 0.06263533 0.061032224 -0.0025400105 -0.08774744 0.074455254 0.03275318 -0.070505105
-0.0053302413 0.045999564 0.05662214 0.08311334 -0.06617054 0.05296971 -0.06829452 -0.03426653
0.08274444 0.09111653 0.075890735 -0.057634894 0.020557895 -0.05305405 0.08911684 -0.040217403
-0.0595773 0.04900685 0.03657038 0.007689286 0.0069124796 -0.01884148 -0.028199956 -0.03455815
0.013513956 0.06889219 0.04631694 0.0048388364 -0.022786178 0.08421219 -0.0026179014 -0.055760484
-0.056177914 0.0653711 0.031989902 0.030402059 0.090741985 0.016210996 -0.03805393 0.034872774
0.051225334 -0.13935786 0.048723724 -0.027719457 -0.100563236 0.03676546 0.046778295 0.06368874
0.05928021 0.016938295 -0.003484492 -0.03685789 -0.025589034 -0.00064101105 0.055047497 0.025382306
0.06378617 -0.010530832 0.045358922 0.06169673 0.045163948 -0.023508303 -0.06783559 -0.05941286
0.09235028 0.06591593 0.043326657 0.059833348 -0.07799535 0.046390943 0.06285657 0.024953498
-0.05762838 0.023974119 -0.043703914 -0.01846686 0.017836167 -0.0786264 0.010606229 0.06335819
-0.07092933 0.069955215 0.10832516 -0.01930256 -0.017294558 -0.07694571 0.09036766 0.058998395
-0.029601825 0.01979506 0.009512551 0.047643036 0.040749554 0.0627906 0.027389288 -0.022543073
0.06821115 -0.038221445 0.055747174 -0.050367408 0.080327734 -0.036915123 0.05921245 0.04312673
0.011053733 0.0108098 0.021879874 0.0011268366 0.059840277 -0.029919209 0.03913861 0.045917396
-0.048682973 0.014698207 0.065174565 0.04102784 0.09421674 -0.02752164 -0.020913681 0.042875983
-0.07141963 0.05092465 -0.08975453 0.0038758274 -0.062308516 0.03273846 0.03449992 -0.07881102
-0.02019441 0.017001111 -0.08103847 0.069779016 -0.04065485 -0.014002522 0.0345293 -0.049069572
0.049056828 -0.020481287 0.020916956 -0.020285223 -0.008217157 -0.011328655 0.075441934 0.013100799
-0.009580698 0.00569438 -0.033273485 0.0017526026 0.06086487 -0.02320614 -0.05761619 0.094974846
-0.07642731 0.005598919 0.042544924 -0.06061578 -0.02511492 -0.051777 0.031823143 0.06541491
0.051249065 -0.035617594 0.008511975 -0.07908121 0.055489674 0.06446935 -0.08893691 -0.058292966
-0.0013481778 -0.0098264245 0.017124092 0.065038726 -0.028411616 -0.058178928 -0.017651692 -0.04086071
0.0021438561 0.055239163 0.0054075783 -0.07374494 -0.03342722 -0.00966631 0.031525724 0.015321798
-0.005238247 -0.019958673 0.019855011 -0.005802512 -0.09079548 -0.042078447 -0.06814287 0.046277095
0.06491657 0.085170455 0.06185399 0.033376757 0.057321172 0.014755651 0.032489635 -0.018502695
-0.044847973 0.050191432 -0.0800079 -0.0582231 -0.035087034 -0.06403504 0.08497965 -0.01545416
0.049232062 -0.059747256 0.07194269 -0.06845953 -0.010159277 -0.0050507667 -0.06595839 -0.051904052
-0.07930671 -0.036883015 0.059269477 0.0608316 0.0068760514 0.061072897 0.043866877 0.05758955

lstm.bias_ih_l1 f4 [512]
00000000: 2e86 7d3c 64a7 4abd cc67 55bd 5156 c63d
00000010: 79aa 953d dc8b 16bd eac6 813d a873 5e3d
00000020: 59ba 56bb 9484 a33d d4ae e8bb 89a2 94bd
00000030: 6804 22bd db1f ecbc 1a9f ca3d 0ad7 fd3b
00000040: 66ec 2dbd 93d9 6f3c df04 9a3d fe4f d9bc
00000050: 9ceb 0bbd ac65 183d ec15 b13d 5278 03bd
00000060: 135c 1f3d b1f7 ba3d 063e 673d 7f94 a9bc
00000070: c4b4 403d 8d73 bfba c614 b73d d0d1 54bd
00000080: cf22 0c3d 435a c93b 48df abbd 79df 473d
00000090: 0515 bcbc 09ed 883d 3543 7dbd 6719 92bd
000000a0: 3522 13bb b0d8 4f3d 21f4 49bd b3da 7fbc
000000b0: 703c 09bd 456e 2e3d a662 aabc ccea 813d
000000c0: d78d f03c 7863 133c f369 763b ed0c 50bc
000000d0: e3fb 27bd b4f0 123b 4662 583c 64c9 11bc
000000e0: 44ba 933d bd29 a8bc 416d 94bd b57e 54bd
000000f0: 27de 18bd ebb8 843d 8d80 583c 0339 563d
00000100: 1be8 983d 22d5 a1bd ea93 5f3c 1b40 a43d
00000110: 4e7b fb3c b73f 733c 766a 46bd 1833 d2bc
00000120: ee02 4fbd 80ff 273d a195 123d c6dd 1f3d
00000130: 0e3b 61bc 1de1 77bd 115e 12bd 9bff 93bb
00000140: b5c5 8fbc 0776 903d 0e55 7ebd 7377 01bd
00000150: 6381 823d c890 e5bc 237c 95bc a36a 993d
00000160: ed86 c43d 6cd4 053d 02dd 96bd 9f38 333d
00000170: a1f9 01bd ea10 ccbc 3507 b43d 45f7 7ebd
00000180: 9e0e c73d 43b9 60bc fa37 48bc 5483 2f3d
00000190: a3ff 4c3e 0ce2 efbc 4e0b 023e 6026 9bbc
000001a0: 6be0 80bd a38a b63d f59f 243d 1857 47bd
000001b0: d1a6 37bd 7dcb 593d b241 f23c c73e 963d
000001c0: 4512 ba3c 34ad 8dbc 5340 4fbd 99d8 ba3d
000001d0: c221 6abd ce3c a03d 878d 993d bc39 81bc
000001e0: 254a 513d 1ede 79bd 4452 b3bc 89f8 83bd
000001f0: 81ad 06bc 5be9 9b3d 96c1 be3d aa7c d93a
00000200: 29f2 483d 1a95 17bd 9ecc 09bd 03c8 513d
00000210: e28b 333c 41e7 23bd ecb4 f9bc baf6 96bd
00000220: 490b adbd 3993 b63c 676e 613d c514 b53c
00000230: 70e9 b13d 4b00 a1bd 674b 34bd fcad 8c3d
00000240: fddb 9d3d 68a4 8a3d 26ed 07bd 3d53 e3bd
00000250: 97aa 0b3b 74bc 943d 1363 543d 3331 a6bd
00000260: a93f 2e3d 5dbd 523d b435 c0bc 4683 b0bc
00000270: 8f1c 233c 748f 323d f865 b2bc 9691 0cbd
00000280: 453d 3c3d 020f 873d 0006 27bd 8900 2bbd
00000290: 2d64 63bc 1bd0 34bd 47c6 b73d f65f 433d
000002a0: 4128 633d 63fb cabb 64e0 0b3d 97e4 013d
000002b0: e912 203d 5034 b1bd 8bbd 0abd 24eb 9cbd
000002c0: ce33 8a3c cdd2 bf3c 1bab aabb 781e b5bd
000002d0: 3258 56bd 0bc6 de3c 169d 9cbc 3c82 b43d
000002e0: 594e 773c 84f0 7dbc 0ba2 a3bd e54e 8d3d
000002f0: 8530 3bbd 2f0f 253b 7b12 8a3d 7e52 7dbd
00000300: a01b 883c bcd0 a5bd fc85 2f3d 37aa b33d
00000310: a435 07bd 2f1a 7ebc 481c a03c 5570 16bd
00000320: 796a 2abc ef41 9d3c 4c6f cf3c d406 c1bc
00000330: 8968 21bd e320 f63c deac f4bc 16f3 43bd
00000340: 5ee1 1c3d 80ba 93bb be5f 98bd a40d 73bd
00000350: e48a d03a 332f 103d a7ca 9f3d b446 1c3d
00000360: b27a 08bc 5334 963a 1bb7 ca3b 5d39 2d3a
00000370: 5b5a d3bc ef0b 603d e63a 2abd 6585 87bc
00000380: 1a92 42bd 9420 66bd 78ec efbb e92e 033d
00000390: e478 9abd dad7 86bd 04f8 8fbd 2c12 ac3d
000003a0: 53bf 853d c58c 92bc c46c 1ebb e5fc 98bc
000003b0: 1352 f13c 5610 843b 5c17 d7bd be92 f7bc
000003c0: e71c 8c3d 3870 643c 1058 6f3d 8f3c bebc
000003d0: e8b4 9d3c 84d8 083d ecea 89bd 178f 4abd
000003e0: 933d 7c3c 2471 2f3d aba9 e73b 8913 733d
000003f0: 3b42 81bd 8d10 21bd c7eb 373d 704a 02bd
0.015473885 -0.049476042 -0.05210094 0.09684432 0.07307906 -0.036754474 0.06336768 0.054309517
-0.003276488 0.07984272 -0.0071009193 -0.072575636 -0.039554983 -0.028823784 0.098936275 0.007746582
-0.042461775 0.014639276 0.0752046 -0.026527401 -0.03416024 0.037206337 0.086467594 -0.03209717
0.03890617 0.09129275 0.056455635 -0.020700691 0.04704739 -0.001460658 0.08939509 -0.051957905
0.034212884 0.0061447932 -0.08392197 0.048797105 -0.022959242 0.06685836 -0.06183167 -0.07133751
-0.002245081 0.05074376 -0.049305085 -0.015616107 -0.033504903 0.04258563 -0.020798992 0.06343612
0.02936451 0.008995883 0.0037599772 -0.012698394 -0.041011702 0.0022421302 0.013207024 -0.008898113
0.07213262 -0.020527715 -0.07247401 -0.05187865 -0.037321236 0.06480583 0.013214243 0.052300464
0.074661456 -0.0790198 0.013646105 0.0802004 0.030698445 0.014846734 -0.048441373 -0.025659129
-0.050539903 0.04101515 0.03578723 0.03902986 -0.01374699 -0.06051742 -0.03573424 -0.0045165545
-0.017550329 0.07053762 -0.062092833 -0.031608056 0.06372335 -0.028023139 -0.01824767 0.074910425
0.095960476 0.032673284 -0.07366373 0.04375517 -0.031732205 -0.024910409 0.08790437 -0.062247533
0.09719585 -0.013716045 -0.012220377 0.042849854 0.20019393 -0.029282592 0.12699625 -0.018939197
-0.06292804 0.089131616 0.04019161 -0.048667043 -0.044836823 0.053172577 0.029572342 0.073361926
0.02271379 -0.017294504 -0.050598454 0.09123344 -0.0571611 0.078240976 0.07497697 -0.0157746
0.0510961 -0.061002843 -0.021889813 -0.06443889 -0.0082200775 0.076128684 0.09314267 0.0016592939
0.049059067 -0.03700743 -0.033642404 0.051216137 0.010958644 -0.040015463 -0.030481778 -0.07371278
-0.08449418 0.022286998 0.05503693 0.02210463 0.08687103 -0.07861384 -0.04401722 0.068691224
0.07707975 0.06769639 -0.033185147 -0.11099861 0.0021311396 0.07262507 0.051852297 -0.08114853
0.04254118 0.051450122 -0.023463108 -0.021546971 0.009955539 0.04359384 -0.021777138 -0.03431853
0.04595687 0.065946594 -0.040777206 -0.041748557 -0.013878864 -0.044143777 0.08973365 0.047698937
0.05545831 -0.0061945184 0.034149542 0.03171214 0.039080534 -0.08652556 -0.03387217 -0.07662037
0.016870406 0.023415947 -0.0052083856 -0.08843702 -0.052330203 0.027194044 -0.019117873 0.08813903
0.015094363 -0.015499238 -0.079898916 0.068998136 -0.04570057 0.0025186052 0.06741806 -0.06184625
0.016614735 -0.080964535 0.042852387 0.087727 -0.03301014 -0.015509172 0.019544736 -0.036728222
-0.010401362 0.019196479 0.025321625 -0.023562826 -0.039406333 0.030044978 -0.029867586 -0.047839247
0.038300864 -0.0045083165 -0.074401364 -0.05933918 0.0015910533 0.035201263 0.07802325 0.038153365
-0.008330034 0.0011459686 0.0061863787 0.0006607974 -0.02579992 0.05469888 -0.041560076 -0.0165431
-0.047502615 -0.056183413 -0.0073218904 0.03202716 -0.07542589 -0.06584139 -0.07029727 0.084019035
0.06530633 -0.01788939 -0.0024173716 -0.018675277 0.029458081 0.0040302677 -0.10502502 -0.03022134
0.0684145 0.013942771 0.058433592 -0.023222236 0.019251302 0.03340961 -0.06734261 -0.049452867
0.01539554 0.04283251 0.0070697865 0.059344802 -0.063114606 -0.039322425 0.04490259 -0.03180927
