models/2318.HK_lstm_Close.pth (torch, 809156 bytes, 9 tensors)

lstm.weight_ih_l0 f4 [512, 5]
0	0x3d35196a	0.04421369
1	0xbcee04e3	-0.029055065
2	0xbbbd340c	-0.0057740267
3	0x3c0504d7	0.00811883
4	0xbce86027	-0.028366162
5	0x3d23f22d	0.04002588
6	0xbd4cdd8b	-0.050015967
7	0xbd992dda	-0.074794486
8	0x3daad2b7	0.08340972
9	0x3dc8f442	0.098122135
10	0x3d9b95bc	0.07596919
11	0x3d1aea34	0.03782101
12	0x3cf1cefc	0.029517643
13	0x3ce4f99a	0.02795105
14	0x3ddd02cb	0.10791548
15	0x3cd7e0f1	0.026352378
16	0xbd9227de	-0.0713651
17	0xbb77f782	-0.0037836735
18	0x3d12c828	0.035835415
19	0xbd821b7e	-0.063529
20	0xbddfc816	-0.10926835
21	0x3d4305fb	0.047613125
22	0xbdd1e71a	-0.10249157
23	0xbd4a62b2	-0.04941053
24	0x3d1e8449	0.038700376
25	0xbd9f3759	-0.077742286
26	0xbd0abf40	-0.033873796
27	0xbd8e491a	-0.06947537
28	0xbdb6099d	-0.08888552
29	0x3c535478	0.012898557
30	0x3d74dd9b	0.059781652
31	0xbd80d2da	-0.06290217
32	0x3c878fd6	0.016548079
33	0x3d103f1d	0.03521644
34	0x3d884286	0.06653313
35	0xbcbac1ce	-0.022797491
36	0x3dcf1675	0.10111705
37	0xbc23caea	-0.009997109
38	0x3da4dbc7	0.08049732
39	0x3d0590fe	0.03260898
40	0x3d9c9f6e	0.07647596
41	0x3cf4d34a	0.029885907
42	0x3d0768e6	0.033059023
43	0x3d3183ed	0.043338705
44	0x3dcbbc8a	0.0994807
45	0x3dbda345	0.09259657
46	0xbc92a432	-0.01790056
47	0x3d17538e	0.03694492
48	0x3c6eda0b	0.014578353
49	0xbc34866b	-0.011018376
50	0x3d8e3cac	0.06945166
51	0xbd92b4f3	-0.071634196
52	0xbc47d3d8	-0.012196504
53	0x3d8074ff	0.06272315
54	0x3c2bed45	0.010493581
55	0xbde50572	-0.11182679
56	0x3cb7dd34	0.022444345
57	0x3cc3d0cb	0.023903271
58	0xbaebdf9e	-0.001799572
59	0x3c759be3	0.01499078
60	0x3bc4cce3	0.0060058697
61	0xbd6414d2	-0.05568392
62	0x3dbc85e3	0.09205224
63	0xbd4a3886	-0.04937031
64	0xbd5e15b2	-0.05421991
65	0x3e02a44b	0.12757985
66	0x3e59e924	0.21280342
67	0x3e693b20	0.2277646
68	0x3ebf6e59	0.37388876
69	0x3ea1ea75	0.3162419
70	0xbd9cda65	-0.07658843
71	0x3b0ad9de	0.0021186988
72	0x3bf5f78a	0.0075063156
73	0xbc7b9d75	-0.015357365
74	0xbd38932b	-0.045062225
75	0xbd3d65b7	-0.04623958
76	0x3cebd297	0.02878694
77	0x3d97a8e3	0.074052595
78	0xbd1a39ee	-0.037652902
79	0x3debc513	0.11512198
80	0x3cf317be	0.029674407
81	0xbca18bdc	-0.01972001
82	0xbd57042a	-0.052494206
83	0xbb3a6bed	-0.0028445676
84	0xbbb03526	-0.0053774295
85	0xbd925a96	-0.07146184
86	0xbcced13c	-0.025246255
87	0xbd1e4acc	-0.03864555
88	0x3c85d262	0.01633567
89	0x3ca247d2	0.019809637
90	0x3ddb69f1	0.10713566
91	0xbd895ccc	-0.06707153
92	0xbcc0a3e7	-0.023515655
93	0xbc7dfb0f	-0.015501752
94	0xbc7eb19d	-0.015545276
95	0x3d4ece57	0.05048975
96	0xbd77cc74	-0.060497716
97	0x3d116ed0	0.03550607
98	0xbc1a94aa	-0.009434858
99	0x3d66b101	0.056321148
100	0x3d7bc880	0.06147051
101	0xbc17f33a	-0.009274298
102	0xb80680c7	-3.2068023e-05
103	0xbced4574	-0.028963782
104	0x3d12ac6b	0.03580896
105	0x3db87833	0.09007301
106	0xbcc0ba11	-0.023526223
107	0x3da1a41b	0.07892629
108	0x3dcae545	0.09907011
109	0xbd4a70e0	-0.049424052
110	0x3cdeacb9	0.02718197
111	0x3e3b01e3	0.18262438
112	0x3e0f95bb	0.14021961
113	0x3e42a2be	0.19007394
114	0x3c9ce354	0.019151367
115	0x3cd5c844	0.02609647
116	0x3c3e4234	0.011612464
117	0x3cbb962a	0.022898752
118	0x3c1d889b	0.009615089
119	0x3c7d8df3	0.015475738
120	0xbc8abfa6	-0.016937088
121	0x3cf55ec6	0.029952418
122	0xbd62ac89	-0.055340324
123	0x3dace813	0.08442702
124	0x3d8168b2	0.06318797
125	0x3d1a2a1e	0.037637822
126	0x3d56694c	0.052346513
127	0xbd770f4a	-0.060317315
128	0x3dc05316	0.093908474
129	0x3dc7d80d	0.09758005
130	0x3d3b6d33	0.045758437
131	0xbd980cbd	-0.07424305
132	0xbd0687ff	-0.03284454
133	0x3d868d74	0.06569949
134	0x3d8111e6	0.06302242
135	0x3a5377a5	0.00080668397
136	0x3d132593	0.035924505
137	0xbd38e75a	-0.04514251
138	0xbc16e69c	-0.009210255
139	0x3d9d0072	0.076661006
140	0xbd71862b	-0.058965843
141	0x3d9c99aa	0.076464966
142	0xbcb55284	-0.022134073
143	0x3dd1faf0	0.10252941
144	0x3d55c445	0.05218913
145	0xbcd4fc34	-0.025999166
146	0x3ad6c113	0.0016384445
147	0x3d4b49e9	0.049631033
148	0x3d1a5931	0.037682716
149	0x3dade5a5	0.08491067
150	0xbca73017	-0.020408673
151	0x3d3a29f5	0.04545017
152	0x3b0d6039	0.0021572246
153	0x3cc9530a	0.024575729
154	0x3d08d602	0.03340722
155	0x3d452253	0.048128437
156	0x3d52b607	0.051443126
157	0x3c4004a5	0.011719857
158	0x3dd90b69	0.105978794
159	0x3d8558bb	0.065110646
160	0xbcf16ab1	-0.02946982
161	0xbbe05b35	-0.00684681
162	0xbdb21a70	-0.08696449
163	0xbcba298e	-0.022724893
164	0xbba8091d	-0.0051280395
165	0x3d40ea4e	0.04709845
166	0xbceb1cb8	-0.028700218
167	0x3d5d78b3	0.054070186
168	0xbc448542	-0.011994662
169	0x3cc319ba	0.023815978
170	0xbca92800	-0.020648956
171	0x3cdc7eef	0.026915995
172	0xbd5b6b6e	-0.05356925
173	0x3d2e73a5	0.042590756
174	0x3d950a6e	0.0727738
175	0x3d8807e0	0.06642127
176	0x3cb4d5a9	0.022074537
177	0x3d8aa60f	0.067699544
178	0x3d5047ba	0.050849654
179	0xbd3afbcf	-0.0456503
180	0x3daa0f82	0.08303739
181	0x3dc8b0ab	0.09799322
182	0x3d9bdc95	0.07610432
183	0x3d1d35b3	0.03838129
184	0x3d621635	0.05519696
185	0x3a349b71	0.00068896177
186	0x3d855b2f	0.065115325
187	0xbd8ecd06	-0.06972699
188	0x3cc1ea35	0.023671249
189	0x3d7e2c2c	0.062053844
190	0xbc677497	-0.014126918
191	0xbbe655d2	-0.0070292735
192	0x3dc149cb	0.09437903
193	0x3d85d27f	0.065342896
194	0x3d4b13fd	0.04957961
195	0x3d0adca4	0.033901826
196	0xbb6511d3	-0.003495325
197	0xbc98e493	-0.01866368
198	0x3d41f735	0.047354896
199	0xbb528fea	-0.0032129236
200	0x3d4cd761	0.05001009
201	0x3d7fb865	0.06243171
202	0xbdb99050	-0.090607285
203	0xbc33790e	-0.010954155
204	0x3c8fcd5f	0.017553983
205	0x3da3409c	0.07971308
206	0x3cbcfcd5	0.023069778
207	0x3c58168e	0.013188971
208	0x3c8a4bb0	0.016881794
209	0xbd23c555	-0.039983112
210	0x3b489c6b	0.003061081
211	0x3df26244	0.11835149
212	0x3e00da5c	0.12583297
213	0x3e14b62b	0.14522617
214	0x3d0cf260	0.034410834
215	0x3dc186e9	0.0944956
216	0x3e0a9d9e	0.13536689
217	0x3b3a834d	0.002845961
218	0x3a226052	0.00061941624
219	0x3d1dbe57	0.0385116
220	0xbc824cfe	-0.015905853
221	0x3d66ce8d	0.056349326
222	0x3daea2b1	0.08527125
223	0xbd3ea41c	-0.046543226
224	0xbd5546cd	-0.052069474
225	0xbd13047f	-0.03589296
226	0x3cde6a09	0.02715017
227	0xbbc538f5	-0.0060187527
228	0xb9941481	-0.00028244036
229	0x3d883fbc	0.06652781
230	0x3c1e0d4b	0.009646724
231	0x3ce4821c	0.027894072
232	0x3dcb2b2b	0.09920343
233	0x3df0db40	0.117605686
234	0x3dc0a8ca	0.09407194
235	0x3dbeda63	0.09318998
236	0x3dddcf97	0.1083061
237	0x3c416e27	0.0118060475
238	0x3d107f9a	0.03527794
239	0x3dc56014	0.09637466
240	0xbc70049a	-0.014649535
241	0x3d93ca60	0.07216334
242	0x3c297058	0.010341726
243	0x3ddbc1d2	0.10730328
244	0x3dae7a96	0.08519475
245	0x3d81c30c	0.0633603
246	0x3d983bb3	0.07433262
247	0x3db95efe	0.090513214
248	0x3cf2ad7a	0.029623736
249	0x3da90c63	0.08254316
250	0xbd22b14f	-0.039719876
251	0x3cc61404	0.024179466
252	0x3d044bfc	0.032299027
253	0xbd781cb3	-0.060574245
254	0xbd3661c3	-0.044526827
255	0x3c1cfe27	0.009582079

lstm.weight_hh_l0 f4 [512, 128]
0	0xbb007c57	-0.0019605362
1	0x3bf9122b	0.0076010427
2	0xbd961bcf	-0.07329523
3	0x3d852fd2	0.065032616
4	0xbd5639c4	-0.052301183
5	0x3d5abe10	0.053403914
6	0xbcfd3718	-0.03091006
7	0xbd862485	-0.06549934
8	0xbd85c141	-0.06531001
9	0x3d73a8b7	0.05948707
10	0xbd2c8665	-0.042120356
11	0xbd7b61e1	-0.06137264
12	0xbd9af67f	-0.07566547
13	0x3d589b15	0.052882273
14	0xbbc0c323	-0.005882637
15	0x3c817c3f	0.015806315
16	0x3d05bc7b	0.032650452
17	0xbcabe962	-0.020985309
18	0xbd846893	-0.064652584
19	0x3c87406f	0.016510217
20	0xba279a22	-0.0006393512
21	0xbd13b221	-0.03605855
22	0x3d6a42df	0.05719268
23	0x3d8d8687	0.06910425
24	0xbcd93eec	-0.026519261
25	0x3d851e1c	0.064998835
26	0x3d97c9d8	0.074115455
27	0xbdc7590d	-0.09733782
28	0xbc6b5dac	-0.014365595
29	0x3dc721b0	0.09723222
30	0xbba42f18	-0.005010497
31	0xbd60c8e1	-0.054879073
32	0xbdb87081	-0.090058334
33	0xbd83a59e	-0.06428073
34	0xbd1960c4	-0.0374458
35	0x3c0c9d28	0.008582391
36	0xbb81e661	-0.003964231
37	0x3db10c78	0.08644956
38	0x3d0762b3	0.03305311
39	0x3d189327	0.03724971
40	0x3d439534	0.047749713
41	0x3cbb8bb6	0.022893768
42	0x3c075287	0.008259422
43	0xbd130a8c	-0.03589873
44	0xbdc20088	-0.094727576
45	0xbc6b2865	-0.0143528925
46	0x3d631185	0.05543663
47	0x3d79dff3	0.06100459
48	0xbd4d1747	-0.050071027
49	0xbdad89ee	-0.084735736
50	0x3d07ff8c	0.033202693
51	0xbb480e3b	-0.003052606
52	0xbc25e34a	-0.010124991
53	0xbd6b3e8d	-0.0574327
54	0x3d758230	0.05993861
55	0xbce33be4	-0.027738519
56	0xbdcadb36	-0.099050924
57	0xb9ee4592	-0.0004544673
58	0x3d809161	0.06277729
59	0xbd84c594	-0.064829975
60	0x3d530f96	0.051528536
61	0xbd02a010	-0.03189093
62	0xbd0d07ef	-0.034431394
63	0x3d68184b	0.056663793
64	0xbd2acc3e	-0.041698687
65	0x3d1d6459	0.038425777
66	0xbd8cc533	-0.0687355
67	0x3d1024a1	0.035191182
68	0xbdaa263b	-0.08308073
69	0x3d6e8100	0.058228493
70	0xbd9bdac3	-0.07610085
71	0x3d18b02f	0.037277397
72	0xbd847f03	-0.06469538
73	0x3cf742ba	0.030183185
74	0xbc2cb639	-0.010541492
75	0xbd920871	-0.07130516
76	0x3d957dbc	0.072993726
77	0x3d44a29a	0.04800663
78	0x3c3fba48	0.011702128
79	0x3b50e809	0.0031876585
80	0x3c6ba6e1	0.014383049
81	0xbdb4c0a5	-0.088258065
82	0x3dafd931	0.08586348
83	0xbc97d640	-0.01853478
84	0x3ca018eb	0.019543132
85	0x3c5d07ec	0.013490658
86	0x3d9f2270	0.0777024
87	0x3dd579df	0.10423636
88	0xbd45b5d2	-0.0482691
89	0x3d2734be	0.040821783
90	0x3c03ed5a	0.0080521945
91	0x3ce5d2ff	0.028054712
92	0xbd75718b	-0.059922736
93	0x3d9c6476	0.07636349
94	0x3d75d45b	0.06001697
95	0x3d22bcd1	0.03973085
96	0xbcb21940	-0.021740556
97	0x3d40e79f	0.04709589
98	0xbd2f2bf0	-0.04276651
99	0xbba0f1e6	-0.004911649
100	0x3d93915e	0.07205461
101	0x3d710242	0.058840044
102	0x3d9436ca	0.07237013
103	0x3c2db9cc	0.010603379
104	0x3c892dd2	0.016745482
105	0x3d0dbc83	0.034603607
106	0xbd93164f	-0.071819894
107	0x3cfaa2c7	0.030595196
108	0xbbdc96c3	-0.0067318394
109	0xbd1fbf28	-0.03900066
110	0xbd129605	-0.0357876
111	0xbd5ee42b	-0.054416817
112	0xbd877797	-0.06614607
113	0xbcb5cbff	-0.022192
114	0xbc94498a	-0.018101472
115	0xbcd86e4c	-0.026419781
116	0xbd71e42c	-0.059055492
117	0x3d934436	0.071907446
118	0xbd72953e	-0.05922436
119	0xbd0d06f2	-0.03443045
120	0x3dafe7f4	0.085891634
121	0xbc993afe	-0.018704887
122	0x3da6743b	0.08127638
123	0x3d69ef35	0.05711289
124	0xbdac4e47	-0.08413368
125	0xbca78ae4	-0.02045197
126	0x3b60a288	0.0034276564
127	0xbbae4ab7	-0.0053189653
128	0x3d28d847	0.041221883
129	0x3cf782b3	0.03021369
130	0xbda49533	-0.0803627
131	0xb9af5321	-0.00033440537
132	0xbd66dd98	-0.056363672
133	0xbda1bf40	-0.07897806
134	0xbdaabbb5	-0.083365835
135	0xbdb5dcc9	-0.08880002
136	0xbcf01a6d	-0.029309476
137	0xbd340f02	-0.043959625
138	0x3dafa204	0.08575824
139	0xbdc3fbe2	-0.09569527
140	0x3d3d3472	0.046192594
141	0xbd640df4	-0.05567737
142	0xbc1e01f9	-0.009644025
143	0xba9a3164	-0.0011763987
144	0xbd917838	-0.07103008
145	0xbd23594b	-0.03988008
146	0xbd577ac3	-0.05260731
147	0xbdba40c0	-0.09094381
148	0x3d85d612	0.06534971
149	0xbd1b48e8	-0.037911326
150	0x3c34a570	0.0110257715
151	0x3ce6721b	0.028130582
152	0xbd2b7c45	-0.04186656
153	0x3db259c3	0.08708527
154	0xbc9216be	-0.01783311
155	0x3bc06865	0.00587182
156	0x3d955e64	0.07293394
157	0xbd6b3098	-0.05741939
158	0xbd04f22c	-0.032457516
159	0xbce5fe99	-0.028075503
160	0xba32fa4e	-0.00068274594
161	0x3d85843c	0.06519362
162	0xbd84f220	-0.06491494
163	0x3d9db947	0.077013545
164	0x3d034951	0.03205234
165	0xbd2ad6bb	-0.04170869
166	0x3d7e7638	0.06212446
167	0xbd69de21	-0.057096604
168	0x3c22c835	0.009935428
169	0x3d7f5ae8	0.062342554
170	0xbd5a1cab	-0.053249996
171	0xbd132b5f	-0.035930034
172	0xbd276ac3	-0.0408733
173	0xbd91d391	-0.07120431
174	0x3d9f07a7	0.077651314
175	0xbd37d662	-0.044882186
176	0x3d2bb3aa	0.041919388
177	0xbb34defe	-0.0027598734
178	0x3d0c7a67	0.03429642
179	0xbd98d96e	-0.074633464
180	0xbd7a4cc2	-0.06110836
181	0x3c956d5e	0.018240627
182	0x3dbdc53f	0.09266137
183	0xbd18828a	-0.037233867
184	0x3d2f073d	0.042731512
185	0x3d2a6652	0.041601487
186	0xbd9e9c58	-0.07744664
187	0xbd86a709	-0.06574828
188	0x3c7c194e	0.0153868925
189	0x3d82fa44	0.06395391
190	0xbd73e5e2	-0.059545405
191	0x3dc9667b	0.09834
192	0x3ca73fd2	0.020416174
193	0x3da05ebf	0.078305714
194	0x3dacf1f2	0.08444585
195	0xbd27ff04	-0.041014686
196	0x3d70e374	0.058810666
197	0x3d4f28c1	0.050575975
198	0x3ae40598	0.0017396687
199	0xbd224f54	-0.039626434
200	0x3ca370b1	0.019951196
201	0xbca77812	-0.020442996
202	0xbd3f4444	-0.046695963
203	0x3cd76fcf	0.026298432
204	0x3cdab43a	0.026697267
205	0xbba60153	-0.005066076
206	0x3dcc79c9	0.09984166
207	0xbc70b4c8	-0.014691539
208	0x3c967553	0.018366491
209	0xbbac68b0	-0.005261503
210	0x3dbf0e7b	0.09328934
211	0xbd4b9d3a	-0.04971049
212	0xbd221804	-0.039573684
213	0xbcb283c2	-0.021791343
214	0xbc315691	-0.010823862
215	0xbc8dd6c8	-0.01731433
216	0xbd7847de	-0.060615413
217	0xbd109e77	-0.035307374
218	0x3d95537b	0.07291313
219	0xbd91a36c	-0.071112484
220	0xbdb18248	-0.08667427
221	0x3c463192	0.012096779
222	0xbc90aa76	-0.017659407
223	0xbdb43ede	-0.088010535
224	0xbc8dde61	-0.017317953
225	0xbca4a636	-0.020098787
226	0xbd0164d8	-0.031590313
227	0xbd7b242f	-0.061313804
228	0xbdb35755	-0.08756892
229	0xbd44365a	-0.047903396
230	0xbc622b97	-0.013804338
231	0x3b3d5e41	0.002889529
232	0xbd571262	-0.052507766
233	0xbd283350	-0.04106456
234	0xbda9b6fd	-0.08286855
235	0x3daa8b42	0.083273426
236	0x3d8cf8b6	0.06883375
237	0x3c8a8e04	0.016913421
238	0xbc513f56	-0.012771448
239	0x3cbc9ecc	0.023024939
240	0x3ca3450f	0.01993039
241	0x3d1cc85a	0.038277008
242	0x3d9f6a14	0.07783905
243	0xbd849637	-0.06473964
244	0x3ba16fce	0.0049266582
245	0xbd9ca878	-0.0764932
246	0xbd2e81db	-0.04260431
247	0xbd1efabe	-0.038813345
248	0xbb00ec3f	-0.0019672064
249	0x3d09003a	0.03344748
250	0xbd046217	-0.03232011
251	0xbb0355ab	-0.0020040076
252	0x3d45ce42	0.048292406
253	0x3d89de61	0.067318685
254	0xbdb40a8b	-0.087910734
255	0x3c762b60	0.01502499

lstm.bias_ih_l0 f4 [512]
0	0x3d462d05	0.048382778
1	0xbce7e80e	-0.028308894
2	0x3dca7010	0.098846555
3	0xbd4a4aeb	-0.049387854
4	0x3d1606bb	0.036627512
5	0x3d55ab2f	0.052165207
6	0xbd51622f	-0.051119026
7	0x3c4c0230	0.012451693
8	0x3db40784	0.08790496
9	0x3cc5c462	0.024141494
10	0xbd749400	-0.059711456
11	0xbd4029bd	-0.046914805
12	0xba556c64	-0.00081414566
13	0x3e4e44c6	0.20143422
14	0x3d6524e9	0.055943403
15	0x3dab7e35	0.083736815
16	0x3d1ce71b	0.038306337
17	0xba50488f	-0.00079453824
18	0xbd0de6db	-0.03464399
19	0xbd032e67	-0.032026675
20	0x3d7e4adb	0.062083106
21	0xbbf8fbf6	-0.0075983955
22	0x3dbe3b19	0.09288616
23	0xbc9ce4c7	-0.019152058
24	0xbcc58185	-0.024109611
25	0xbc7f82d5	-0.015595158
26	0x3d11113d	0.03541683
27	0xbc95609a	-0.01823454
28	0xbbe3bc52	-0.0069499398
29	0xbcc00971	-0.023442002
30	0xbd854686	-0.06507592
31	0x3d581953	0.052758526
32	0xbd1071f1	-0.035264913
33	0xbd7e171e	-0.062033765
34	0x3d84f1ec	0.064914554
35	0x3d3820f0	0.044953287
36	0xbc8509a9	-0.016239958
37	0x3d91f712	0.07127203
38	0xbcda78c9	-0.026668923
39	0x3b00a651	0.0019630382
40	0xbd9b5120	-0.07583833
41	0xbd08b5c2	-0.033376463
42	0x3bf96624	0.007611053
43	0xbc6c4913	-0.014421719
44	0xbb53402d	-0.0032234297
45	0xbc845dcd	-0.016158009
46	0x3c540690	0.012941018
47	0x3dc64293	0.09680667
48	0x3cb71eec	0.022353612
49	0x3d9a7569	0.075419255
50	0xbd172c2f	-0.03690737
51	0x3d96df1e	0.07366775
52	0x3cdb1647	0.026744021
53	0x3db734b1	0.08945597
54	0xbce75657	-0.028239412
55	0x3d23b3f9	0.039966557
56	0x3ca31d71	0.0199115
57	0x3b9dffff	0.004821777
58	0x3d7cc0ce	0.06170731
59	0x3cbff8d1	0.023434075
60	0x3d833458	0.06406468
61	0x3df0ba14	0.117542416
62	0x3de8c62a	0.11365922
63	0xbc49165d	-0.012273398
64	0x3d26b701	0.04070187
65	0xbd090159	-0.03344855
66	0x3cda9a91	0.026685031
67	0xbcaca64d	-0.021075392
68	0x3d53c331	0.05169982
69	0x3d025207	0.03181651
70	0xbccbfc6e	-0.024900641
71	0x3baab01c	0.005208982
72	0x3d4996db	0.049216133
73	0x3e0a2309	0.13489927
74	0x3bb400af	0.0054932456
75	0xbd59239d	-0.05301248
76	0xbd4b5973	-0.049645852
77	0x3dd6e38c	0.1049262
78	0xbc89aeee	-0.016807046
79	0xbd2320df	-0.03982627
80	0x3d94adfc	0.072597474
81	0x3cac2c85	0.021017322
82	0xbd6e5207	-0.058183696
83	0x3d262a3f	0.040567633
84	0x3da374af	0.0798124
85	0x3d85fdc0	0.065425396
86	0xbd154965	-0.036446948
87	0xbc325e82	-0.01088679
88	0xbd5519ed	-0.052026678
89	0x3d7b27d2	0.061317272
90	0x3b3f38f1	0.0029178227
91	0xbd0e37c2	-0.034721144
92	0xbd88e68a	-0.06684597
93	0x3d5d5263	0.05403365
94	0x3de09932	0.1096672
95	0xbce3c6a4	-0.02780468
96	0x3d61d6f7	0.055136647
97	0xbcfe2e5d	-0.031027967
98	0x3c87d3cb	0.016580483
99	0x3c5cb829	0.013471642
100	0xbd0de5d2	-0.034643
101	0xbd7d9369	-0.06190816
102	0x3c946578	0.01811479
103	0x3d2e9538	0.042622775
104	0x3d861592	0.06547083
105	0xbce1d56b	-0.027567586
106	0xbc410930	-0.011781976
107	0x3d18b95b	0.037286144
108	0x3d80d75b	0.06291076
109	0xbd0c4dc0	-0.034253836
110	0xbd42cd02	-0.047558792
111	0x3d90917f	0.07059001
112	0xbcb6bda5	-0.022307226
113	0x3d600624	0.054693356
114	0xbbb849a6	-0.005624014
115	0xbda76b4f	-0.08174764
116	0xbc028b60	-0.0079678
117	0x3d371de5	0.044706244
118	0x3d103ed9	0.035216186
119	0xbda090e4	-0.07840136
120	0x3dc6a788	0.09699923
121	0xbd4b5b02	-0.04964734
122	0x3c9722bc	0.01844918
123	0x3d0570b1	0.032578174
124	0xbc8be070	-0.017074794
125	0x3d133efe	0.035948746
126	0x3d52de15	0.051481325
127	0xbd459bac	-0.048244163
128	0xbd4298e3	-0.047509085
129	0x3d529b16	0.051417433
130	0x3daa1288	0.08304316
131	0x3c4394c8	0.011937328
132	0x3d85fabb	0.06541964
133	0xbd3765ea	-0.044774927
134	0x3d15a8d3	0.036537956
135	0x3d80bbfd	0.06285856
136	0x3cbe3d46	0.023222577
137	0x3d2662e9	0.04062167
138	0xbd5cb858	-0.05388674
139	0x3d90c4f4	0.07068816
140	0xbd7e3255	-0.06205972
141	0xbddacbaa	-0.10683377
142	0xbd81e4aa	-0.06342442
143	0xbb62ee2d	-0.0034626827
144	0x3d860557	0.06543987
145	0x3d812c3c	0.06307265
146	0x3d6883fa	0.056766488
147	0xbd997d16	-0.074945614
148	0xbd20435d	-0.039126743
149	0xbd6c9077	-0.05775496
150	0x3d535f38	0.05160448
151	0xbcd0fb9f	-0.025510607
152	0xbdbf1065	-0.09329299
153	0x3c9a2535	0.01881657
154	0xbd0870ca	-0.03331069
155	0x3d01a0c2	0.03164745
156	0x3d405f6c	0.046966
157	0xbc84c716	-0.016208213
158	0xbcb5d825	-0.022197792
159	0x3c29b868	0.010358907
160	0x3cb0ee1f	0.02159792
161	0xbd14fa46	-0.03637149
162	0xbd469ce8	-0.04848948
163	0x3c1e1322	0.009648116
164	0x3d4bf0c5	0.049790163
165	0x3a0bf92d	0.0005339559
166	0xbd8a5646	-0.067547366
167	0x3cfce2e3	0.030869907
168	0xbd6fd57f	-0.058553215
169	0x3d12098a	0.03565363
170	0xbd408337	-0.047000136
171	0xbce41ba1	-0.027845206
172	0xbd56c184	-0.052430645
173	0xbd4e9dc2	-0.05044342
174	0xbd24435f	-0.040103313
175	0x3db7848b	0.089608274
176	0x3c975b61	0.01847619
177	0x3dafbdbd	0.085811116
178	0x3d99f31d	0.07517073
179	0x3d7f06f4	0.06226249
180	0x3d37bafc	0.044856057
181	0x3b8dbe77	0.0043256837
182	0x3d10b0b9	0.035324786
183	0x3c49f23f	0.012325822
184	0x3d700eaa	0.058607735
185	0xbd1d688e	-0.03842979
186	0xbd383f40	-0.044982195
187	0x3d21fc7b	0.039547425
188	0x3d10fdfc	0.03539847
189	0xbccae2f8	-0.02476643
190	0xbd1ebc83	-0.038753998
191	0x3cbd6c4e	0.023122933
192	0xbc9f6d53	-0.01946131
193	0xbd936b59	-0.07198209
194	0x3d89e151	0.06732429
195	0x3da6ebc5	0.08150438
196	0x3ddb87f1	0.10719288
197	0x3ca300a4	0.019897766
198	0xbd3ece80	-0.046583652
199	0xbd95bdea	-0.07311614
200	0x3cb25d3e	0.021772977
201	0xbd1bef9b	-0.038070302
202	0xbd2a6bef	-0.04160684
203	0x3c9c4779	0.01907705
204	0x3d92dcc0	0.07171011
205	0xb936568d	-0.00017389115
206	0xbd223b1f	-0.039607164
207	0x3d538a8e	0.051645808
208	0xbcd61e72	-0.026137564
209	0x3d932c10	0.07186139
210	0xbd39ff19	-0.045409296
211	0x3cde9d3d	0.027174586
212	0x3bed67dc	0.007245047
213	0x3d84a803	0.06477358
214	0x3d8ae4b6	0.067819044
215	0x3d821b5a	0.06352873
216	0x3c70449c	0.014664795
217	0x3d8a77bc	0.06761119
218	0xbd3ed732	-0.046591945
219	0xbcf2e5b4	-0.029650547
220	0x3d68fb69	0.05688039
221	0xbd4c7171	-0.049912874
222	0xbbd64065	-0.006538438
223	0x3d093f69	0.03350774
224	0xbd4b254c	-0.049596116
225	0xbbe2bbc8	-0.006919358
226	0xbd4461b6	-0.047944747
227	0x3cffaf07	0.03121139
228	0xbba58814	-0.005051622
229	0x3d76f9bc	0.06029676
230	0xbd30dd08	-0.04317954
231	0x3ce6665f	0.028124986
232	0x3cc3addd	0.023886615
233	0xbce75eca	-0.028243441
234	0x3d8816cd	0.06644974
235	0xbc01beac	-0.007918995
236	0xbcd37746	-0.02581371
237	0xbcd90368	-0.026490882
238	0x3adae274	0.0016699568
239	0xbd7151f0	-0.058916032
240	0x3d5b2794	0.05350454
241	0x3d4623b7	0.048373904
242	0xbcaac1c3	-0.020844346
243	0x3c1954de	0.009358613
244	0xbd956d9e	-0.072962984
245	0x3d515230	0.05110377
246	0x3d8ef061	0.069794424
247	0x3d816b22	0.06319262
248	0xbd816e19	-0.063198276
249	0xbb8a2ebc	-0.004216997
250	0x3caa77c0	0.020809054
251	0x3cac3d77	0.021025402
252	0xbcaa12be	-0.02076089
253	0xbda0f6e5	-0.078595914
254	0x3d7e29e3	0.062051665
255	0xbc9db9b5	-0.019253591

lstm.bias_hh_l0 f4 [512]
0	0xbd6b663c	-0.057470545
1	0xbd450b7a	-0.048106648
2	0x3dc647b1	0.09681643
3	0xbd095f9d	-0.03353845
4	0x3d0b691c	0.034035787
5	0x3be6030b	0.0070194057
6	0x3d20cc8c	0.03925757
7	0xbc05e19a	-0.008171463
8	0x3dc42510	0.095773816
9	0x3d0e97a9	0.034812603
10	0xbcb88071	-0.022522183
11	0x3db72d8c	0.08944234
12	0x3d8b5f78	0.068053186
13	0x3e930ce1	0.28720763
14	0x3ce3e622	0.027819697
15	0x3d57401b	0.05255137
16	0x3c8255f6	0.01591013
17	0xbafde9b6	-0.001937202
18	0x3ca52d67	0.020163251
19	0x3d0604fb	0.032719593
20	0x3c8c3cac	0.017118774
21	0x3d6ad657	0.057333317
22	0x3d3f4d9c	0.046704873
23	0xbd8ed678	-0.069745004
24	0xbd0543bc	-0.0325353
25	0xbd18a42e	-0.03726595
26	0x3c1ddc86	0.009635096
27	0xbc624961	-0.01381144
28	0x3a139fdc	0.0005631426
29	0x3cc72ae7	0.02431245
30	0xbd98aa1f	-0.07454323
31	0x3d4957df	0.049156066
32	0x3d79142f	0.060810264
33	0xbc0d5bb7	-0.008627824
34	0x3d9e8ab0	0.07741296
35	0xbcd813c6	-0.026376616
36	0xbaf5b51f	-0.0018745995
37	0xbd20a6bd	-0.039221514
38	0xbc219f9e	-0.009864716
39	0xbd312d6a	-0.0432562
40	0xbccdbaac	-0.025113426
41	0xbd63aef6	-0.055586778
42	0x3daf82b1	0.08569849
43	0x3d3f5e99	0.046721075
44	0x3da7a4ad	0.08185706
45	0xbd3770f6	-0.044785462
46	0xbd9932c9	-0.074803896
47	0x3da51b46	0.080618426
48	0xbd0539f5	-0.032525975
49	0x3d747c83	0.059689056
50	0xbba9ed05	-0.0051857256
51	0x3d112b60	0.035441756
52	0xbcdef97d	-0.027218575
53	0x3dcadd7d	0.09905527
54	0xbb18b181	-0.002329916
55	0xbdaad7f9	-0.08341975
56	0xbd5b22f7	-0.053500142
57	0xbd249065	-0.040176768
58	0xbd2c57fe	-0.042076103
59	0x3d79dfb0	0.06100434
60	0x3dc4c332	0.09607543
61	0xbb04f4e5	-0.002028757
62	0x3d8893c0	0.06668806
63	0x3c802be1	0.015645923
64	0xbd51ee74	-0.051252797
65	0x3dbb994e	0.091601
66	0xbbbd50aa	-0.005777438
67	0xbcf1f162	-0.029534046
68	0x3ddafc51	0.10692657
69	0xbd50f06a	-0.051010527
70	0xbd5e2a4f	-0.054239567
71	0xbca02429	-0.019548493
72	0xbd35a223	-0.04434408
73	0x3de892ae	0.11356102
74	0xbd65adcb	-0.056073945
75	0x3c5e78f9	0.013578647
76	0xbd1af823	-0.037834298
77	0x3c359ef9	0.011085265
78	0xbd3e2402	-0.04642106
79	0x3d193409	0.03740314
80	0xbcab0989	-0.02087857
81	0x3da4088b	0.08009442
82	0x3b953cab	0.0045543513
83	0x3d37f539	0.044911597
84	0xbb84edd3	-0.004056671
85	0x3ce309f0	0.0277147
86	0xba1578e6	-0.0005701914
87	0x3d5420b6	0.051789008
88	0x3d997683	0.074933074
89	0xbb84e4be	-0.0040555885
90	0xbba90f78	-0.0051593147
91	0xbd17d118	-0.03706464
92	0x3c1867b0	0.009302065
93	0x3db82f18	0.089933574
94	0x3d976995	0.07393185
95	0xbcdaca4d	-0.026707793
96	0xbae07e10	-0.0017127413
97	0xbd0d182d	-0.034446884
98	0xbc079f45	-0.008277719
99	0x3de0b8c8	0.10972744
100	0x3d9afe2c	0.07568011
101	0x3b2b427f	0.0026132164
102	0x3d435124	0.047684804
103	0x3d9a6d7f	0.07540416
104	0x3d3ddff0	0.04635614
105	0x3db2d69f	0.08732342
106	0xbd9a3d9b	-0.075312816
107	0xbd9ec166	-0.077517316
108	0xbce4eebc	-0.027945869
109	0x3c81875e	0.015811618
110	0x3b3052d5	0.002690484
111	0xbca63e9d	-0.020293528
112	0x3d4fae12	0.050703116
113	0xbd54bfbc	-0.051940665
114	0x3c627c51	0.013823585
115	0x3cccdbe8	0.025007203
116	0xbcaaef85	-0.020866165
117	0x3c89da37	0.016827686
118	0x3d2e798d	0.04259639
119	0x3d443542	0.047902353
120	0x3c7ffaa4	0.015623722
121	0xbd8bab69	-0.06819803
122	0x3d39eac1	0.045389894
123	0x3d937b97	0.07201307
124	0x3be1cf6d	0.006891182
125	0xbd2df8e5	-0.042473692
126	0x3d7f31e1	0.062303428
127	0x3da39acb	0.07988509
128	0xbcd54fab	-0.026038965
129	0xbd42f28d	-0.047594596
130	0xbd4cea9c	-0.05002843
131	0x3d52663f	0.05136704
132	0x3c9a85b3	0.01886258
133	0xbdd36161	-0.10321308
134	0x3d966aa3	0.07344558
135	0xbd876381	-0.06610776
136	0x3d9090ab	0.07058843
137	0x3d05f073	0.032700013
138	0x3cb6e204	0.02232457
139	0x3db5e890	0.088822484
140	0xbd38e142	-0.045136698
141	0xbdae3046	-0.08505301
142	0x3d2b3ce9	0.041806135
143	0x3d195032	0.037429996
144	0x3d252dc9	0.040326867
145	0x3cc5d979	0.02415155
146	0x3c32881c	0.010896709
147	0xbb07e286	-0.0020734384
148	0xbcb34d1b	-0.021887353
149	0xbd83f539	-0.06443257
150	0x3c8a8d3c	0.016913049
151	0xbdb13df5	-0.086543955
152	0xbd4bce5c	-0.049757347
153	0x3da1f557	0.07908123
154	0x3d8b705f	0.068085425
155	0x3dacdfd1	0.08441127
156	0xbc7f9934	-0.015600491
157	0x3bf61599	0.007509899
158	0xbbb01efd	-0.005374788
159	0xbd88cc01	-0.06679536
160	0x3dacbd3c	0.08434531
161	0x3cb68938	0.022282228
162	0x3d2edad1	0.04268915
163	0x3da3c0fd	0.07995794
164	0x3d48ca27	0.049020912
165	0x3d7f00c9	0.06225661
166	0x3d2162e4	0.03940095
167	0xbc44fe63	-0.012023541
168	0xbd99a244	-0.07501653
169	0x3d196df7	0.037458386
170	0xbd94d506	-0.072671935
171	0xbdb3d0a7	-0.08780032
172	0x3d48ad97	0.048993673
173	0x3d68d000	0.05683899
174	0x3d9a7a7a	0.07542892
175	0xbd196117	-0.037446108
176	0x3c86e215	0.016465226
177	0xbd915160	-0.07095599
178	0xbcb27f9f	-0.02178937
179	0xbca81172	-0.020516131
180	0xbd768979	-0.060189698
181	0x3daf650d	0.08564196
182	0xbdb84303	-0.089971565
183	0x3d6cb62c	0.05779092
184	0x3d393553	0.04521687
185	0xbd12428a	-0.035707988
186	0x3d881cb2	0.06646098
187	0xbd8e8496	-0.069588825
188	0x3d8df9d6	0.06932418
189	0xbd27ea1f	-0.04099476
190	0x3d4ffcb2	0.0507781
191	0xbcb7b3d1	-0.02242461
192	0xbc893c9a	-0.01675253
193	0x3db09a48	0.08623177
194	0x3d8e1cd4	0.06939092
195	0x3d861c21	0.06548334
196	0x3ddee4e9	0.10883505
197	0x3b5d1eab	0.0033740203
198	0x3da5b841	0.08091784
199	0x3d5b297d	0.053506363
200	0xbd549ad4	-0.051905468
201	0xbe16cff5	-0.14727767
202	0xbd551e12	-0.05203063
203	0x3d8081bc	0.06274745
204	0xbbdfcfc4	-0.0068301875
205	0xbdb3b772	-0.08775224
206	0x3d6abf83	0.057311546
207	0x3da2e730	0.07954252
208	0xbd2ee004	-0.042694107
209	0xbda100f7	-0.07861512
210	0x3dc18305	0.09448818
211	0x3d15feab	0.036619823
212	0xbda6a9d4	-0.08137861
213	0x3c928295	0.017884532
214	0xbc7ba22b	-0.015358488
215	0x3d87ee75	0.06637279
216	0xbd8f8332	-0.070074454
217	0x3dddbe43	0.10827305
218	0xbda51c49	-0.080620356
219	0xbb37d043	-0.0028047718
220	0xbcf7070f	-0.030154733
221	0xbd87adad	-0.06624923
222	0xbce6235c	-0.028093033
223	0xbd491ab9	-0.04909775
224	0xbbb77bf2	-0.005599492
225	0x3d66a1ae	0.056306534
226	0x3da7030a	0.081548765
227	0x3ddd2c0f	0.10799419
228	0xbd81ba79	-0.06334395
229	0x3d7e224e	0.062044434
230	0x3d14f653	0.036367726
231	0xbd80fb13	-0.062978886
232	0xbd357135	-0.044297416
233	0x3da17c3e	0.078850254
234	0xbd7524f5	-0.059849698
235	0x3bd9702e	0.0066356873
236	0xbcd7e748	-0.0263554
237	0xbda3f7db	-0.08006259
238	0x39b3f994	0.0003432749
239	0xbcc10b0b	-0.023564836
240	0x3c172f8b	0.009227644
241	0xbd497ba9	-0.049190197
242	0x3d6e46f3	0.05817313
243	0xb8c700a7	-9.489181e-05
244	0xbc41df6c	-0.011833053
245	0x3d782d0a	0.060589828
246	0x3ce4c120	0.02792412
247	0x3d7c5f5b	0.061614376
248	0xbcbcc42f	-0.023042766
249	0x3d03a7ec	0.032142565
250	0x3d2220d6	0.039582096
251	0x3c3a88d5	0.011385162
252	0x3d843687	0.06455713
253	0x3d86ea74	0.06587687
254	0xbb3b798e	-0.0028606388
255	0x3cd3c99a	0.025852967

lstm.weight_ih_l1 f4 [512, 128]
0	0xbd15b929	-0.036553536
1	0xbd8c1f23	-0.06841876
2	0x3dbcc162	0.09216572
3	0x3da08953	0.078386925
4	0xbd893cc4	-0.06701043
5	0xbd731ca9	-0.059353504
6	0x3dae99c9	0.08525426
7	0xbcbd457a	-0.023104418
8	0xbcf97d99	-0.030455397
9	0x3d1708fb	0.0368738
10	0x3d74d54f	0.05977374
11	0xbd51877a	-0.05115459
12	0x3d597dc6	0.053098463
13	0x3dffb648	0.12485939
14	0x3cfac10f	0.030609636
15	0xbd95f893	-0.073228024
16	0x3d301cf0	0.042996347
17	0x3d5aa1f3	0.053377103
18	0xbd10633e	-0.035250895
19	0x3c8da820	0.017292082
20	0x3db3a7b6	0.08772223
21	0xbd9218bb	-0.07133623
22	0xbcc38548	-0.023867264
23	0x3d34a44a	0.04410199
24	0xbc9448b0	-0.018101066
25	0xbd5e3351	-0.054248158
26	0x3d69cc7e	0.057079785
27	0x3c17fac1	0.009276093
28	0xbdaff6dc	-0.085920066
29	0xbc1ec1cb	-0.0096897585
30	0x3d2a7737	0.0416176
31	0x3d000859	0.03125796
32	0x3b91bea0	0.004447773
33	0xbcf2b36f	-0.029626576
34	0x3d86ec82	0.06588079
35	0xbcd8c76f	-0.026462285
36	0x3da421d6	0.08014266
37	0xbcc1e294	-0.023667611
38	0xbcdb770c	-0.026790164
39	0xbd887f06	-0.06664853
40	0xbbf601fa	-0.00750756
41	0xbd649b3c	-0.055812106
42	0xbd7f356d	-0.06230681
43	0xbcf65ea7	-0.03007443
44	0xbd846a79	-0.064656205
45	0x3cd1827e	0.025574919
46	0x3d130466	0.035892867
47	0x3d3ced84	0.04612495
48	0x3ccd9d5b	0.025099447
49	0xbd0a9c3a	-0.033840396
50	0x3d39d10a	0.04536537
51	0xbc90619f	-0.017624674
52	0xbce9e11b	-0.028549721
53	0x3d9c8be6	0.07643871
54	0xbc1e64aa	-0.009667555
55	0xbcc2f927	-0.023800446
56	0xbd94cd7c	-0.072657555
57	0x3c9e6453	0.019334948
58	0xbcd316ae	-0.02576765
59	0x3d1a015c	0.037598953
60	0xbd9d3886	-0.076767966
61	0x3d273d6f	0.040830072
62	0x3d195f0b	0.037444156
63	0xbcb33f42	-0.02188075
64	0xbcea10e8	-0.028572515
65	0x3ddf827b	0.10913559
66	0x3dd55408	0.10416418
67	0xbd3da35b	-0.046298366
68	0x3c668ab6	0.014071157
69	0xbd0c4f8f	-0.03425556
70	0x3d69acf5	0.05704971
71	0xbd01acd5	-0.031658966
72	0x3d7961cc	0.060884282
73	0x3a87a030	0.0010347422
74	0x3cf727a7	0.030170275
75	0xbc08aec7	-0.008342451
76	0x3b18409f	0.0023231877
77	0xbd38660c	-0.045019194
78	0x3c1f5cfa	0.009726757
79	0x3d0e95e1	0.034810904
80	0xbd361430	-0.044452846
81	0xbd82db72	-0.06389512
82	0x3d3e0e67	0.046400454
83	0x3caaac84	0.020834215
84	0x3d88ab2d	0.06673274
85	0xbd4fc388	-0.050723583
86	0xbc472b72	-0.012156354
87	0x3dcbf107	0.09958082
88	0xbd1c6b28	-0.03818813
89	0x3d309c90	0.04311806
90	0x3d92b450	0.07163298
91	0xbd684657	-0.056707706
92	0xbd81abc2	-0.06331588
93	0xbcf6d01d	-0.030128533
94	0x3d1ab774	0.03777261
95	0xbc9119ee	-0.01771256
96	0xbd90c8da	-0.070695594
97	0xbd9bc420	-0.07605767
98	0xbd5544b5	-0.052067477
99	0xbcfc0963	-0.030766195
100	0xbd422f55	-0.04740842
101	0x3b90062f	0.0043952684
102	0x3d5d2f45	0.054000158
103	0x3d2f3d44	0.042783037
104	0x3d83d3bc	0.064368695
105	0x3ce6f407	0.028192533
106	0x3d49fb6a	0.049312033
107	0xbd05634e	-0.032565407
108	0xbd5aa883	-0.05338336
109	0x3d147e7f	0.03625345
110	0xbbb44090	-0.0055008605
111	0xbd5fafc4	-0.054610983
112	0xbd4a7be6	-0.049434565
113	0xbd37c10c	-0.04486184
114	0xbd8d9e1b	-0.06914922
115	0xbd2b65d9	-0.041845176
116	0xbd52fd78	-0.051511258
117	0x3d801eb1	0.06255854
118	0xbb708e72	-0.0036705998
119	0x3b21448f	0.0024607514
120	0x3d049beb	0.032375257
121	0x3ce6da3f	0.02818024
122	0xbd6128b8	-0.054970473
123	0x3da83712	0.08213629
124	0xbc11579e	-0.008870987
125	0xbb638b27	-0.0034720392
126	0x3d9f4f07	0.07778745
127	0x3cf13caf	0.029447882
128	0x3be4c6d9	0.0069817123
129	0x3cf8eac9	0.030385392
130	0xbda00395	-0.07813183
131	0x3d312b0e	0.04325395
132	0xbdbb7c7c	-0.09154603
133	0xbc22f28c	-0.009945523
134	0x3db00a34	0.08595696
135	0x3d8ca053	0.06866517
136	0x3d8119bc	0.063037366
137	0x3d8663aa	0.06561978
138	0x3d7b4853	0.06134827
139	0xbc92a377	-0.017900212
140	0xbd46f8da	-0.048577167
141	0xbcb09a7e	-0.021558043
142	0x3d5ac640	0.053411722
143	0xbd6f06ec	-0.05835621
144	0x3ca637f3	0.02029035
145	0x3c81727a	0.015801657
146	0xbd68c15d	-0.05682503
147	0x3d33ae71	0.043867532
148	0xbcb74163	-0.022370046
149	0xbc5f2e00	-0.013621807
150	0xbd8511b2	-0.06497516
151	0xbd205add	-0.039149154
152	0xbd94359a	-0.07236786
153	0xbceba4f3	-0.028765177
154	0x3dc11280	0.09427357
155	0x3d1eccbd	0.038769472
156	0xbdabde5b	-0.0839202
157	0xbd98f218	-0.07468051
158	0xbdacf5b0	-0.08445299
159	0x3d171649	0.036886487
160	0xbd7d20ca	-0.06179885
161	0xbd8ad647	-0.067791514
162	0x3d212338	0.039340228
163	0x3cb3a0ac	0.0219272
164	0x3b9e4d83	0.0048310175
165	0xbd2c31dc	-0.042039737
166	0x3d5b8108	0.05358985
167	0x3d9d1c9e	0.07671474
168	0x3d9af1bd	0.07565639
169	0x3cb2b282	0.021813635
170	0xbd034ff7	-0.032058682
171	0xbd0badc9	-0.03410128
172	0xbcc248cc	-0.023716353
173	0xbd509934	-0.050927356
174	0x3bcf5abd	0.0063279555
175	0x3d02ebf4	0.031963304
176	0x3d02eddf	0.031965133
177	0xbcc0fd78	-0.023558363
178	0x3bb56fdb	0.005537016
179	0xbcfac28e	-0.030610349
180	0x3d80778c	0.06272802
181	0x3cef14b8	0.029184684
182	0xbd186aa2	-0.037211068
183	0x3d1c6b2f	0.038188156
184	0xbca1e5cc	-0.019762896
185	0xbd894224	-0.067020684
186	0x3d95cd12	0.07314505
187	0x3d68ecd8	0.056866497
188	0xbccf17a2	-0.025279824
189	0x3d4d07b0	0.05005616
190	0x3d5696c7	0.052389886
191	0xbd9be18d	-0.0761138
192	0x3d1def6c	0.03855841
193	0xbcacacef	-0.021078555
194	0xbd135cae	-0.035977058
195	0xbd92836c	-0.07153973
196	0xbb988667	-0.004654694
197	0x3d341a14	0.043970183
198	0x3c218882	0.009859206
199	0xbd560345	-0.05224921
200	0xbd3c02f5	-0.045901258
201	0xbc4b051d	-0.012391356
202	0x3d3429fe	0.04398536
203	0xbd271ead	-0.04080074
204	0x3d183e05	0.03716852
205	0x3c615809	0.013753899
206	0xbd7b4326	-0.061343335
207	0xbd1457f3	-0.036216687
208	0xbc00b42a	-0.007855454
209	0x3d94610d	0.072450735
210	0xbcedcacf	-0.02902737
211	0xbd85662e	-0.0651363
212	0x3d5e1555	0.054219563
213	0x3ce6661a	0.028124858
214	0xbd97acff	-0.07406043
215	0x3da436ff	0.08018302
216	0xbbb2c76c	-0.005455902
217	0xbe0071ca	-0.12543407
218	0x3d835741	0.06413127
219	0x38ba10fb	8.872334e-05
220	0x3d93fb2e	0.07225643
221	0x3d31bd86	0.043393634
222	0x3d302aad	0.04300945
223	0xbd87e1a8	-0.066348374
224	0x3d47c46c	0.048771307
225	0xbd84ffa0	-0.06494069
226	0xbc57fbd7	-0.013182602
227	0x3d4047cb	0.046943467
228	0xbd50c93c	-0.050973162
229	0x3c9a8a0f	0.01886466
230	0xbd3da9cd	-0.046304513
231	0x3dc05c34	0.09392586
232	0x3d063e8a	0.032774486
233	0xbd7c14ec	-0.06154339
234	0x3d965cf3	0.073419474
235	0x3d9f87b0	0.07789552
236	0x3d203b7f	0.03911924
237	0x3da8c9cf	0.08241617
238	0xbcdbedaa	-0.026846725
239	0x3d111302	0.035418518
240	0xbd8f7132	-0.07004012
241	0x3c1112e8	0.008854605
242	0x3d77a737	0.060462203
243	0x3cde1600	0.0271101
244	0x3d80891d	0.06276152
245	0x3d3df5bb	0.046376925
246	0x3c8109d6	0.01575176
247	0xbd80c417	-0.06287401
248	0xbd90da51	-0.070728905
249	0x3d957739	0.072981305
250	0xbd804be1	-0.06264473
251	0x3d341d76	0.04397341
252	0xbd49e74c	-0.049292848
253	0xbcc3498a	-0.023838777
254	0x3ca25287	0.019814743
255	0xbd228e86	-0.039686702

lstm.weight_hh_l1 f4 [512, 128]
0	0xbd89cbc6	-0.0672832
1	0xbd3405a6	-0.0439507
2	0x3d612399	0.05496559
3	0x3da1544b	0.07877406
4	0x3d719bdf	0.05898654
5	0xbcac8196	-0.021057885
6	0x3d96b0e3	0.07357957
7	0x3d727665	0.05919494
8	0xbb1abcee	-0.0023611146
9	0x3c463fc3	0.012100163
10	0xbc1a931c	-0.009434488
11	0x3cc88a27	0.024479939
12	0x3d808a72	0.06276406
13	0x3cb44421	0.022005143
14	0x3bdac327	0.006676096
15	0x3d8f057c	0.06983468
16	0xbca4270c	-0.02003815
17	0xbcd19681	-0.025584461
18	0x3d5a2aca	0.053263463
19	0xbce4833b	-0.027894607
20	0xbcc49d33	-0.02400074
21	0xbd320ae7	-0.04346743
22	0xbdae8125	-0.08520726
23	0xbc3e38fc	-0.011610266
24	0x3d5ad274	0.05342336
25	0xbdc912fe	-0.098180756
26	0x3ca3f05d	0.020012075
27	0x3c8e2c43	0.01735509
28	0x3d8a5f56	0.06756465
29	0xbbd336fd	-0.006445764
30	0xbbdf9e8d	-0.0068243206
31	0x3c25e83d	0.010126171
32	0x3d48228e	0.04886108
33	0xbd13cc6f	-0.036083635
34	0x3da6d66d	0.08146367
35	0x3c9728b0	0.018452018
36	0xbccb604c	-0.024826191
37	0x3d35f0a6	0.044418953
38	0x3da5e7f0	0.08100879
39	0xbc767795	-0.015043159
40	0x3d9ac875	0.075577654
41	0x3d544861	0.05182684
42	0xbd966da1	-0.07345129
43	0x3d2499d1	0.040185753
44	0xbcc07a63	-0.023495859
45	0x3d59719d	0.053086866
46	0x3d9db2b6	0.07700102
47	0xbdb65ad5	-0.089040436
48	0x3ce22a98	0.0276082
49	0xbcb06a28	-0.021534994
50	0x3d8921e0	0.06695914
51	0xbda2b5d9	-0.07944841
52	0x3ce1accc	0.027548216
53	0xbd328e29	-0.043592606
54	0xbc2e5352	-0.010639982
55	0xbd8d1044	-0.06887868
56	0xbcba1a38	-0.02271758
57	0x3d39fc24	0.045406476
58	0xbd593041	-0.053024534
59	0xbcad2fc4	-0.02114094
60	0x3d424fdb	0.047439437
61	0xbd2e218e	-0.04251247
62	0x3d83bb71	0.06432236
63	0xbd1a9f2c	-0.037749454
64	0xbd0837c3	-0.033256304
65	0xbd3be2f3	-0.045870733
66	0x3d90c653	0.07069077
67	0xbcf87c08	-0.03033258
68	0xbd32e9a3	-0.043679845
69	0xbd3ee000	-0.04660034
70	0x3d1324bd	0.03592371
71	0x3db99323	0.09061267
72	0x3d95c903	0.073137306
73	0xbd9b5596	-0.075846836
74	0x3d47d382	0.048785694
75	0xbc8e2b10	-0.017354518
76	0x3d9d7076	0.07687466
77	0xbd902c23	-0.070396684
78	0x3ba93175	0.0051633664
79	0x3da1fc14	0.07909408
80	0xbca14727	-0.019687248
81	0x3da2dca0	0.07952237
82	0xbdb43a3d	-0.088001706
83	0xbd5fdb40	-0.054652452
84	0xbd6e17f8	-0.058128327
85	0xbb81a513	-0.003956446
86	0xba740915	-0.00093092147
87	0xbd328dfb	-0.043592434
88	0xbcb22dba	-0.02175032
89	0xbca2837b	-0.019838085
90	0xbda12958	-0.07869214
91	0x3cb656cb	0.022258183
92	0x3c597bd6	0.013274154
93	0xbd999873	-0.074997805
94	0xbd384a6f	-0.04499286
95	0x3c444e16	0.011981508
96	0xbce386c1	-0.027774217
97	0xbd38f901	-0.045159344
98	0x3c99f61f	0.018794117
99	0x3d79649a	0.060886957
100	0xbc21058c	-0.009827983
101	0xbd1014a2	-0.035175927
102	0xbc6fb1f5	-0.014629831
103	0x3db35636	0.08756678
104	0xbb4edaf3	-0.003156361
105	0x3d406c23	0.046978127
106	0x3cf417d8	0.029796526
107	0x3d0c030a	0.034182586
108	0x3ba34b38	0.004983332
109	0xbd4f476e	-0.05060523
110	0x3d11eaf1	0.03562445
111	0xbd925040	-0.07144213
112	0x3d71694d	0.058938313
113	0x3d2650cb	0.040604394
114	0x3d8ff69e	0.0702946
115	0x3d46caa4	0.048533097
116	0xbd4d8755	-0.05017789
117	0xbd9240d2	-0.0714127
118	0x3d9ac891	0.07557786
119	0x3c6478bc	0.013944801
120	0x3c27fd8d	0.010253322
121	0x3bbad65f	0.0057018246
122	0x3d43b94e	0.047784142
123	0xbd6fbdb6	-0.05853053
124	0x3d729505	0.059224147
125	0x3d49fdf5	0.049314458
126	0xbcbf9ef4	-0.023391224
127	0x3da9e3b7	0.08295386
128	0xbd035c7c	-0.03207062
129	0xbd733776	-0.059379064
130	0xbda4c3c7	-0.08045154
131	0x3d987017	0.074432544
132	0x3d022b4b	0.03177957
133	0xbce01a27	-0.02735622
134	0xbc418b83	-0.011813047
135	0x3d77ec24	0.060527936
136	0xbcfd3cdf	-0.030912815
137	0xbc3f96f4	-0.011693705
138	0x3d4c7ee9	0.04992572
139	0x3c8c4a97	0.017125411
140	0xbd1708ae	-0.036873512
141	0xbd184bb3	-0.037181567
142	0x3d851521	0.06498171
143	0x3d473b7e	0.04864072
144	0x3da30ea9	0.079617806
145	0xbc47e879	-0.012201422
146	0x3ca57b88	0.020200506
147	0xbcd0bea1	-0.025481524
148	0x3cb43a85	0.02200056
149	0x3d71f6e0	0.05907333
150	0x3d1e0c23	0.038585793
151	0xbb9741d9	-0.004616004
152	0x3d2b8b84	0.0418811
153	0x3cbaece3	0.022818035
154	0xbd4b5f6f	-0.04965156
155	0x3d5e54d0	0.054280102
156	0xbd6a5170	-0.05720657
157	0x3db5317b	0.08847328
158	0x3c059609	0.008153447
159	0xbd900a50	-0.07033217
160	0x3db5c008	0.08874518
161	0x3d6099b4	0.054834083
162	0xbd838be4	-0.064231664
163	0xbd2292ac	-0.03969066
164	0xbd459ed7	-0.048247185
165	0xbc02fbb7	-0.007994584
166	0x3d4fd368	0.050738722
167	0xbd63bc3f	-0.055599447
168	0x3c809f4b	0.015700957
169	0x3d15c8e5	0.03656854
170	0xbc313a80	-0.01081717
171	0xbd1e1956	-0.03859838
172	0x3d256b8a	0.04038576
173	0x3cb9c980	0.02267909
174	0xbdbb43dd	-0.09143803
175	0xbd9223ff	-0.07135772
176	0x3c648b02	0.013949158
177	0xbcfed164	-0.031105705
178	0x3d7ca833	0.061683845
179	0x3d34f38a	0.04417757
180	0x3d8b8bb3	0.06813755
181	0x3c138ceb	0.009005765
182	0x3b2b8ae2	0.002617531
183	0x37d609fc	2.5515437e-05
184	0x3d5d359e	0.05400621
185	0x3d2e9123	0.042618882
186	0x3dddd7cf	0.10832178
187	0x3ca06d81	0.019583466
188	0xbd143ddf	-0.036191817
189	0x3d8dd580	0.069254875
190	0xbc9a7fc0	-0.018859744
191	0x3d08f3ad	0.033435512
192	0x3ce302d0	0.027711302
193	0xbbd0cc96	-0.006372045
194	0x3da5fd5d	0.08104966
195	0xbd68db74	-0.05684991
196	0xbce8bbfe	-0.028409954
197	0x3baa6ba3	0.0052008196
198	0xbd3218b2	-0.043480583
199	0x3c83bf5a	0.016082454
200	0x3d9e7748	0.07737595
201	0xbd651180	-0.055924892
202	0x3d0de8aa	0.034645714
203	0x3b8013ba	0.0039086016
204	0xbd9370f2	-0.07199277
205	0xbbae1291	-0.005312272
206	0xbdae06e5	-0.08497409
207	0x3d47d658	0.0487884
208	0x3da5c3d4	0.08093992
209	0x3cb7cad2	0.02243558
210	0xbd24a17f	-0.040193077
211	0x3ca5edc7	0.020254983
212	0x3d2b37a9	0.04180113
213	0x3da209f9	0.079120584
214	0xbd0031db	-0.031297546
215	0x3d24f194	0.04026945
216	0x3d6fdb16	0.058558546
217	0x3d89a954	0.0672175
218	0xbd3f8c5d	-0.04676472
219	0xbda35d32	-0.0797676
220	0x3d128e52	0.03578026
221	0xbce00e22	-0.027350489
222	0xbd408995	-0.04700621
223	0xbc9b50cf	-0.018959431
224	0x3d720d6d	0.059094835
225	0x3d04c464	0.032413855
226	0x3d21682c	0.039405987
227	0x3dafd84d	0.08586178
228	0xbb801066	-0.003908205
229	0x3d6a1275	0.05714651
230	0x3d8ce4f1	0.068796046
231	0x3d84c2c7	0.06482463
232	0x3be3c7b4	0.0069512967
233	0x3c691f24	0.014228616
234	0xbd948b4f	-0.072531335
235	0xbd871f12	-0.06597723
236	0xbccbe00d	-0.02488711
237	0xbd5da75b	-0.05411468
238	0xbd098de3	-0.03358258
239	0xbd54edec	-0.051984712
240	0xbd94e7c2	-0.07270767
241	0xbc713f95	-0.014724632
242	0xbd5c1d98	-0.05373916
243	0xbd275276	-0.040850125
244	0xbc77e2ae	-0.015129728
245	0x3d18ddbd	0.03732084
246	0x3d6ade3d	0.05734085
247	0xbd3fff53	-0.046874356
248	0x3d665052	0.056228943
249	0xbda41c67	-0.0801323
250	0x3d3919e0	0.045190692
251	0x3c8af9f4	0.01696489
252	0xbc771085	-0.015079622
253	0x3b800201	0.003906489
254	0x3d88d491	0.06681169
255	0x3d5d76de	0.05406844

lstm.bias_ih_l1 f4 [512]
0	0xbbb649c9	-0.005562995
1	0xbcd3a089	-0.025833385
2	0x3b8a170c	0.004214173
3	0xbc086335	-0.008324434
4	0xbce2d6a6	-0.027690243
5	0xbbe8ed72	-0.007108384
6	0xbd0e3638	-0.034719676
7	0x3d6035a7	0.054738667
8	0x3dc4349f	0.09580349
9	0x3cf7dfa3	0.030258005
10	0x3d00d190	0.031449854
11	0xbca71071	-0.020393582
12	0x3ca82447	0.02052511
13	0xbd2e9cd3	-0.042630028
14	0xbc834d41	-0.016028048
15	0xbd479965	-0.048730273
16	0xbd64632f	-0.05575865
17	0xbd1f3dcf	-0.038877305
18	0xbd03ee97	-0.03220996
19	0xbd87b5d0	-0.06626475
20	0x3d58f03a	0.052963473
21	0xbd8e94c5	-0.06961969
22	0x3d46ac16	0.048503958
23	0x3d4f75ac	0.05064933
24	0x3cbca67b	0.023028603
25	0x3d534663	0.051580798
26	0xbd0758ea	-0.03304378
27	0xbbf0324a	-0.0073302137
28	0xbd84fbe6	-0.06493358
29	0x3c752d5a	0.014964426
30	0xbce4cc60	-0.027929485
31	0xbc494566	-0.012284612
32	0x3d2fbc63	0.04290427
33	0x3d8c6435	0.068550505
34	0xbd8b5cc2	-0.068048015
35	0xbd0b9724	-0.034079686
36	0x3dc2d810	0.09513867
37	0xbc0dc8c1	-0.0086538205
38	0xbd69ee06	-0.057111762
39	0x3d18e623	0.03732885
40	0x3cef00c1	0.029175164
41	0xbd22abbd	-0.039714564
42	0x3d935f15	0.0719587
43	0xbd2bda51	-0.04195625
44	0xbd75c6cd	-0.060004044
45	0x3cc4069d	0.023928935
46	0x3a1e5653	0.0006040085
47	0x3d5fed6c	0.054669783
48	0x3d6182e4	0.055056468
49	0x3d1387bd	0.036018122
50	0x3dbd2245	0.09235052
51	0x3b84dbd0	0.004054524
52	0xbb920a4e	-0.004456795
53	0xbc891993	-0.016735828
54	0x3d7ace2f	0.06123179
55	0x3c7a03b9	0.015259677
56	0x3d88cbb1	0.06679476
57	0xbd894371	-0.067023166
58	0xbc777c93	-0.015105384
59	0xbd8fe3b5	-0.070258535
60	0x3dae7e8e	0.08520232
61	0x3d198ac8	0.037485868
62	0x3dc508cd	0.09620819
63	0x3cfb6486	0.030687582
64	0xbdcd6569	-0.10029108
65	0xbd644528	-0.055730015
66	0xbc84f44c	-0.016229771
67	0x3db6a011	0.08917249
68	0x3d83f6f9	0.06443591
69	0x3c81b555	0.015833536
70	0x3c4437ad	0.011976165
71	0x3cc3bd92	0.023894105
72	0xbc6eb39a	-0.014569188
73	0xbd1a7a7f	-0.037714478
74	0xbbac8226	-0.0052645383
75	0x3bf0db49	0.0073503596
76	0xbd92d695	-0.071698345
77	0xbd77779e	-0.06041681
78	0xbd89ecbd	-0.06734607
79	0xbc0516c1	-0.008123101
80	0x3ce8a2e5	0.028397987
81	0x3b6068ca	0.0034242147
82	0xbbcdd73d	-0.006281762
83	0xbb3d8c4e	-0.002892274
84	0xbd6b2608	-0.057409316
85	0xbca5855c	-0.020205192
86	0x3d3e73ad	0.046497036
87	0x3d91c609	0.0711785
88	0x3cdc829c	0.026917748
89	0x3d9adad8	0.075612724
90	0x3cb68df9	0.022284495
91	0xbcaebfd6	-0.021331709
92	0xbdac9e4f	-0.084286325
93	0xbc9e3b74	-0.019315459
94	0x3d1ebd28	0.038754612
95	0xbd758e99	-0.059950445
96	0xbd4e87c9	-0.050422464
97	0x3d48c73f	0.04901814
98	0x3d36a6d0	0.04459268
99	0x3c93b611	0.018031152
100	0x3d8c5936	0.06852953
101	0xbd8e3677	-0.06943982
102	0x3c78613c	0.015159901
103	0x3db701c7	0.08935886
104	0x3c773785	0.0150889205
105	0xbd309e58	-0.04311976
106	0x3da890e9	0.082307644
107	0x3da44bd5	0.08022276
108	0xbbcbae75	-0.0062158653
109	0xbce0edd4	-0.027457155
110	0xbd7bc582	-0.061467655
111	0xbc45908d	-0.012058389
112	0x3d053e5d	0.032530177
113	0xbca23d44	-0.019804604
114	0xbd6b648c	-0.057468936
115	0x3da9a3fa	0.08283229
116	0xbcdfa394	-0.02729968
117	0x3d89e0b0	0.06732309
118	0x3b4bbdb1	0.0031088407
119	0xbc9500a7	-0.018188788
120	0x3aecddb7	0.0018071447
121	0xbd8df34b	-0.0693117
122	0x3d34c951	0.044137303
123	0x39c25cbd	0.0003707166
124	0xbd08fa4b	-0.033441823
125	0xbd9bd7b5	-0.07609502
126	0xbd998f1b	-0.07497998
127	0x3d8c16b6	0.06840269
128	0x3d8229b3	0.0635561
129	0xbd92aaab	-0.071614586
130	0xbbdc8d88	-0.006730739
131	0xbbae9a7e	-0.0053284755
132	0x3daa9010	0.08328259
133	0x3d8d7182	0.069064155
134	0xbd7e5dc1	-0.06210113
135	0x3d99c72d	0.07508693
136	0xbdafe356	-0.08588283
137	0x3d7e10cf	0.06202775
138	0x3d35b32e	0.044360332
139	0x3d8de212	0.06927885
140	0x3d84ccef	0.064844005
141	0xbd9a8832	-0.075455084
142	0xbd6d0be6	-0.057872675
143	0xbd8cdee3	-0.0687845
144	0xbcf1bf9c	-0.029510312
145	0x3dc0f796	0.09422223
146	0x3d97a9bd	0.07405422
147	0xbd58da80	-0.052942753
148	0x3d8f33fe	0.069923386
149	0x3d52732e	0.051379375
150	0x3b01a466	0.0019781827
151	0x3d5cffe8	0.05395499
152	0x3d8efd76	0.069819376
153	0xbcdd7bc9	-0.027036564
154	0x3cfb72b9	0.030694352
155	0x3d307c71	0.043087427
156	0x3d184190	0.0371719
157	0xbd1987cd	-0.037483025
158	0xbd978312	-0.073980466
159	0xbd273451	-0.040821377
160	0x3d57e3ad	0.052707363
161	0xbd5ebc80	-0.054378986
162	0x3dac3b11	0.084097035
163	0x3d011e1c	0.031522855
164	0x3db30fdf	0.087432615
165	0x3d35f632	0.044424243
166	0x3d7cf360	0.061755538
167	0x3d93d837	0.07218974
168	0x3d914261	0.07092739
169	0x3ce55edd	0.027999336
170	0xbd8410fa	-0.064485505
171	0xbd208d3b	-0.039197188
172	0x3cc8be8e	0.024504926
173	0x3d541478	0.051777333
174	0x3d4fe7bb	0.050758105
175	0xbcd8c470	-0.026460856
176	0xbbec673a	-0.007214454
177	0x3cc26ca4	0.023733445
178	0x3d7cbd10	0.06170374
179	0xbc25f4cc	-0.010129165
180	0x3d4a2a58	0.04935679
181	0x3d3f0d2a	0.046643414
182	0x3c89957d	0.016794914
183	0x3d92a5ac	0.07160506
184	0xbd54e73d	-0.05197834
185	0xbc552f75	-0.013011803
186	0x3b0888de	0.0020833532
187	0xbd1f4dd8	-0.038892597
188	0x3db7f738	0.089827
189	0xbcd4bd05	-0.025969038
190	0xbcdb9f6a	-0.026809413
191	0x3d829f3e	0.06378029
192	0x3d8cd862	0.06877209
193	0xbd6f1873	-0.058372926
194	0x3d3aa86d	0.04557078
195	0x3db3c75a	0.08778258
196	0x3dc1c4ed	0.09461389
197	0xbd16be2e	-0.036802463
198	0xbc7c29c9	-0.015390822
199	0x3da819fc	0.08208081
200	0xbd94f176	-0.072726175
201	0xbcd610ac	-0.026130997
202	0xbc5a9583	-0.01334131
203	0x3d2cd54a	0.042195596
204	0x3db3977e	0.08769129
205	0x3d9e6ecd	0.07735977
206	0x3d9c18ef	0.07621943
207	0x3d21d34a	0.03950814
208	0xbc14d000	-0.009082794
209	0x3da5fb7c	0.081046075
210	0xbd512d2d	-0.051068474
211	0x3d124d77	0.035718407
212	0x3d5ed5c9	0.0544031
213	0x3d5c4b29	0.053782616
214	0x3db03630	0.086040854
215	0x3ba5214c	0.0050393697
216	0xba8fa065	-0.0010957835
217	0xbd96355f	-0.073343985
218	0xbd843fc0	-0.06457472
219	0x3daf1c9a	0.08550377
220	0xbd40f8e9	-0.04711238
221	0x3bfd15db	0.0077235526
222	0xbae46277	-0.0017424364
223	0xbd8a48b8	-0.06752151
224	0x3d36591e	0.044518583
225	0x3d8275f2	0.063701525
226	0x3c9e042f	0.019289104
227	0xbd12f096	-0.035873972
228	0x3c6182da	0.013764108
229	0xbd9709f2	-0.07374944
230	0xbd8781af	-0.06616532
231	0xbd73cfdb	-0.0595244
232	0x3b625b06	0.0034539117
233	0xbd070ee2	-0.032973178
234	0xbdac6587	-0.08417802
235	0x3c07da7d	0.008291838
236	0x3d404b7a	0.04694698
237	0xbd978bf0	-0.07399738
238	0xbd0630a8	-0.032761246
239	0x3da83e7c	0.08215043
240	0x3d1d12a4	0.038347855
241	0xbd1b8d7e	-0.037976734
242	0xbd80e438	-0.06293529
243	0xbd63e08e	-0.055634074
244	0x3dac4211	0.08411039
245	0xbd2b2fde	-0.041793697
246	0xbd91c26d	-0.07117162
247	0x3d69ec35	0.05711003
248	0xbacb37c2	-0.0015504288
249	0x3d986296	0.07440679
250	0xbd8f7528	-0.07004768
251	0xbd95f7bd	-0.07322643
252	0x3d729d55	0.059232075
253	0x3c901293	0.017586982
254	0x3d1ed3ab	0.03877608
255	0x3d5324f2	0.051548906
