models/3690.HK_lstm_Close.pth (torch, 809156 bytes, 9 tensors)

lstm.weight_ih_l0 f4 [512, 5]
00000000: 6a3e 783d 029e 71bd cef1 6f3b 12f6 8e3d
00000010: 92be c03c b161 a53d e641 79bd 96d9 47bd
00000020: ed69 563d 1a21 033d 2ef9 8c3d 1649 68bb
00000030: b3ea 173d fddc cb3d 4ff3 04bd e894 e43d
00000040: 3508 ec3b f79d 81bd e674 73bd 7672 4d3d
00000050: b9c6 8abc f88d 8d3d b4b6 c63d 2e56 973d
00000060: 556f a63d 40a6 dc3a d523 d63c 4c39 e5bb
00000070: 5a4f 0bbd 6f35 a23c 081c d53d 1d90 b9bc
00000080: 1df7 77ba 9b30 803d 6c66 c03d a4bd f23c
00000090: 48c3 eb3c 73d7 5dbd db83 893d 9d6e c23d
000000a0: 6967 89bc 4233 d23b b2bb 17bd eda0 663d
000000b0: bdf1 213d 2e9e 52bd eed5 0d3b 7d58 b93d
000000c0: db96 a8bb eb46 dc3b 3ee9 f93c 9b0b ac3d
000000d0: b57e dfbc 7d66 893d 372c 593d cf5d 73bd
000000e0: 788e cdbc 6d9f 923d 3960 363d 154d 303d
000000f0: f278 8b3c 4cdc 9dbd 07c0 9bbc 99f3 a43b
00000100: fb91 a83d 5ece 28bc 4fe9 c7bc 5df7 82bc
00000110: c8a4 a53d 1f8c 863d 19be bc3d 6227 81bd
00000120: d403 92bd bb81 b53d e6d6 3b3d 4839 a5bc
00000130: 4749 f63b 3be0 cf3d 3b60 eebc 6bcd 5dbd
00000140: fc5a 053d 0d65 8f39 f5df b73d 15b4 473b
00000150: dc6c 503d 747c 833d 2d96 aa3c e04b 683d
00000160: 7cbf 9bbd 23cc 3f3d f0fe 8f3d dde6 803d
00000170: 8306 4f3d 3e4c 6d3d 2568 73bd b30b 9a3d
00000180: e838 fc3b 61fb 8c3d cbfb 323d 476b 22bd
00000190: 1f27 fcbc 7c26 2d3d a847 b5bc f558 a33b
000001a0: 9386 a53b 22dc cb3d 1399 763d 9ad5 443c
000001b0: c2dd 413d 9749 793d bdac 443d 35d9 9bbd
000001c0: 675d debb b654 7d3d e48e 9d3d 95be 39bd
000001d0: a276 f73c 5c2e 3fbd aa21 bd3d 0d89 09bc
000001e0: 5268 2abc 4b89 a73c 69ec 61bc df23 cf3d
000001f0: bd1b 37bc 228f b0bc 36d8 c8bc 69fa a63d
00000200: ec8f 3fbb ccec 613d c8ee 66bc 3ade 963d
00000210: 749b 623d d74c a5bd 00a9 8cbd e07b ccbd
00000220: 9202 94bc 2b8b b1bd 76dc 4cbb 3b90 71bc
00000230: 64ff ce3d a8f2 1b3d 0559 e43c 0513 7a3d
00000240: 1f27 483c b534 e1bc 6d6a 65bd 4339 c8bd
00000250: 1129 833d 3283 e8bd 8c96 743d 1a58 98bd
00000260: 6d13 cf3c bd05 b03d 2b3b 6d3d 81b7 b4bd
00000270: 48e7 ae3d 5f67 3abc a66f 103d 8e1a 6fb9
00000280: 95f3 0abd b556 8fbd 8d59 cc3c 762b 27bd
00000290: b5a0 653d be60 bcbc 9dd5 5fbd 21d7 f8bc
000002a0: a47a 993d 8a68 393d 1a97 313d 4564 5ebd
000002b0: 8bb6 083c 82b4 6f3c c779 6f3c e3bf a6bd
000002c0: f2a8 7a3d 44f2 123d 8b3a 913d 1be1 6a3c
000002d0: d625 1f3c 23f5 343d b0af 4dbd 3f2f 18bd
000002e0: 81eb d83c 7566 0bbe 8023 553d e6fb 9e3d
000002f0: 5ba4 c7bc 5635 ae3d 8ac3 06bd e4d9 0b3d
00000300: 9d26 b8bd 72c0 93bd 5416 e83b b922 0abd
00000310: abcb 5fbd 5f31 29bc ca40 dbbc d163 f13c
00000320: fc8d 02bd b6ed a23d 4881 00bd 5c7e 853d
00000330: 2e8a b93c a151 3f3d 37e4 b13d f054 bc3d
00000340: a943 d83d 2297 b13c 9d05 3bbd 24d0 a8bd
00000350: 49d9 af3c 77c8 92bd e381 90bd 358b 833d
00000360: fbdd 1fbd 9c28 883d 9c35 34bd 64c9 05bd
00000370: 2c4f 37bd dc12 86bd e530 0b3b 4d4c 06bc
00000380: ee73 48bc 07f6 8c3c 7ec3 2bbd aeea 86bc
00000390: 901b bf3b aec5 bc3d 6f70 18bd e00c 4cbd
000003a0: dfae b73d 517e 90bd 94d5 4abd 9076 22bd
000003b0: 44ac 753d 685d 8a3d 7743 a23d c565 98bd
000003c0: 6b11 b03c 8bfd 75bd 458a a43d 5cec 32bc
000003d0: 5fac 403d 84ea b9bc 78c1 413c 6c2c 6abd
000003e0: 7b75 da3c 1c6a 433d 1bec 4b3d 1e86 ecbc
000003f0: a2f4 153e ae0e d43d 052d 8d3d a250 4e3d
0.060606398 -0.05898858 0.0036612633 0.06980528 0.023528371 0.08075274 -0.06085386 -0.04879149
0.052347112 0.03201399 0.06883465 -0.0035443953 0.03708906 0.099542595 -0.0324586 0.11161214
0.007203127 -0.063289575 -0.059437655 0.050157987 -0.016940461 0.06911844 0.097028166 0.07389484
0.08126704 0.0016834214 0.026140133 -0.0069953557 -0.034011222 0.01980087 0.10405737 -0.022651726
-0.0009459125 0.06259271 0.093945354 0.029631443 0.02877964 -0.054160547 0.067146026 0.09493754
-0.016772943 0.006414802 -0.037044235 0.056305815 0.03953718 -0.051420383 0.0021642405 0.09050081
-0.0051449365 0.0067223213 0.030506726 0.08400651 -0.027282098 0.06709001 0.053020682 -0.059415635
-0.025092348 0.07159314 0.04452536 0.04304226 0.017025445 -0.07708034 -0.019012464 0.005033922
0.082309686 -0.010303108 -0.024403242 -0.015987093 0.0808807 0.06569695 0.09215946 -0.0630634
-0.071296364 0.08862635 0.04585924 -0.020168915 0.0075160596 0.101501904 -0.02909862 -0.05415098
0.032557473 0.00027350374 0.08978263 0.0030472327 0.050885066 0.06420222 0.020823563 0.056712985
-0.07604882 0.04682554 0.07031047 0.06294034 0.05054332 0.05793404 -0.05942549 0.07521763
0.0076972134 0.06883884 0.04369716 -0.03965309 -0.030780373 0.04227303 -0.022128895 0.0049849697
0.005051443 0.099540964 0.060204577 0.012013817 0.047330625 0.060861196 0.0480163 -0.07609788
-0.006786037 0.061848365 0.0769327 -0.04534777 0.030207936 -0.04667507 0.092349365 -0.008394492
-0.010400848 0.020451209 -0.013789275 0.10114264 -0.011176047 -0.021552626 -0.02451716 0.08153231
-0.0029230071 0.055157468 -0.014095016 0.07366605 0.055324033 -0.08071297 -0.06868172 -0.09984565
-0.018067632 -0.08669122 -0.0031259335 -0.01474386 0.10107306 0.038073212 0.02787448 0.061053295
0.012216358 -0.027490953 -0.0560097 -0.09776547 0.06404317 -0.113531485 0.059713885 -0.07438679
0.025277818 0.085948445 0.057917755 -0.08824063 0.08540207 -0.011377185 0.035262726 -0.00022802709
-0.033923704 -0.0699896 0.024945045 -0.040812932 0.056061465 -0.022995349 -0.054647077 -0.030376019
0.07494095 0.04526571 0.043356992 -0.054294843 0.008344303 0.014630439 0.014616436 -0.08142068
0.061196275 0.035875574 0.07091244 0.014335896 0.009713611 0.044179093 -0.050216377 -0.037154432
0.026479485 -0.13613303 0.05203581 0.077628896 -0.024370363 0.08506267 -0.032901324 0.034143344
-0.0899174 -0.072144404 0.00708274 -0.03372452 -0.054637592 -0.010326712 -0.026764292 0.029466541
-0.031873688 0.07955496 -0.031373292 0.06518242 0.022648897 0.046708707 0.08686107 0.09195888
0.1055978 0.021678511 -0.04565965 -0.08242825 0.021465914 -0.07167142 -0.07056024 0.06423036
-0.039030056 0.066483706 -0.04399644 -0.032662764 -0.04475324 -0.06546566 0.002123886 -0.008196902
-0.012234671 0.017207159 -0.041934483 -0.016469326 0.005832143 0.09217392 -0.0372166 -0.049816966
0.08968901 -0.07055343 -0.04952009 -0.03966385 0.05997874 0.06756097 0.07923024 -0.07441286
0.02149268 -0.06005625 0.08034185 -0.01092061 0.047039386 -0.022694834 0.011825912 -0.05717127
0.026667347 0.047708616 0.049785715 -0.028872546 0.14644101 0.103543624 0.068933524 0.050369866

lstm.weight_hh_l0 f4 [512, 128]
00000000: efcf 363d d4b2 eebc 3d6d afbb 5fd7 e53c
00000010: c58b 0b3b 2e48 30bd 6a90 08bd 0dba 843d
00000020: d175 933d 662e 25bd fe74 1c3d 10ef cdbd
00000030: 536b 8c3c 7271 a13c 1846 823d c3cd dbbc
00000040: 4a7c ac3d 555f 8dbd b2e0 99bb b4e9 aa3d
00000050: 5eaa a03d 7c76 eabc aaab ffbc f2cd c53b
00000060: d935 c73d 895e 8b3c b26f cd3c 0a2b a3bb
00000070: 62e2 3bbd 54fe ff3c d51c 27bd 5176 d2bc
00000080: c4ac 8fbd a385 c03c a3fd 5a3b 2f1c c03d
00000090: 81eb 25bd 00b6 203d e961 7e3c a350 24bd
000000a0: 1d1a 3b3d a1d6 853d c3dc 6f3d 9536 a73c
000000b0: e5f2 13bd 1b73 57bd 89f8 843c e2be ad3a
000000c0: 353a 003d f9b6 6b3d 864a e73d f867 183d
000000d0: 6e19 e7bc 932b 0cbb 5240 8dbd 2f8e bebd
000000e0: 0774 82bd 7df2 4f3d 50fa 14bd f3c9 10bc
000000f0: 8cdb 3f3d 7548 2fbc ea7c 17bd c811 6dbd
00000100: 944c 7dbc cce6 c93c e0b3 59bd 5e59 e03b
00000110: f834 663d 21f0 68b9 39d1 1fbd d016 863d
00000120: 1d7b 593d 32aa dc3c 1304 90bd 764e 903d
00000130: c707 5e3c b73f 27bd 777a 5fbc a495 debc
00000140: ff37 0f3d b3cf 783d 081b da3c 7d7c 8bbd
00000150: dbef 2e3d 99a3 15bc b0fa 67bd 715e fb3b
00000160: 04b9 19bc 603f e7bc 6d9f a83d 7ff7 02bd
00000170: 46f9 513d c6c3 143b 90e6 e0bc beb3 e6bc
00000180: be64 903c 2379 a93d a484 89bd 6bd8 95bd
00000190: 1fa4 96bd 2f38 18bd 529a 3e3d 96ea da3b
000001a0: 79d3 0a3d c412 393d 941c 953c 08a6 633d
000001b0: 755d 8bbd 7be8 15bd 9e56 08bd e15e 373d
000001c0: d6a3 663d ac0c ce3c 3835 a03c 59f0 603c
000001d0: abe6 bf3d 730b 7c3c 0562 dbbd a714 de3c
000001e0: 415d 70bd 6796 1c3d d9c3 ee3c 88c0 c13d
000001f0: fdf4 d93d 0589 a6bb 127e 5c3d 4313 dcbc
00000200: 4d2e 70bc 6227 273d e180 f43c bf81 613d
00000210: 13f5 803c 95a7 ccbd fb8c 98bb 1540 803d
00000220: c90d 9c3d c1ec c3bd 22ee 303d 3ca7 bfbc
00000230: b30f 7c3c 1846 a73d 5f57 9fbc 2647 4a3c
00000240: 5a43 05bd 217b a73c 71ce 6fbb 6d33 b43d
00000250: 8002 283d 4441 913d 9c85 543c e608 863d
00000260: 35b6 9fbc 7e9b 1abd b133 3b3d a12a c03a
00000270: a18d 1abd 50c7 a73d 822e a53d f920 763d
00000280: 16e6 6bbc b694 40bb d727 c93d 116f e6bd
00000290: c33c 5dbd 3b71 ca3c 2e42 a9bd 435f 2a3d
000002a0: 3b57 adbc 4a4c 613d ea6a 61bd 0955 67bd
000002b0: 5a8d 863d 7eb2 773d 21cc 90bb 363d d23c
000002c0: 9fb4 bbbc 54f4 843c 0ad1 bebc 8778 9c3d
000002d0: 8142 b63b b9f9 b1bd 87f4 e23c 4b27 513d
000002e0: 5391 1d3d 54d0 80bd 7d1e c1bc 87e4 603d
000002f0: deb8 e6bc 3c4b 97bd 9e1e 0dbc 1c9a 2abd
00000300: 9687 7f3c 5342 81bd df3d 883c e48a c53c
00000310: 2605 e0bc 818c c8bd 3d95 af3d ea5e 053d
00000320: 28c6 ac3d 03f7 953d e388 5dbc 7910 533d
00000330: 8426 5e3d 0b26 663d 548c 83bd b5ee b53d
00000340: bef1 593c 5494 6f3d d642 5abd 5132 3bbd
00000350: b7fb 0a3d 01a4 21bc 6f7f 4bbd 08b4 6abd
00000360: ff21 51bd bb27 a13c cd89 f6bc 1d90 903d
00000370: ceba 8dbd e1e0 7dbd 7176 e839 4cb6 bf3d
00000380: e9cd a03d 88d5 5ebc 94e0 9b3c 057a 19bd
00000390: d54c 74bd 8659 f0bc 70dd 913d 3e46 8c3c
000003a0: d286 673d 3c60 963b 6fb5 b83c 524c 913d
000003b0: 6800 e63b f059 01bd e054 d73c e22c 923d
000003c0: 0149 9ebd 5dc2 7c3c 86b3 7e3d 7994 1c3d
000003d0: 56e0 0c3d 50e4 44bd d444 623d f80b 66bd
000003e0: 579e 003c e904 01bd 733f 3a3d f16c cf3c
000003f0: 520a 613b 480e 9cbd 5019 273d afd5 823d
0.044631895 -0.029138006 -0.0053535984 0.028056799 0.0021293026 -0.043037586 -0.03334085 0.06480799
0.07200206 -0.040327452 0.03819751 -0.10055363 0.01714102 0.019707415 0.063610256 -0.026831513
0.08422144 -0.06902949 -0.004695975 0.083453566 0.07844995 -0.02862095 -0.031209785 0.0060365135
0.097270675 0.017012851 0.025077675 -0.004979496 -0.045870192 0.031249203 -0.04079898 -0.025691183
-0.07015374 0.023501223 0.003341534 0.093803756 -0.040507797 0.03923607 0.015526273 -0.040115964
0.0456792 0.06535078 0.058560144 0.020411769 -0.036120314 -0.052600008 0.016231792 0.001325574
0.03130551 0.057547543 0.11293511 0.037208527 -0.028210368 -0.0021388277 -0.06897034 -0.09304463
-0.06369787 0.050768364 -0.03637153 -0.008837211 0.046840236 -0.010698427 -0.03698436 -0.057878286
-0.015460152 0.024646185 -0.053150058 0.006846591 0.05620286 -0.00022214699 -0.03901789 0.0654732
0.053095926 0.026936624 -0.07032027 0.07046215 0.013551659 -0.040832248 -0.013640038 -0.027170964
0.03496551 0.060744952 0.026624218 -0.06810854 0.042709213 -0.009133243 -0.05663556 0.0076711704
-0.00938249 -0.028228462 0.08233533 -0.031974312 0.051263116 0.0022699698 -0.02745369 -0.02816188
0.017626163 0.08275058 -0.06714752 -0.07316669 -0.07355522 -0.037162956 0.04653389 0.006680797
0.033893082 0.045183912 0.018202104 0.05557826 -0.06804935 -0.036598664 -0.03328573 0.044768218
0.05630859 0.025152527 0.019556627 0.013729178 0.09370168 0.015383589 -0.10712055 0.027109457
-0.058682684 0.038229372 0.029146122 0.094605505 0.10642431 -0.005082252 0.053831168 -0.026864653
-0.0146594765 0.040809043 0.02984661 0.055055376 0.01574186 -0.09992901 -0.004655478 0.06262223
0.07619817 -0.095666416 0.04319585 -0.023395173 0.015384602 0.08167666 -0.019450841 0.012346065
-0.032534935 0.020444455 -0.0036591555 0.08798871 0.04101801 0.070925266 0.012971308 0.06544666
-0.019496063 -0.037745945 0.045703594 0.0014661142 -0.037732724 0.08192313 0.08065511 0.06009004
-0.0143981185 -0.0029385514 0.09822052 -0.11251653 -0.054013025 0.024712196 -0.08264576 0.041594755
-0.021159759 0.055004396 -0.0550336 -0.05647758 0.065699294 0.060472958 -0.0044188653 0.025663953
-0.022913275 0.016229786 -0.023293037 0.07640176 0.005562127 -0.08690209 0.02770449 0.051062863
0.03846867 -0.062897354 -0.023574108 0.05490544 -0.028164323 -0.07387397 -0.008613257 -0.041650876
0.015596291 -0.063114785 0.016631065 0.02411408 -0.027346205 -0.09792424 0.08573387 0.03256122
0.08436233 0.07322504 -0.013521406 0.05152938 0.05423595 0.056188624 -0.0642325 0.088834204
0.013302265 0.058491066 -0.053286396 -0.045702282 0.03393146 -0.009865762 -0.049682077 -0.057300597
-0.05105781 0.019672265 -0.030095005 0.070587374 -0.06920396 -0.06198204 0.00044338734 0.09360942
0.07851774 -0.0136007145 0.019027986 -0.037469883 -0.059643585 -0.029339563 0.07122314 0.017123338
0.05652506 0.0045891088 0.022547452 0.07094635 0.0070190914 -0.03157991 0.026285589 0.07137467
-0.07728768 0.015427199 0.062182926 0.038227532 0.03439363 -0.0480693 0.05524142 -0.056163758
0.007850251 -0.031498823 0.045470666 0.025320502 0.0034338427 -0.076199114 0.040795624 0.06388413

lstm.bias_ih_l0 f4 [512]
00000000: 0d58 843d 61b1 223d fe0c 5b3d 02aa 9e3d
00000010: ba1d 223d 409b d4bc abd5 5c3d 591a 68bd
00000020: 43fc 92bd 10d2 3cbd 836c fdbc 3824 9c3d
00000030: d5d1 8c3c 45a6 333c 1133 093b 6885 393d
00000040: bbb4 3f3d e636 53bd c126 923d 4e95 9e3d
00000050: d749 543d d2bc c63c d381 093d ca10 b43d
00000060: 33f1 f63b 4cad 42bc 1f32 f6bc 7b41 363d
00000070: b883 5cbc ed5f d03c 98af ba3d e030 9d3c
00000080: 24f6 2dbd 88ce 5f3d 8a9b b63c 61fa 37bc
00000090: b7a8 89bd e735 033d ff6a 07bd f90f 743d
000000a0: b2f4 b1bb 6b0d 563d 473e d6bc fb9d 4bbd
000000b0: 4974 0fbd fa62 a43d 2baa 433d e0ad 8fbc
000000c0: dcf2 b83d 6f7d 70bd 1fe4 143d b6ad 9bbc
000000d0: 9725 f13c 2402 433d ec26 b53c 56c1 033b
000000e0: f833 a2bc 0bff a53d c311 68b8 b3e7 063c
000000f0: 7e8d f83c 00cb 15bd 334b e33d 562f f3bc
00000100: 823b 8fbd 2193 75bd 83e5 e5bc 54b0 4bbd
00000110: 792a ff3c 93f0 953c 38ab 95bd 4874 78bd
00000120: 37bb c9bc 2f79 3abd 958d 40bd 7e7e cabb
00000130: 1616 53bd 264a d6bc 0aa2 bb3d ec80 aa3c
00000140: 1e62 ac3d 9c19 883d a44a 663d 99be fe3c
00000150: b057 a9ba fb71 ec3c 6739 f8bc e0ac ea3c
00000160: 7a68 4d3d 4ba0 46bc 7b94 323d bb0b 90bd
00000170: 945c 00bd b778 41bd 60c2 b8bb 1724 4abd
00000180: 337a 1d3d 7b67 3c3d b788 aebc f781 6ebd
00000190: cf43 af3d 11bc f53d e805 233d e209 37bd
000001a0: 3b4c 0fbd 6a53 9d3d 17c0 993d 79be 7e3d
000001b0: 7a4c 70bd c54b 633d 9a14 1bbc 3de3 ec3c
000001c0: e15a a0bd f5e4 343d b813 883d c01b 45bd
000001d0: 734e 74bc b42f 71bd 1b69 dc3e ebb5 6cbd
000001e0: a7e2 b43c dff0 523c dd29 4cbb 07ed 6abd
000001f0: 2755 d73a 792e 943c e03a e9bb 8e40 01bc
00000200: 34b0 33bd 5815 cbbc ce8a 083d 04ce c63c
00000210: 3cb5 e0bb dbd1 a43d d4eb 9d3d af72 213d
00000220: 9761 63bd 2ac9 ae3c 52a5 093d 1696 1fbd
00000230: 91a8 933d 841d 7bbd feed abbd 542e 81bd
00000240: 2b8f 373c 578a fcbc a5c9 f33c 7aa3 583d
00000250: 4406 c6b9 d3d3 c9bc b287 28bd 7dca 9dbd
00000260: 7664 51bd 7aad ad3b 9291 70bd a72e 31bc
00000270: f457 9bbd 7451 84bc 84cb 873d add3 b73c
00000280: 877c 93bc 94b9 dbbc 97b8 71bd 89c3 02bd
00000290: 4297 f6bc 5043 4ebd 69a2 193c 0d6f 87bd
000002a0: 693f 6b3d b1d5 b13a a72c ec3c 0959 be3c
000002b0: 6785 e2bb aba7 a53d c2dd 523d b5b5 843c
000002c0: 8664 e63b cfd9 bebd dd6e 12bd e8f4 1e3d
000002d0: 0c81 b73c 65bb 14bc 4d9b bebc 8de0 3ebd
000002e0: fa1c a73d ab2e b6bd 0220 033c 9169 0cbb
000002f0: 85f8 59bc e87b d1bc 37d8 0abd 2899 de3b
00000300: e53a 4f3c 7f0d 25bd 9ac4 92bd 4b17 1abc
00000310: b78c 5dbd 01c8 6dbd d09b a23d 98fc abbc
00000320: bff2 483d 785c 89bc 9947 123c e64b 9fbd
00000330: fbec 36bd fda7 4c3c a3b7 a1bc 6f83 fe3c
00000340: 3fc8 633d 6b01 5dbc ba68 9ebc 3f80 81bd
00000350: 0600 1a3d c632 713d 8c98 4d3c dc95 a83c
00000360: 1b56 143d d2df 3a3a 8131 3cbd 960f 61bd
00000370: 180b f9bc f40f 31bc 7d98 193d c619 ba3a
00000380: 0e48 1b3d b635 dcbc 4eba 983d ca54 8abd
00000390: 34c6 723d d865 ec3c 90a9 8b3d aad7 b63c
000003a0: 302d 0fbc dee6 96bd 3437 72bd 341c 61bd
000003b0: ef7d 0abd c7da 873c b9da cabc 4892 70bd
000003c0: 05bc e6bc affd 173d 863f 2d3d ddb0 2f3d
000003d0: 1c28 ba3d 63c3 723d b631 9dbe fa7f 96bd
000003e0: 07aa 50bd bf3f 813d 1ad4 59bd cb35 6a3d
000003f0: 1f89 93bd 61ff 9fbb 8b8f c83c c211 ac3d
0.06462107 0.039719943 0.053479187 0.0774727 0.03957913 -0.025952935 0.053914707 -0.056665752
-0.07177021 -0.04609877 -0.030935531 0.07624096 0.0171899 0.010964935 0.002093498 0.04529324
0.046803217 -0.051566027 0.07136298 0.07743321 0.05182823 0.024259958 0.033571076 0.08792265
0.0075360774 -0.0118821375 -0.030053196 0.04449604 -0.013459139 0.025436366 0.09115523 0.019188344
-0.042471066 0.054640323 0.022290964 -0.011229129 -0.06721633 0.032033827 -0.033061024 0.059585545
-0.0054307813 0.05225889 -0.026152743 -0.04971121 -0.035023008 0.08026691 0.047769707 -0.017538965
0.09030697 -0.058713373 0.036350366 -0.01900373 0.02943687 0.047609463 0.022113286 0.002010425
-0.019800171 0.08105286 -5.5329652e-05 0.008233952 0.030340906 -0.03657055 0.110983275 -0.029685657
-0.06993772 -0.059954766 -0.028063541 -0.049728706 0.031148182 0.018303191 -0.07308048 -0.06065777
-0.024625404 -0.045525726 -0.047010023 -0.00617963 -0.051534735 -0.026158404 0.09161766 0.020813428
0.08417152 0.066455096 0.056223527 0.031096743 -0.001291981 0.028862944 -0.03030081 0.028646886
0.050148465 -0.012123178 0.043598633 -0.070334874 -0.03133829 -0.047234263 -0.0056384057 -0.049350824
0.038446616 0.045997124 -0.021305425 -0.058229413 0.08557855 0.119987614 0.039800555 -0.04468716
-0.03498481 0.076819256 0.07507341 0.062193368 -0.058666684 0.05549218 -0.009465361 0.02891695
-0.07829834 0.044163663 0.06644386 -0.048122168 -0.014911282 -0.058883384 0.4304894 -0.057790678
0.022080733 0.012874811 -0.0031152882 -0.057354953 0.0016428576 0.018088566 -0.007117614 -0.007888926
-0.043869212 -0.02479045 0.0333355 0.024268158 -0.0068575423 0.08047839 0.07710996 0.03941601
-0.05551299 0.021336157 0.033604927 -0.038961492 0.07209886 -0.061307445 -0.08395003 -0.063076645
0.0112035675 -0.030827684 0.029759238 0.05289028 -0.0003777017 -0.024637138 -0.041145034 -0.07704637
-0.051121198 0.005300221 -0.058732577 -0.010814345 -0.07585135 -0.016152121 0.066306144 0.022439802
-0.018003715 -0.026821889 -0.05901393 -0.031924758 -0.030101422 -0.050357163 0.0093771005 -0.06612978
0.05743352 0.0013567713 0.028829886 0.023235815 -0.0069128755 0.08088621 0.051481016 0.016199926
0.0070310263 -0.093188874 -0.03575026 0.03880778 0.022400402 -0.009077881 -0.023267413 -0.046600867
0.08159824 -0.0889562 0.008003237 -0.0021425227 -0.013303881 -0.025571778 -0.033897605 0.00679316
0.012648319 -0.040296074 -0.07166405 -0.009404968 -0.054089274 -0.058052067 0.07939875 -0.02099447
0.049059626 -0.016767725 0.008928203 -0.07778148 -0.044659596 0.012491223 -0.019740885 0.031068532
0.05561089 -0.013489108 -0.019337047 -0.06323289 0.03759768 0.058886312 0.012548577 0.020579271
0.03621493 0.0007128689 -0.045945648 -0.054946505 -0.030400798 -0.010807026 0.03749894 0.0014198355
0.037910514 -0.02688108 0.0745741 -0.067544535 0.059271052 0.028857157 0.06819451 0.022319634
-0.008738801 -0.07368253 -0.059134677 -0.054958537 -0.033811506 0.016583813 -0.024762498 -0.058733255
-0.028165827 0.037107166 0.04229691 0.04289328 0.090896815 0.059268367 -0.3070199 -0.07348628
-0.0509434 0.06310987 -0.05318079 0.057180207 -0.07203888 -0.0048827385 0.02448251 0.084018245

lstm.bias_hh_l0 f4 [512]
00000000: ffd6 a43d 79e4 97bd 3056 ea3c 478c 9c3c
00000010: f890 8ebd c4d0 0d3d 840e 8fbc b6dc 153b
00000020: 9c9e 5a3d 9274 ba3d b44a ca3d dcda 88bd
00000030: 53da 6dbd 8e60 503a 0967 9abd 13b3 953c
00000040: f50f 23bd c83b 273c c2ef 903d 9c55 abbd
00000050: 3a61 60bd 677b 15b9 560f 483c 5a0f 4b3d
00000060: 7e6d 7dbd f848 f23c 41d6 3b3b 0548 b03d
00000070: 0749 39bd f33e 5a3d 3b53 80bd bc56 123d
00000080: f99b a7bc c3d5 e0bc 074e a6bb 4af3 9a3d
00000090: 9031 823d 442a bf3d 4606 c6bd 8723 af3d
000000a0: 8158 a63c edbe 87bd 94da 333d f023 9bbd
000000b0: 8485 6c3d 302b 6cbd 62d7 963d dae7 dfbb
000000c0: aa57 cf3b 07e1 52bd 12aa d53d 43f5 8c3d
000000d0: 917e f93a 6c46 99bc a317 93bc d594 053d
000000e0: 80fb c43d 16e0 1b3d 6060 c03c 39b4 21bd
000000f0: 6aa3 7bbc fb53 a6bd 376a 0e3c 9626 73bd
00000100: cdf1 5c3d b26e 693c eff2 b9bb 271b fb3c
00000110: 9b4a 03bd 09a8 25bd e577 b7bc 4ccf 22bd
00000120: cd70 b4bb 5201 ad3d 5a03 cdbc 640e b5bb
00000130: 5eb4 cabc 2dcb db3b c109 a73d adaf a7bd
00000140: 1676 13bc 4974 203d f235 7dbd af54 c63d
00000150: 9423 69bd 0b77 393c a31c b93d 72d1 78bd
00000160: dfb0 973d ad98 3ebd 4fd2 10bd f55d 05bc
00000170: b883 a63d 14d2 a6bc b1a7 273c 5d0f 573d
00000180: 26cf 5e3d 158b b9bd 59ac a73d bcc0 69bd
00000190: c9fe 1f3d b987 933d fb5f a4bd 11df a13d
000001a0: 126e a63d 38d6 8abd 8098 f6bc 3107 903d
000001b0: dad3 49bd 6ed0 b4bc d5fc 6a3c bd9c 833c
000001c0: c039 babb 48ac 563d 3bf7 05bd c1d4 40bc
000001d0: b7d6 6fbd 44e0 cebc 2c9f a63e e61d 2ebd
000001e0: 2898 9e3c c2b0 123c 750f 71bb b20f 9abc
000001f0: 42f8 5abd 8731 05bd 1d97 133c b5aa 973d
00000200: bd48 0ebc b99b 953d 83a5 853d 12f9 5bbd
00000210: 2b30 083c c854 53bd 4e62 76bc 13fb 7a3d
00000220: 3e7e 9dbd 73ae 533d 86aa 2d3d bb58 533d
00000230: 9c39 b23d 66b1 803d 0f35 77bd 9f2b 9e3d
00000240: efaf 63bd 8c5b aabd 6eb4 b23d 1ba1 793d
00000250: cacf 03bd 5046 b73c 4159 90bd bba0 dbbd
00000260: 8cb3 fabb 2c8b 27bd fdae d53c 2c23 ae3d
00000270: 372a f3bc 3d66 0cbd 26a7 53bd 5a72 343d
00000280: ae0b 4c3b 120f 403d f9b6 be3c 7db9 cabc
00000290: 16f2 7abd 9d5e 32bd 0f04 cbbc 7252 2fbd
000002a0: 3d00 9dbd 5548 1ebd eb13 71bd 28f5 81bd
000002b0: 97af 50bd e3c6 25bd 9121 b53c 6f5e 90bd
000002c0: 36a7 46bd bb02 4a3d de25 fa3d cc3e 803d
000002d0: 7c9d 57bd 1fb8 e7bc d666 543d 7b43 50bc
000002e0: 10c9 a73c 659b 82bd 91ad 34bb 89aa 713d
000002f0: 1246 63bd c073 6a3d ae4f bebd 784c b3bc
00000300: 4066 753d dd16 ff3c 76bc ddbc 86d6 8abd
00000310: cd90 c73c d87c 963d 74fb 263c ee32 613d
00000320: bc6e b53d afd9 93bb 46a5 a43d 12f8 0c3d
00000330: d45b 543d 5fa6 74bd ebba 0fbd d238 8dbd
00000340: f52f 04bb f785 c33c a899 913c a9bf 96bd
00000350: ccc9 abbc 7576 94bc f79e 3abc 16be 353d
00000360: 5b16 953c 624a 2a3d b37e d4bd 1fd9 983b
00000370: 88d2 33bd f42d 06bd 31ad aabd 726d 9c3d
00000380: cf92 6dbd 2000 6e3d ac41 abbd 083d 8d3d
00000390: 21e8 803d fe69 74bd b329 cbbc ccc9 883d
000003a0: 1c34 873d 01b4 7f3d a073 2a3d 027a 873d
000003b0: 9f05 5bbd 70b2 a3bd 1deb d13c fa69 94bd
000003c0: 573a 92bc c829 3fbd 8931 4fbd 5719 25bd
000003d0: bea5 973d a4b0 d0bc 287c 74be fd91 25bd
000003e0: 34ed af3d fd97 7dbd bbb6 97bd 7c2d 1abd
000003f0: a301 583d ce90 a73d 31f2 2cbd 8c4d 80bd
0.0804882 -0.074166246 0.02860555 0.019109858 -0.06961244 0.034622923 -0.017462976 0.002286715
0.053373918 0.09104265 0.0987753 -0.06682369 -0.05806954 0.0007948958 -0.07539184 0.018273866
-0.03981014 0.010207124 0.0707698 -0.08365938 -0.054780222 -0.00014255718 0.012210688 0.049575187
-0.061871998 0.02957581 0.002866164 0.08607487 -0.04523566 0.05328269 -0.06265875 0.035727248
-0.020460116 -0.02744568 -0.0050752196 0.07565935 0.063571095 0.093342334 -0.09669165 0.08551698
0.020305874 -0.06628213 0.043909624 -0.07575214 0.057744518 -0.057658374 0.073653 -0.006833059
0.006327589 -0.051484134 0.10432829 0.068827175 0.0019034912 -0.018710338 -0.017955607 0.03261264
0.09618282 0.038055502 0.023483455 -0.039478514 -0.015358785 -0.08121487 0.008692316 -0.05936297
0.053941537 0.014247583 -0.005674712 0.030652596 -0.03205357 -0.040443454 -0.022396037 -0.039748475
-0.005506611 0.084475175 -0.025026012 -0.005525397 -0.024744209 0.00670757 0.08156157 -0.08187804
-0.009000322 0.0391734 -0.061819024 0.09684121 -0.056918696 0.011319886 0.09038665 -0.060746618
0.07406782 -0.04653232 -0.035356816 -0.008140077 0.08130592 -0.020363845 0.010232852 0.052504886
0.05439677 -0.09059731 0.081871696 -0.05706857 0.03906134 0.072036214 -0.08026119 0.07903875
0.08126463 -0.0677914 -0.030102015 0.07032622 -0.049274303 -0.022072043 0.014342506 0.01606595
-0.005683154 0.052410394 -0.03270648 -0.0117694745 -0.058554377 -0.025253423 0.32543314 -0.042508982
0.019359663 0.008953275 -0.0036782895 -0.018806312 -0.053459413 -0.032517936 0.009008196 0.07405607
-0.008684334 0.07305092 0.065257095 -0.05370433 0.008312265 -0.051594526 -0.015038086 0.0612746
-0.076900944 0.05168004 0.042398952 0.05159829 0.08702394 0.06283836 -0.060353335 0.07723164
-0.055587705 -0.083182424 0.087258205 0.060944658 -0.032180585 0.022372395 -0.07048274 -0.10724016
-0.007650798 -0.04090421 0.026084417 0.08502802 -0.029683216 -0.03427719 -0.051673077 0.044054367
0.0031134891 0.046889372 0.023280608 -0.02474665 -0.061266027 -0.04354726 -0.024782209 -0.042803235
-0.07666061 -0.0386432 -0.058856886 -0.06345588 -0.050948706 -0.040472876 0.022110732 -0.07049262
-0.04849931 0.04931901 0.12214254 0.062619776 -0.052640423 -0.028286038 0.051855884 -0.012711401
0.020481616 -0.063772954 -0.0027569274 0.059000526 -0.055486746 0.057239294 -0.092925414 -0.02188705
0.059911966 0.031138832 -0.027067404 -0.06779198 0.024361039 0.07348031 0.010191787 0.05498021
0.088590115 -0.004512034 0.08039336 0.034416266 0.051845387 -0.059728976 -0.03509037 -0.06895603
-0.0020170186 0.02386759 0.017773464 -0.07360775 -0.020970248 -0.018122891 -0.011390439 0.044370733
0.018199136 0.041574843 -0.103757285 0.0046645547 -0.04390195 -0.032758668 -0.08333815 0.076380625
-0.058001336 0.058105588 -0.08362135 0.068964064 0.06294275 -0.059671395 -0.024800157 0.06679115
0.06601736 0.062427524 0.041614175 0.06615068 -0.053472158 -0.079930186 0.025624806 -0.07246776
-0.017850084 -0.046670705 -0.05058435 -0.04030737 0.0740466 -0.025474854 -0.23875487 -0.04042243
0.08590165 -0.061912525 -0.074079 -0.037641034 0.052735936 0.08181916 -0.04222316 -0.06264791

lstm.weight_ih_l1 f4 [512, 128]
00000000: a319 b13d ddc6 e83b 643c bb3c 0b21 fbbc
00000010: 2978 74bd c306 d3bd e2e7 0fbd 3ede 4c3d
00000020: 5464 a23d 8195 64bd eadf d73d 008d 00bd
00000030: dc68 3e3d 5c88 143d a13f 41bd 51bb 2fbd
00000040: dfe9 953d 9326 6cbd 401b 51bd 81ba 8cbd
00000050: f3d4 98bc 0e57 b6bc 46d9 8d3d 25d2 bf3d
00000060: b268 863b 616c 783d f797 14bd 629b 38bd
00000070: 1fc0 bc3c 9a9f a3bd 0988 32bd f405 3ebd
00000080: 097c 80bd c371 b2bc 7198 70bd ff55 a73d
00000090: df4f 783c 4bd2 9d3d 163c 9c3d 96a0 0cbd
000000a0: a98c 913d 9abb 15bd 1ba8 13bd e0af 383d
000000b0: 982c 823d c524 e33c 3872 c3bb 2f04 9ebd
000000c0: 96cb c8bd a339 96bd 064b 05bd 7614 163d
000000d0: b0c2 513d 8525 6fbd 0283 273d 9c95 b6bd
000000e0: 6831 dd3b d83c bb3d 2e5a adbd 2366 2fbd
000000f0: a49e 183d 9400 5fbc 6727 063d 9e6a a33d
00000100: a90f b7bb b595 a03d c90f fabb 6118 e33c
00000110: 76ef e2bc d9c3 cebd 686e d83c 435b 933d
00000120: 25c1 9c3c e8b0 9f3c 4ebe 0ebd 4caa b23c
00000130: a9cb 6abd 2a1a 233b 28df ba3d 1f5f 65bc
00000140: 8c35 f6bc 2e17 31bd 7e75 803c 1cb3 7ebd
00000150: 1c6a 413d a65e 403d 4d4c da3c 87c5 6d3d
00000160: 7017 d23c da08 bb3c 1754 d73c 2cf3 81bd
00000170: 862f 453d 1909 853c cda6 083b dae4 bd3d
00000180: b060 fbba b7de f6bb 4fa1 3d3d 5101 19bd
00000190: 606c d83c daac 353d 4635 023c f954 163d
000001a0: 2220 dfbc 882e 2a3d 0c52 a3bd 6614 f5bc
000001b0: 71a3 8b3d 518c c93c 88a6 a23c 5b59 8a3c
000001c0: aacb 21bc d0ad 993d a3c6 08bd f2ee 03bd
000001d0: 89b7 51bd a3c8 53bd ad2e bbbd 97b6 43bd
000001e0: e4e1 00bd 04b8 553d d976 843d d395 82bd
000001f0: 8659 c03d 31cf d03a 3e8d 7d3c 6b84 873d
00000200: ed49 dc3d 94f2 143d ce18 f43a acc3 883d
00000210: c336 cdbc fe20 d13b 86f7 63bd 281d 1ebd
00000220: 2fa3 8f3d 3c91 07bd 659a 713a 59c3 9f3b
00000230: f49e 97bd 4165 333d 2a59 f13c 671e 473d
00000240: f82b a43c a452 203d 7d75 4cbd ceee 91bd
00000250: 6ee1 483b 22cd adbd 1380 b13d f136 a03c
00000260: e1a6 20bc c92a 343d 3387 6e3d af75 2d3d
00000270: 325b e5bc 36a0 af3d cf1e 90bd 88a1 a6bc
00000280: db75 a3bd bc9e 0abd 1997 30bd 37b3 5f3d
00000290: 969e c93c aed8 d5bb 32d0 3cbc 8cd5 9e3c
000002a0: 2651 83bd c8fc 603d d352 1a3d b429 423d
000002b0: 4394 a53c bfe6 513d e44c a2bd 2c4b 733d
000002c0: 2364 acbd 6782 923b a2ce 53bd 7a82 38bb
000002d0: d004 9abb a721 043d c433 aa3d 73b0 e7bb
000002e0: d278 543c a298 69bc 2862 393d e6c2 8fbd
000002f0: 8e20 af3b d440 8cbd 3fc3 92bc 30ec 633d
00000300: 6a34 81bd 826d 01bc c4d5 a2bd f32d ec3c
00000310: 3f2f 62bd 4638 8dbd 3abb a73d 63e9 8bbd
00000320: 8c80 21bd fae6 8fbc 6034 6fbd bb9e 6d3c
00000330: f290 c93c a0ee 47bd 0f27 503d c873 ec3b
00000340: d82f 683d ef46 9e3d cb9b c63d f7c6 a33c
00000350: 3f63 1a3c 87b3 96bd 243c 043d 0e69 14bd
00000360: e5f4 fbbc 66eb 52bd 8052 b2bc 7ea8 823d
00000370: efd2 933d 703f febd e9a8 ee3d 8a75 e43b
00000380: c4b5 41bc ab68 9b3d 52ef bd3d e647 10bd
00000390: 4506 93bd b07d acbc 54de 983c 6feb 383d
000003a0: 12c5 d23b f30b abbd 5cc3 493c 2d42 f6bc
000003b0: 599b 153d 24b4 de3c ea63 733d 2c79 013e
000003c0: 4985 35bd 4f92 643d bb51 01bd 7488 81bd
000003d0: f6ed fa3c c4b3 bc3d d9cc 38be 8f93 d83c
000003e0: 77b4 123d c153 833d 9203 863d d159 c03d
000003f0: b1e6 00bc a33f 1e3d 0ba4 02bc 5446 84bd
0.08647468 0.0071037845 0.022855945 -0.030655405 -0.059684906 -0.10304024 -0.03513325 0.050016634
0.07929292 -0.05580664 0.10540755 -0.031384468 0.04648672 0.036262855 -0.047179822 -0.04290325
0.07319998 -0.057653975 -0.05105138 -0.0687151 -0.01865623 -0.022258308 0.06926207 0.09366254
0.004101836 0.060650233 -0.036277737 -0.04507006 0.02304083 -0.07989426 -0.043586764 -0.046392396
-0.06273658 -0.021782761 -0.05873913 0.08170699 0.0151557615 0.07706126 0.07628648 -0.034332834
0.07106907 -0.036555864 -0.03604899 0.045089602 0.06356162 0.027727494 -0.0059645437 -0.07715642
-0.09804456 -0.07335212 -0.03254225 0.036640607 0.05121106 -0.05838539 0.040896423 -0.089152545
0.0067502744 0.091424644 -0.08464466 -0.042822015 0.037260666 -0.013610978 0.03275242 0.0797932
-0.0055865836 0.07841054 -0.0076312763 0.027721586 -0.027702074 -0.10095949 0.026419833 0.07195141
0.019135067 0.019493535 -0.034849457 0.02180972 -0.05732313 0.0024887421 0.09124595 -0.013999729
-0.03005483 -0.043234996 0.015681025 -0.06218253 0.047220334 0.046965264 0.026647711 0.058049705
0.025645941 0.02283137 0.026285214 -0.063452095 0.048141025 0.01623969 0.0020851374 0.092721656
-0.0019178595 -0.007533874 0.046296414 -0.03735477 0.026418865 0.044354297 0.007947272 0.03670213
-0.027237002 0.041548282 -0.079746336 -0.029916953 0.06818283 0.02460304 0.019854799 0.016888311
-0.009875217 0.07503855 -0.03339256 -0.032210298 -0.051200423 -0.051705014 -0.09139762 -0.047781553
-0.031465426 0.052177444 0.06467981 -0.06376233 0.09392075 0.0015930888 0.015475569 0.066170536
0.10756288 0.036364153 0.0018623115 0.066779464 -0.025050526 0.006382107 -0.05565598 -0.038602024
0.07013547 -0.03309749 0.0009216427 0.004875582 -0.07403365 0.043797735 0.029461462 0.04861298
0.020040497 0.039141312 -0.049916733 -0.071256265 0.0030651945 -0.084863916 0.08667006 0.019557448
-0.009805412 0.043986116 0.058234405 0.04234856 -0.027997587 0.0857548 -0.07037126 -0.020340696
-0.079814635 -0.033842787 -0.043112848 0.054614272 0.024611752 -0.0065260744 -0.011524247 0.019388936
-0.06411962 0.05492857 0.037676644 0.047403052 0.020212298 0.051245447 -0.07924822 0.05939786
-0.08417537 0.0044711116 -0.051710732 -0.0028153942 -0.0047002807 0.032258656 0.08310655 -0.007070595
0.012968259 -0.014257582 0.045259625 -0.07019596 0.005344457 -0.068483025 -0.017915366 0.055645168
-0.06308825 -0.007899644 -0.07950929 0.028830504 -0.05522084 -0.06895499 0.081900075 -0.06831624
-0.039429232 -0.017566193 -0.058399558 0.014503176 0.024605248 -0.048811555 0.0508185 0.0072159506
0.056686252 0.07728373 0.09697684 0.019992335 0.009423076 -0.07358461 0.032283917 -0.036233
-0.030756423 -0.051494025 -0.021767855 0.063797936 0.07217967 -0.124144435 0.11653311 0.0069720196
-0.011823121 0.07588323 0.09274162 -0.035224818 -0.0717893 -0.021056026 0.018660702 0.045146402
0.006432184 -0.083518885 0.012314644 -0.030060852 0.036525104 0.027185507 0.059421457 0.1264388
-0.044316564 0.055803593 -0.031572085 -0.063248545 0.030631047 0.09213975 -0.18046893 0.026437549
0.035816636 0.06412459 0.0654365 0.09392131 -0.007867501 0.038634907 -0.007973681 -0.064587265

lstm.weight_hh_l1 f4 [512, 128]
00000000: 49a8 683d fbcb 98bd 2881 fc3c c952 b93c
00000010: 21f7 b3bd 61f3 ad3d 831c babc bf23 d4bc
00000020: 56d5 97bd 695d 7fbc 9709 04bd be08 913d
00000030: aef7 30bd e0c7 163d dcb6 a3bd 6f61 f3bb
00000040: f137 74bd d2e1 c83b f386 093d 6b30 0ebd
00000050: efb9 a9bd 82ef 733d 20c9 5c3c 9a23 423d
00000060: 9c38 243d afdf 2dbd 6459 043d 2abe df3c
00000070: 766a 2b3d 32e7 cf3c 36d8 493d be8a f93c
00000080: a0e9 9ebd 80e8 82bd ec62 d73b a617 ab3d
00000090: 521c 79bd 01b3 cabd 84aa 483d d2a0 603d
000000a0: a77b a0bc 205f 9ebd 82e6 963d 1eda 813c
000000b0: 2c25 033c b786 80bd 8fd6 84bd 6ee7 33bd
000000c0: b5b9 813d a693 53bd 9c3b 6bbd 9baf a43c
000000d0: 6683 5cbd fc82 b23a 6480 95bd a2e5 12bd
000000e0: dec1 09bd 055a 9b3d 024c 13bd c5db 973d
000000f0: 009b 2a3c fb5b a7bd bef1 ad3d af05 7e3b
00000100: 6de6 32bd 0984 8dbd bdc9 5c3d 6288 9d3d
00000110: 8828 76bd 9832 583d 8466 44bb e536 16bd
00000120: b59c 8ebd 7521 78bc feea 8bbd 1cb3 7fbd
00000130: 06ab 6d3c 1792 97bd 620b 243c 8291 29bd
00000140: a27a 5c3d bdb3 063d 0e87 5a3d f47c 0bbd
00000150: 574f 693c 4d71 003d 951d f43c 58ce 8dbd
00000160: e431 643d 77b2 4ebd 1a6d 85bd 29a4 4f3d
00000170: 8f22 a5bc 7ee1 a4bd c948 8c3d 799c 0b3d
00000180: 8225 7e3d 1f67 d4bc 6616 ec3b 4485 86bd
00000190: be36 3ebc 9198 33bd 815e 48bd 32ce 263d
000001a0: f1e1 a83c 6861 a93d e750 3a3c 0efa 9d3d
000001b0: f7f3 f2bc 650f 863d dc2c 863b a96c 8d3d
000001c0: 6b33 7a3d b469 87bd b921 9cbd 47b2 753c
000001d0: 3d34 1fbd 6bbc d23d 8775 86bd 3499 5b3d
000001e0: e210 85bd dd84 1cbd 633a 3fbd ebcf 5f3d
000001f0: b83a 7dbd aeb8 6d3d c63d 6c3d c78f 103c
00000200: 0eff 2dbc d088 32bd 1335 9ebd 353f 043d
00000210: 375e afbd 8b8a 93bd 84b4 b13c 2a80 8abd
00000220: 1205 4e3d f5b6 cdbc 3b99 5a3d 07ad e03c
00000230: 1f17 29bd ad3d 343d c9d7 88bd cf51 9b3d
00000240: e767 4c3d 5b20 afbd 2dc5 983d 648c acbd
00000250: 49a9 c53c 6c6f 3a3d effd 71bc c788 4abd
00000260: aabf 913c 0545 0fbd c5ff 0f3d 8474 913d
00000270: 257d 77bd a39f 4bbd 5c2c 28bd b652 acbd
00000280: db70 0abc c8fc 1cbd e2bc 063d bd31 aa3d
00000290: 9736 95bd 1e65 8bbd 3a1a 493d 78d0 e33c
000002a0: 3a70 c1ba 4f52 413d 96d3 923d 72c7 1c3d
000002b0: 1f64 efbb 2107 1bbd e5fc 16bd c1d3 a7bd
000002c0: 159b d2bc 3eb8 c7bc 64b4 0fbd b80f 873d
000002d0: 11de 64bd 95c1 8ebd 8001 823d 3de2 c03c
000002e0: 6751 b4bd 5ee5 873d ac6b 7c3c 048f 77bc
000002f0: 4053 0d3d 14bf 6bbd bdca 8f3d 7939 9b3d
00000300: 629e 9bbd 012b a5bd d941 bf3d a014 1f3c
00000310: 55d8 9bbd b053 a03d d62f 0ebd d0e4 acbd
00000320: f5a4 c9bc c22e 90bd 5a08 80bd 7086 7dbd
00000330: 0bbb ab3d e0a5 403d c6e9 403d 3061 39bd
00000340: c92e 823c 20ac 2a3d 9fd5 193d fe22 d33c
00000350: b95f 79bd d4a8 dcbb b5a7 973d 186e b0bd
00000360: fef7 833d f1d8 ac3d b564 873d 04eb c2bb
00000370: 4f21 a6bd b2d6 d33c 425e 013c 967d 1c3d
00000380: b732 c8bc 439c 5bbd 45a7 68bd 4b8e 3cbd
00000390: 7af1 5b3d f39b bdbd 01f6 9abc 8f4c 6d3b
000003a0: 405d 90bd 8153 8e3d ede0 753d 674e 213b
000003b0: bf29 663c c1ba 5c3c 8f6f 983d 265f 82bd
000003c0: cf12 0a3a 14f5 89bd 50d0 a33d ecca 4b3b
000003d0: e393 e8ba 07cd 463d b6b9 b33d ff97 58bd
000003e0: 95fd 70bd 73e6 b2bd 96ec 9c3d d005 c4bc
000003f0: 1357 13bd be4c a6bc e7fd 243d c5f4 28bd
0.056801114 -0.07460781 0.030823305 0.022622483 -0.087873705 0.084936865 -0.022718674 -0.025895951
-0.074137375 -0.015586236 -0.032235708 0.070817456 -0.043204956 0.03681171 -0.07993862 -0.0074273865
-0.059623662 0.0061304355 0.033575963 -0.034714144 -0.08287417 0.059554584 0.013475686 0.047397234
0.04009305 -0.04244965 0.032311812 0.027312357 0.041849576 0.025378797 0.04927846 0.030461665
-0.07759404 -0.06392002 0.0065730717 0.0835412 -0.060818024 -0.098974235 0.04899074 0.05484087
-0.019590212 -0.077329874 0.073681846 0.015851077 0.008004468 -0.06275695 -0.06486236 -0.04392188
0.06334249 -0.05165448 -0.057429895 0.020103266 -0.05383625 0.0013619359 -0.07299879 -0.035863526
-0.03363215 0.07585529 -0.03596116 0.074149646 0.010412931 -0.08171841 0.08493374 0.0038760712
-0.043676782 -0.06909949 0.05390333 0.076920286 -0.060097247 0.052782625 -0.002996833 -0.036673445
-0.06963483 -0.0151446955 -0.068319306 -0.06242667 0.014506107 -0.07400911 0.0100124795 -0.041398533
0.05382789 0.032886256 0.053351454 -0.03405471 0.0142401075 0.031358052 0.029799262 -0.069241226
0.055711642 -0.050463166 -0.0651495 0.050693665 -0.02015808 -0.08050822 0.0684982 0.03408477
0.06204749 -0.025928078 0.0072048185 -0.06568387 -0.011609731 -0.04384667 -0.04891825 0.040723987
0.02061555 0.08270532 0.011371828 0.0771371 -0.029657347 0.06545905 0.004094703 0.06905491
0.061084192 -0.06611958 -0.076236196 0.014996118 -0.038868178 0.10289844 -0.06565385 0.053612903
-0.06497361 -0.038212646 -0.04668654 0.054641645 -0.061823577 0.058037452 0.0576761 0.008823342
-0.010619892 -0.043587506 -0.07724967 0.03228684 -0.08562892 -0.07204159 0.021692522 -0.067627266
0.050297804 -0.025111655 0.05336879 0.027426256 -0.041281816 0.04400413 -0.06681783 0.07583963
0.049903776 -0.08551093 0.07459483 -0.08425215 0.024128573 0.045516416 -0.014770015 -0.049446847
0.017791588 -0.03497793 0.03515603 0.07102302 -0.06042208 -0.04971279 -0.04105793 -0.08414213
-0.008449758 -0.03832701 0.032894976 0.08310268 -0.07285803 -0.06806396 0.049097277 0.027809367
-0.0014758178 0.047197636 0.07169263 0.038276143 -0.0073056365 -0.037848596 -0.036862273 -0.08194686
-0.025708715 -0.024379846 -0.035084143 0.06594795 -0.05587584 -0.069705166 0.06347942 0.023545379
-0.08804589 0.06635545 0.01540653 -0.015109781 0.03450322 -0.057555273 0.07021091 0.075793214
-0.075985685 -0.08064843 0.09338731 0.009709507 -0.076096214 0.07828462 -0.03471359 -0.0844208
-0.02461479 -0.07040168 -0.06251593 -0.061895788 0.08385285 0.04703319 0.047097944 -0.0452587
0.01589145 0.041668057 0.03755724 0.025773522 -0.060882304 -0.006733993 0.074050345 -0.08614749
0.06443785 0.08439816 0.06611005 -0.005948426 -0.08111822 0.02585921 0.007896008 0.038205706
-0.024438245 -0.05361582 -0.056800146 -0.04603414 0.053697087 -0.092582606 -0.018916132 0.0036208963
-0.07049036 0.06949521 0.06002896 0.0024613382 0.014048039 0.01347226 0.07443153 -0.063658044
0.0005267085 -0.06736198 0.07998717 0.0031096293 -0.0017744269 0.048535373 0.08775656 -0.05287933
-0.058835585 -0.08735361 0.07662313 -0.023928553 -0.035971712 -0.020300265 0.040281203 -0.041249055

lstm.bias_ih_l1 f4 [512]
00000000: 1635 8cbc ed2c cd3c 130c a0bc 34a9 3fba
00000010: 5f6e 2dbd 064a 0fbd 8f13 953d 08ec 3d3d
00000020: 3186 273d 2241 f93c 973d 7bbd bb5d 013d
00000030: 4d94 d63d 6433 39bd 23c2 883d c8b0 733d
00000040: b61b 5d3c e4ba 88bd 85f1 573c 0cf8 c33d
00000050: 2508 9e3d 2f96 08bd f623 97bc 22ef eabb
00000060: a33d 4bbd 842f 983c 54d4 be3d eacc 04bc
00000070: aca9 8dbd e44c 56bc f3bc 523d d2b5 bd3d
00000080: 47fd 74bc c678 e33c d829 c5bc 9e32 1fbc
00000090: d368 05bb 7ae7 acba 3d5f 05bd 1c76 9cbc
000000a0: 2d44 a23d f4d8 84bd edc0 43bd 2b32 9a3d
000000b0: 6df5 e1bc ee66 66bd 209d 843c e15f a83d
000000c0: 935b b3bd 8cb3 6cbd 994d 723a 17c9 36bd
000000d0: d763 58bd f64f 943d e42c 343d ce43 093d
000000e0: cb08 753d 513a 15bd 393c afbc 4ead 20bd
000000f0: 45a8 b33d ea1e 30bd 6a2d 863d ecbb 23bd
00000100: a317 7cbd 0ab2 b4bc 022e 90bd b2a1 5b3d
00000110: 82b2 8f3d 4adc efbc 06e8 5ebd 17ab 873d
00000120: 91a9 0f3d c7e7 683d 8f9a 953b 24ca 6b3d
00000130: 9333 08bd 9b67 7c3d 00cc c4bd 439f 823d
00000140: 5ee3 12bd 900f f3bc 6009 983c e268 74bc
00000150: 5cf1 14bd 0605 88bd a143 a33b 6a29 1cbc
00000160: 502b 6a3d 633c 6ebb 10c9 a73d 33f0 da3c
00000170: 197d 1e3c 2da7 333d a2cb 8fbc 0305 37bc
00000180: 12c1 ee3d 41e0 0b3d 36da 333d dd3c d2bc
00000190: 276d 853d 738e 5a3b 9290 5cbd bb84 1dbd
000001a0: 397b 61bd 1561 6cbd 923f 953b 13b2 2a3b
000001b0: 1926 ddbd 2587 5abd d90b 5b3d 4a02 39bd
000001c0: dc01 253d 7e97 a03d 4457 66bc 8ef4 81bd
000001d0: 47ab 80bd ea73 673d 95bf a93d 3b4e 7fbd
000001e0: 5758 39bd 2e36 f3bb 78e2 bb3d 0b78 8cbd
000001f0: cce4 bebd f3d9 9c3d ca56 49bd 00f4 30bd
00000200: 34ac df3c 8414 2cbd 10c8 91bd 6f0e 1f3b
00000210: dc4a 343c fc56 603d 5182 af3d 0509 b13b
00000220: d023 8abd 5909 303c 24a0 4b3d da80 7b3d
00000230: 4abb 943d 4a6e 853c c6ea 80bd 639b 15bd
00000240: 8868 2dbd 25fa 8d3b f55d 96bd 56f2 82bd
00000250: b28b 4dbc af78 3dbd a277 c9bc 6f4c 8dbd
00000260: 4221 093c ae31 8b3c 2392 4337 bdd9 e8bb
00000270: e1b1 a6bd c25e 783c 12f9 fb3c e314 60bd
00000280: ea06 6bbd c70f febd b663 543d 1698 93bc
00000290: 1898 91bd eceb 733d 7d6a 76bc 47ff 3bbd
000002a0: d92a 073d 6cc1 20bc b24a b23d 36af a5bd
000002b0: 8cb0 4bbd 0944 d63c 6b2d fd3c 9d11 80bd
000002c0: 0e44 41bd 5bc1 19bd 19a2 61bd 5529 67bb
000002d0: a033 ddbc 35ae 81bc 8ae8 7c3d 0660 973d
000002e0: a9c1 aebc 8366 ad39 0656 06bb 490a 8ebd
000002f0: a53e 9f3d f7bf febc e699 1a3d d167 99bd
00000300: 16ef 1cbd 2f8c c7bc ef5f 2bbb 862a 1b3b
00000310: f76c 823d 82c6 debb b54a 4abd a486 50bd
00000320: dc8a 58bd 50ba 473c 6308 bc38 19c7 8dbd
00000330: 35b0 afbc 2117 a83c defa 533d dd2d 833c
00000340: 1ff9 253d 8400 f1bc 452d f7bc aca8 843d
00000350: eb1b 813c e010 15bd 11d0 7fbd e4b6 803d
00000360: bafb a03d 39aa 5f3d d15a 68bd e0b1 d3bc
00000370: 25c0 003b e030 f73c 9875 1dbd 3fb0 6f3d
00000380: 85da 7bbd 8c95 2f3d 66d4 bbbd ffe6 4ebd
00000390: 2c3c 79bd 3cf0 a0bd def9 5abd b7a1 61bd
000003a0: 9b7b 943d 23c9 b0bd ae66 53bd cb45 48bd
000003b0: 4c83 d73c 5b58 093d e2fc 97bd 545e 873d
000003c0: 487f 133d 5c43 3dbd 7b12 fc3c 9b97 4a3d
000003d0: 7b45 783d 1492 f03c 1353 a23d c5cd 9ebd
000003e0: 5e0d 41bd f687 d9bc 8a22 5c3c ff55 0ebc
000003f0: 1fa2 87bd 1926 aebd 78c8 113d 475d 883d
-0.017115157 0.025045836 -0.019537007 -0.0007311285 -0.042341586 -0.034982704 0.07279121 0.046367675
0.04089946 0.030426566 -0.061338034 0.03158353 0.10477505 -0.045215026 0.06677654 0.059494764
0.013495376 -0.066762716 0.013180141 0.095687956 0.07716397 -0.03334635 -0.018449765 -0.00716962
-0.04961933 0.018577345 0.09317842 -0.008105496 -0.06917128 -0.013079856 0.051449727 0.09263195
-0.014952964 0.02776755 -0.024067804 -0.009716658 -0.002035667 -0.0013191544 -0.03256153 -0.019099288
0.0792316 -0.06486693 -0.04779141 0.075291 -0.027582848 -0.056250505 0.016188204 0.082214125
-0.08757701 -0.057788417 0.00092431303 -0.044625368 -0.05282959 0.07241814 0.043988124 0.03351193
0.05982284 -0.036432568 -0.021391021 -0.039227776 0.08772329 -0.042998232 0.06551631 -0.03997414
-0.06154598 -0.022057552 -0.07040025 0.053621 0.070164695 -0.029279847 -0.054420494 0.0662443
0.03507382 0.056861665 0.004565544 0.057565823 -0.03325231 0.061622243 -0.096092224 0.06378033
-0.035861365 -0.029670507 0.018559158 -0.014917584 -0.03636299 -0.06641583 0.004982427 -0.009531358
0.057170212 -0.0036351911 0.081926465 0.026725864 0.00967338 0.043860603 -0.017553154 -0.0111706285
0.11657919 0.034149412 0.043909274 -0.025663787 0.0651496 0.0033349067 -0.05384881 -0.03845666
-0.055049155 -0.057709772 0.0045546973 0.0026046082 -0.10798282 -0.05335154 0.053478096 -0.0451682
0.040284976 0.07841395 -0.014058892 -0.06345473 -0.062826686 0.05650703 0.082884945 -0.062330466
-0.045250263 -0.00742223 0.09174055 -0.06858834 -0.09320983 0.07658758 -0.049155034 -0.043201447
0.027303793 -0.042011753 -0.07118237 0.0024270078 0.011004176 0.054770455 0.08569778 0.0054026865
-0.06745112 0.010744416 0.04971327 0.06140218 0.07262285 0.016287941 -0.062947795 -0.03652514
-0.042336017 0.004332798 -0.0734214 -0.06393878 -0.012545513 -0.04625767 -0.024593178 -0.06899344
0.008369746 0.016991463 1.1656931e-05 -0.0071060346 -0.081393965 0.015159311 0.030758414 -0.05470742
-0.05737964 -0.12405353 0.051852904 -0.018016856 -0.07109088 0.059551165 -0.015040037 -0.04589775
0.032999847 -0.00981174 0.08705653 -0.080900595 -0.049728915 0.026155489 0.030905446 -0.062533595
-0.047184043 -0.037537914 -0.05508623 -0.0035272439 -0.027002156 -0.015830139 0.061745204 0.07391362
-0.021332579 0.00033073509 -0.0020498051 -0.069355555 0.0777562 -0.031097395 0.037744425 -0.074905045
-0.038313948 -0.024358837 -0.002614971 0.002367647 0.0636844 -0.0067985663 -0.049387652 -0.050909653
-0.0528668 0.012190416 8.966101e-05 -0.069227405 -0.021446327 0.020518841 0.051752917 0.01601308
0.040520784 -0.029419191 -0.030172953 0.06477484 0.015760383 -0.036393046 -0.062454287 0.062848836
0.07860513 0.054605696 -0.056727234 -0.025841653 0.0019645777 0.030174673 -0.038442224 0.05851769
-0.061487693 0.04286723 -0.09171371 -0.050513264 -0.0608484 -0.07858321 -0.05346095 -0.055085864
0.07250138 -0.08632114 -0.051611595 -0.048894685 0.026307724 0.033531528 -0.074212804 0.066097885
0.036010057 -0.046206817 0.03077053 0.04946099 0.060613137 0.02936653 0.079260014 -0.07754091
-0.04713189 -0.026554089 0.013435969 -0.008687495 -0.06622719 -0.0850336 0.035591573 0.06658416
