models/3690.HK_lstm_SMA50_diff.pth (torch, 807217 bytes, 9 tensors)

lstm.weight_ih_l0 f4 [512, 4]
0	0xbcf92e99	-0.030417727
1	0x3d80bfb9	0.06286568
2	0x3c96508e	0.018348958
3	0xbd245aa7	-0.040125515
4	0x3dfe599e	0.12419437
5	0x3c24320b	0.010021697
6	0x3d0319a2	0.032006867
7	0xbc886bd3	-0.016652977
8	0xbd84af1c	-0.06478712
9	0x3d6e284a	0.05814389
10	0xbb31a6c6	-0.0027107461
11	0xbd1ac726	-0.03778758
12	0xbd4506c0	-0.04810214
13	0xbca2f449	-0.019891875
14	0x3d98b82c	0.07457003
15	0x3d6835d1	0.05669195
16	0xbc07414c	-0.008255314
17	0x3d88693f	0.06660699
18	0x3d911d22	0.07085635
19	0xbd6e8cc8	-0.05823973
20	0x3dd9cd41	0.10634852
21	0x3cba287a	0.022724379
22	0x3dd54d16	0.104150936
23	0x3d8109ee	0.06300722
24	0x3d051b7d	0.032496918
25	0x3d0e5d47	0.034756925
26	0xbd15ab93	-0.03654058
27	0x3d02de50	0.031950295
28	0xbcbf790d	-0.023373151
29	0x393bc3c4	0.00017906638
30	0x3cb2e300	0.021836758
31	0x3d10bfa9	0.03533903
32	0x3d6a24d7	0.05716404
33	0xbd01b547	-0.03166702
34	0x3d45f01c	0.04832469
35	0x3da145ee	0.07874666
36	0xbd0d0caf	-0.034435924
37	0x3d5dc3f3	0.05414195
38	0x3d4d8739	0.050177786
39	0x3d84fdc6	0.06493716
40	0x3dacc6dc	0.08436367
41	0xbd5113d8	-0.051044315
42	0x3ae9f2b5	0.0017848822
43	0xbd16d239	-0.036821578
44	0x3ab429f8	0.0013745418
45	0x3dc2a8c0	0.09504843
46	0x3d8ec7b0	0.06971681
47	0x3d1bfdd8	0.03808388
48	0xbda1bb83	-0.07897093
49	0x3b70d9c8	0.0036750901
50	0x3d3f5aca	0.046717443
51	0x3d3a147e	0.0454297
52	0x3d6b8c4b	0.05750684
53	0x3de927bc	0.11384532
54	0xbd578d66	-0.052625082
55	0x3d0c4acc	0.03425102
56	0x3c8e4429	0.017366486
57	0x3d426edb	0.047469
58	0xbca89784	-0.02058006
59	0x3db8d034	0.090240866
60	0x3dc1eb03	0.09468653
61	0x3d58bf02	0.052916534
62	0xbba42055	-0.005008737
63	0x3d89a042	0.0672002
64	0x3e02dc4c	0.12779349
65	0x3e06d3d1	0.13166739
66	0x3e84d27c	0.25941837
67	0x3d82e818	0.063919246
68	0x3d2395d3	0.039937805
69	0x3d4ef9f3	0.05053134
70	0x3dfd629d	0.123723246
71	0xbd3b0ec6	-0.045668386
72	0xbd618ba1	-0.0550648
73	0x3d4f85b4	0.05066462
74	0xba84d31c	-0.0010133716
75	0xbcd7bc8d	-0.026335025
76	0x3d23f67a	0.04002998
77	0x3c6116ad	0.0137383165
78	0xbc119013	-0.008884448
79	0x3dde488b	0.1085368
80	0xbcdc8715	-0.02691988
81	0x3e09797e	0.13425252
82	0xbc43ec8e	-0.0119582545
83	0xbca72e52	-0.02040783
84	0xbd4c48a9	-0.04987398
85	0xbc85768e	-0.016291883
86	0x3dbd7e09	0.09252555
87	0x3d684168	0.056703
88	0x3e333faa	0.17504755
89	0x3e53b1b3	0.20673256
90	0x3e2e0f8c	0.16998118
91	0x3cca4977	0.024693234
92	0x3cc8f974	0.024533011
93	0x3d9512ca	0.07278974
94	0xbca0c08d	-0.019623065
95	0x3c43099e	0.011904148
96	0xbd7c155d	-0.06154381
97	0x3c564626	0.013078248
98	0xbc32271a	-0.01087358
99	0xbdced4b5	-0.100991644
100	0xbd41cb2f	-0.04731291
101	0x3d4fb279	0.050707314
102	0x3ca75507	0.020426286
103	0xbd19b16f	-0.03752273
104	0xbcc3b3c9	-0.02388944
105	0x3bb6dc6b	0.005580475
106	0x3d57a31c	0.052645788
107	0x3d0f46d1	0.034979645
108	0xbd65b85d	-0.056084026
109	0xbbb8fb9f	-0.00564523
110	0x3c4112a1	0.011784227
111	0xbbff65e7	-0.00779413
112	0x3d625b8f	0.0552631
113	0x3d61332e	0.05498045
114	0x3df4b806	0.11949162
115	0xbd68846a	-0.056766905
116	0x3c9d788f	0.019222526
117	0x3d0d795f	0.034539577
118	0xbc692ff1	-0.0142326215
119	0xbcf353cc	-0.029703043
120	0x3c84f01d	0.016227776
121	0x3d460370	0.048343122
122	0xbd4eeab3	-0.050516795
123	0xbd4adcdd	-0.049527038
124	0xbc313d85	-0.01081789
125	0x3d87d86c	0.06633076
126	0x3d755573	0.059895944
127	0x3dd68717	0.10474985
128	0x3dc6de70	0.09710395
129	0xbbfbf45d	-0.0076890425
130	0xbd4e581d	-0.050377
131	0x3ca1b110	0.01973775
132	0x3d57f2ae	0.05272167
133	0x3de7db6a	0.11321147
134	0xbcf37d8d	-0.029722953
135	0x3cdf4482	0.027254347
136	0x3cd3ac63	0.025839036
137	0x3d7e0f5d	0.06202637
138	0x3ad6ce40	0.0016388372
139	0x3d2016ed	0.039084364
140	0xbda09b67	-0.07842141
141	0x3cb12aa4	0.021626778
142	0xbd57a0ff	-0.052643772
143	0xbdd810b5	-0.105500616
144	0x3d04e5e2	0.032445796
145	0x3de6510a	0.11245926
146	0x3cf7cc96	0.030248921
147	0xbd16c08d	-0.036804724
148	0x3d1b77d6	0.03795608
149	0xbc751c89	-0.014960417
150	0xbcce1b96	-0.025159638
151	0xbd0370c2	-0.032089956
152	0x3de0bf71	0.109740146
153	0xbcdbc583	-0.02682758
154	0x3d3b480e	0.045723014
155	0xbc51561d	-0.012776879
156	0x3d46c002	0.048522957
157	0x3c159f8a	0.009132275
158	0xbcac16c8	-0.021006957
159	0x3a5632af	0.00081710046
160	0x3d2c2ff1	0.042037908
161	0x3dabe0cb	0.08392485
162	0x3daa297b	0.08308693
163	0x3d7afc34	0.061275676
164	0x3d297dc3	0.0413797
165	0x3dc0dba7	0.09416895
166	0x3b861cf2	0.004092806
167	0x3d682262	0.056673415
168	0xbb4d1b75	-0.0031296883
169	0xbd1092af	-0.03529614
170	0x3dc31791	0.09525979
171	0x3da94130	0.08264387
172	0x39dc1f32	0.00041984912
173	0x3c5eef4f	0.01360686
174	0xbd1b6fc2	-0.037948377
175	0x3a2828be	0.00064147625
176	0xbd623223	-0.055223595
177	0x3d027889	0.031853233
178	0x3d074815	0.033027727
179	0x3da398da	0.079881385
180	0x3e1dde30	0.15416789
181	0x3e023020	0.1271367
182	0x3e248e84	0.1606999
183	0x3cba4692	0.022738729
184	0x3dc95ae0	0.09831786
185	0x3db11388	0.086463034
186	0x3c9d5ebd	0.019210214
187	0x3c4f51b4	0.012653757
188	0x3d294031	0.041320983
189	0x3cea3db8	0.028593883
190	0xbc99cc21	-0.018774094
191	0x3c2f0949	0.010683366
192	0xbdcfcdf4	-0.10146704
193	0x3c249211	0.010044591
194	0x3ca32e1c	0.019919448
195	0x3beee199	0.007290077
196	0x3dc87104	0.09787181
197	0x3a3a2864	0.00071013556
198	0x3d9e2878	0.077225626
199	0x3cdc036a	0.026857097
200	0x3d4492b6	0.047991477
201	0x3de72b24	0.11287525
202	0x3d6a3238	0.0571768
203	0x3d7ca284	0.061678424
204	0x3cd03ff3	0.025421118
205	0xbccef105	-0.025261411
206	0x3dbf4c10	0.0934068
207	0x3cc35666	0.023844909
208	0xbd437623	-0.047720086
209	0x3b8cc0bb	0.004295436
210	0x3da38d17	0.07985895
211	0x3d398112	0.045289107
212	0x3da359ee	0.07976137
213	0x3d865330	0.065588355
214	0xbd3d925c	-0.046282157
215	0x3dbc3766	0.09190254
216	0xbd6e76d2	-0.058218785
217	0x3d876ee4	0.066129476
218	0x3cbe00bc	0.02319371
219	0x3d74b56d	0.059743334
220	0x3da4b1c4	0.080417186
221	0xbb4c8022	-0.0031204303
222	0x3d2ed64b	0.042684834
223	0x3ce78179	0.02825998
224	0x3d85fda9	0.065425225
225	0x3e22317d	0.15839191
226	0x3d54d07c	0.05195664
227	0x3db8b890	0.090195775
228	0xbc32d084	-0.010913972
229	0x3ce4b0ea	0.02791639
230	0x3d8f85af	0.0700792
231	0x3cd38e16	0.025824588
232	0x3db84e60	0.08999324
233	0xbd8513b9	-0.064979024
234	0x3d6291dd	0.055314887
235	0xbcb048d4	-0.021519102
236	0x3d353c1f	0.04424679
237	0x3d3277d7	0.04357132
238	0x3dbf8ccc	0.09353027
239	0x3d8f05d4	0.069835335
240	0x3d380847	0.04492977
241	0x3c8cb4dc	0.017176084
242	0xbcfc4076	-0.030792456
243	0x3d09a8d8	0.033608288
244	0xbdafa3e6	-0.08576183
245	0x3d04ff83	0.032470237
246	0x3ad39b3b	0.0016144285
247	0xbd29ee08	-0.04148677
248	0x3db0d277	0.08633893
249	0xba33897b	-0.00068487943
250	0x3d836fd0	0.06417811
251	0x3d43947f	0.04774904
252	0x3de98bfd	0.11403654
253	0x3d0ea202	0.03482247
254	0x3d571dac	0.05251853
255	0x3bc28668	0.0059364326

lstm.weight_hh_l0 f4 [512, 128]
0	0xbdfc1dab	-0.12310346
1	0xbc3207eb	-0.010866146
2	0x3e3811fc	0.1797561
3	0x3d8dd90e	0.069261655
4	0xbd831529	-0.0640052
5	0x3d57225b	0.052523
6	0x3da71900	0.08159065
7	0xbd1f9e91	-0.03896958
8	0x3d4138e5	0.0471734
9	0xbd2d627a	-0.042330243
10	0xbd6fc286	-0.05853512
11	0xbd1dca6c	-0.038523123
12	0x3c48b618	0.012250446
13	0xbd0f710a	-0.03501991
14	0x3d004ede	0.031325214
15	0xbd6f69d2	-0.058450527
16	0xbe0ef422	-0.13960317
17	0x3d56da1b	0.052454095
18	0xbdb54a6c	-0.088520855
19	0xbd1fa636	-0.03897687
20	0x3da4e198	0.08050841
21	0xbcb1ee23	-0.021719998
22	0x3dabda63	0.08391263
23	0x3d6f9190	0.05848843
24	0x3e1b8c52	0.15190247
25	0x3ccdeaa9	0.025136309
26	0xbc242d4d	-0.010020566
27	0xbd0adb93	-0.03390081
28	0x3db4affc	0.08822629
29	0x3e2a1064	0.16607815
30	0x3b29e76b	0.002592529
31	0x3c79e0ed	0.01525138
32	0xbd9da7bf	-0.07698011
33	0x3d1b2690	0.037878573
34	0xbe02b873	-0.12765674
35	0x3d2aefd2	0.041732617
36	0xbc8097c6	-0.015697371
37	0x3db7e1a1	0.08978582
38	0x3d92b702	0.07163812
39	0x3da241fc	0.07922742
40	0xbc9d6763	-0.019214338
41	0xbd594df2	-0.05305285
42	0x3d5801ee	0.052736215
43	0xbd7b3444	-0.06132914
44	0x3df110aa	0.117707565
45	0x3e5c2518	0.21498525
46	0x3dad87b3	0.08473148
47	0xbd6d5795	-0.057944853
48	0xbab13913	-0.0013521038
49	0xbd2313a1	-0.03981364
50	0xbd952d24	-0.072840005
51	0x3d33da34	0.043909267
52	0xbdc2b37b	-0.095068894
53	0x3c3e7de9	0.011626699
54	0x3bf0f6a8	0.0073536225
55	0xbe4eb174	-0.2018488
56	0xbd204320	-0.039126515
57	0x3cf4e26e	0.029893126
58	0x3be35434	0.006937528
59	0x3d276c01	0.040874485
60	0xbd83a5a8	-0.06428081
61	0xbd30d14f	-0.043168362
62	0xbd2803fe	-0.041019432
63	0xbbfc0751	-0.007691302
64	0x3caccaf6	0.021092873
65	0xbcf077db	-0.029354027
66	0xbd8b8b05	-0.06813625
67	0x3dc0d6ab	0.09415945
68	0xbdbb0765	-0.0913227
69	0x3e024e85	0.12725265
70	0x3bbd5443	0.005777867
71	0x3d2d8f82	0.042373188
72	0xbd4cc509	-0.049992595
73	0xbd86bdd6	-0.06579177
74	0x3d8a6c66	0.067589566
75	0x3c956bf6	0.018239956
76	0x3cdbfcc4	0.026853926
77	0x3d87cf69	0.06631357
78	0xbd74412e	-0.059632473
79	0x3d4a8671	0.04944462
80	0x3d4d0320	0.05005181
81	0xbc9f0f97	-0.019416614
82	0xbd573133	-0.052537154
83	0x3d33eb21	0.04392541
84	0xbc9197d8	-0.0177726
85	0xbd51c45a	-0.051212646
86	0xbc16ed13	-0.009211796
87	0xbd2df8cc	-0.0424736
88	0x3d44402d	0.047912765
89	0x3dc3a1d9	0.09552354
90	0xbbf378c2	-0.007430167
91	0xbd083160	-0.033250213
92	0x3cf6f62d	0.030146683
93	0x3d060b51	0.032725636
94	0x3cb2b60f	0.021815328
95	0x3c62704a	0.013820717
96	0xbd3ad6ba	-0.045614935
97	0x3ba90b11	0.00515879
98	0xbccaeea7	-0.024772001
99	0xbb810f14	-0.003938565
100	0x3dad7591	0.0846969
101	0xbcefdf43	-0.029281264
102	0xbdbaf40d	-0.0912858
103	0x3e2e797f	0.17038535
104	0x3c82efe6	0.015983533
105	0x3d92a73c	0.07160804
106	0xbdda73fd	-0.10666654
107	0xbb60ed70	-0.0034321211
108	0x3e22650c	0.15858859
109	0x3d14b4c4	0.036305204
110	0x3d5075f2	0.05089373
111	0x3ccdaa10	0.025105506
112	0x3bf42381	0.0074505215
113	0xbd997f16	-0.07494943
114	0x3d7cfc84	0.061764255
115	0x3dc1fd5b	0.09472152
116	0x3da8ab02	0.08235742
117	0x3d4f12d0	0.05055505
118	0xb9e6407f	-0.00043917072
119	0x3d936182	0.071963325
120	0xbdc724d8	-0.09723824
121	0x3de814f0	0.113321185
122	0xbd8a5ac4	-0.067555934
123	0x3d99caab	0.07509359
124	0x3c7cc05b	0.0154267205
125	0x3d31cb51	0.04340679
126	0xbdbf1c54	-0.09331575
127	0xbde09108	-0.109651625
128	0x3cb9249c	0.022600465
129	0x3cf87db7	0.030333383
130	0x3d807e52	0.06274094
131	0xbbc1a6ca	-0.0059097754
132	0xba250ffc	-0.00062966323
133	0xbc7bb9f6	-0.015364161
134	0x3d179ea8	0.03701654
135	0x3d2614ed	0.0405473
136	0x3d4f6487	0.05063298
137	0xbaf7a055	-0.0018892387
138	0xbbec25d9	-0.00720666
139	0xbd656a76	-0.056009732
140	0xbc05c55b	-0.008164729
141	0x3d46473f	0.04840779
142	0x3bbdc343	0.0057910993
143	0x3ce8681e	0.02836996
144	0x3d037374	0.032092527
145	0xbd3a94ea	-0.04555217
146	0x3cb5b38d	0.022180343
147	0x3d808e1d	0.06277106
148	0x3d514d75	0.05109926
149	0xbd96313d	-0.0733361
150	0x3ca7bd61	0.020476045
151	0x3cce06d6	0.025149744
152	0x3da1d47f	0.079018585
153	0x3a1d9f55	0.0006012817
154	0xbd0d476a	-0.034491934
155	0x3ca98fe5	0.020698497
156	0x3d7b324a	0.061327256
157	0x3d1b3e0c	0.03790097
158	0xbd436417	-0.047702875
159	0xbcbf585c	-0.023357563
160	0x3d7e14c7	0.062031534
161	0xbdaa4901	-0.08314706
162	0x3d288aaf	0.041147884
163	0x3da6f0f7	0.08151429
164	0xbd9d787a	-0.07688995
165	0xbdb791ab	-0.08963331
166	0x3d94224c	0.07233104
167	0xbc619178	-0.013767593
168	0x3da7d792	0.08195414
169	0xbda18827	-0.07887297
170	0xbcaccf11	-0.02109483
171	0xbd9e941d	-0.07743094
172	0xbce20e96	-0.027594846
173	0x3d2df839	0.04247305
174	0x3d9d7990	0.07689202
175	0xbc829343	-0.01593936
176	0xbd3b17df	-0.045677062
177	0xbc96629b	-0.018357566
178	0x3da1cc28	0.07900268
179	0x3c45c2e0	0.012070388
180	0x3d6eae4d	0.058271695
181	0xbd20d970	-0.039269865
182	0x3d54e20f	0.0519734
183	0x3d61f24b	0.05516271
184	0x3d3437a1	0.043998364
185	0xbcb41070	-0.021980494
186	0xbdc5cd51	-0.096583016
187	0x3d30648a	0.04306463
188	0x3d2226fc	0.03958796
189	0xbc03f3f2	-0.008053767
190	0xbd65f46c	-0.056141302
191	0xbcdfc484	-0.027315386
192	0xbd9dcef9	-0.077054925
193	0x3c90b75d	0.01766556
194	0xbd83b489	-0.06430919
195	0x3c46d3c3	0.012135449
196	0xbdc71934	-0.09721604
197	0x3d35be0a	0.04437069
198	0x3bbb2729	0.0057114554
199	0xbce96864	-0.02849216
200	0xbd86aabe	-0.06575535
201	0xbdc19ea6	-0.09454088
202	0x3c5c6d32	0.013453769
203	0xbd9750b0	-0.07388437
204	0x3da516ca	0.08060987
205	0xbd58c5b6	-0.052922927
206	0x3d8fa019	0.07012958
207	0x3d6ec002	0.05828858
208	0xbc2d8609	-0.0105910385
209	0xbd1b2951	-0.0378812
210	0x3cfc8f05	0.030829916
211	0x3ce813dd	0.028329784
212	0x3ce6ac33	0.028158283
213	0xbd99778a	-0.074935034
214	0xbd812de4	-0.06307581
215	0xbd8968af	-0.0670942
216	0xbbd1ac05	-0.00639868
217	0x3c021aa1	0.007940919
218	0x3ca93fd0	0.020660311
219	0xbd849ba2	-0.06474997
220	0xbd900924	-0.070329934
221	0xbb3bd2a1	-0.002865948
222	0x3d57b1e2	0.052659877
223	0x3c467dd7	0.0121149635
224	0xbc446c1c	-0.011988666
225	0x3d08fc99	0.03344402
226	0xbcb99c8d	-0.022657657
227	0x3d0c150c	0.03419976
228	0x3db3b5e0	0.08774924
229	0x3c0b766a	0.008512119
230	0xbd067693	-0.032827925
231	0x3d805862	0.06266858
232	0x3c6a8b17	0.014315388
233	0x3d2b4461	0.041813258
234	0xbd3d47a3	-0.046210896
235	0xba7f8613	-0.00097474566
236	0xbd37b695	-0.04485186
237	0xbdbe32f8	-0.09287065
238	0xbd7cca05	-0.0617161
239	0x3d70082c	0.058601543
240	0xbd1bd427	-0.03804412
241	0x3d8c61a7	0.06854563
242	0x3d58cfcb	0.05293254
243	0xbb8f224f	-0.0043681036
244	0xbdae4ee3	-0.0851114
245	0xbda9085c	-0.082535475
246	0xbd098f07	-0.033583667
247	0xbd45c337	-0.048281875
248	0xbc76632d	-0.015038294
249	0xbda69fef	-0.08135974
250	0x3d629933	0.055321883
251	0x3cfb1572	0.030649874
252	0xbd140375	-0.03613611
253	0xbce21ba4	-0.02760107
254	0x3ce29483	0.027658707
255	0x3dc262cd	0.09491501

lstm.bias_ih_l0 f4 [512]
0	0x3db6e73d	0.08930824
1	0x3d868a24	0.06569317
2	0x3d59c86a	0.053169645
3	0xb8b0f83b	-8.4385705e-05
4	0xbd64b005	-0.055831928
5	0xbccb649b	-0.024828246
6	0x3db9f804	0.09080508
7	0x3b04c538	0.0020259153
8	0x3ce88269	0.028382497
9	0x3d4d41fd	0.05011176
10	0xbd2be366	-0.04196491
11	0x3d9cc4ef	0.076547496
12	0x3d3526e3	0.04422654
13	0x3d67bedc	0.056578502
14	0xbd8d82a0	-0.0690968
15	0xbc1fff77	-0.009765497
16	0x3e5f3f07	0.21801387
17	0xbd3e0475	-0.04639097
18	0xbd0f169b	-0.034933668
19	0x3cd15364	0.025552459
20	0xbd48680a	-0.048927344
21	0x3d5c64eb	0.05380718
22	0x3e2ca3af	0.16859315
23	0x3d8f79aa	0.070056275
24	0xbda999cf	-0.0828129
25	0x3db3730a	0.08762176
26	0x3cc466f3	0.023974871
27	0xbd8de24d	-0.06927929
28	0x3c78de33	0.015189695
29	0x3bcd9329	0.0062736464
30	0x3d7e0d4d	0.062024403
31	0xbd9a4a37	-0.075336866
32	0xbda6c74e	-0.08143483
33	0xbcab1429	-0.020883637
34	0xbd17737a	-0.03697536
35	0xbc7f0eeb	-0.015567522
36	0x3dbb24e8	0.09137899
37	0x3d3b103e	0.045669787
38	0x3b826c86	0.003980222
39	0x3de1e4f5	0.11029998
40	0xbcc68e1b	-0.024237683
41	0xbd133082	-0.035934933
42	0x3d63fd25	0.05566134
43	0x3cb95d76	0.022627573
44	0xbd0b27ff	-0.03397369
45	0x3d838adf	0.06422972
46	0x3d9cc45b	0.07654639
47	0xbc829608	-0.015940681
48	0x3d80d96f	0.06291472
49	0xbcba0df5	-0.022711733
50	0xbbd3adce	-0.006459928
51	0xbb9dc43a	-0.004814652
52	0x3d8b2781	0.06794644
53	0x3db4d662	0.08829953
54	0x3d35f8bd	0.04442667
55	0x3d436a38	0.04770872
56	0x3d5b6240	0.053560495
57	0x3d87e355	0.06635157
58	0x3c10c726	0.008836543
59	0x3d2b4a4e	0.04181891
60	0x3dd0e27f	0.10199451
61	0x3d29386a	0.041313566
62	0xbd5fe252	-0.054659195
63	0x3d867296	0.06564824
64	0x3e57c6d1	0.21071936
65	0x3daac447	0.08338218
66	0x3b18cb10	0.0023314394
67	0x3e6744b8	0.22584808
68	0xbd8503c1	-0.064948566
69	0xbd88a6fd	-0.066724755
70	0x3ca39917	0.01997046
71	0xbb0e5c0d	-0.0021722347
72	0x3dc19a90	0.094533086
73	0xbc4e5e8a	-0.012595782
74	0xbd0fc76a	-0.035102285
75	0xbbf152bd	-0.0073645995
76	0x3da2b8b5	0.07945386
77	0x3d3efc3f	0.04662728
78	0x3c55de58	0.013053499
79	0xbd61b398	-0.055102915
80	0x3d4dbc32	0.050228305
81	0xbd7967e2	-0.060890086
82	0xbd7438cb	-0.059624474
83	0x3dbe8d15	0.09304253
84	0xbc0c0160	-0.00854525
85	0x3d22b430	0.03972262
86	0x3cea719d	0.028618628
87	0xbc46838a	-0.012116322
88	0x3da2a8e3	0.07942369
89	0xbc0cffd7	-0.008605919
90	0x3aa3b829	0.0012490797
91	0x3ba0270e	0.004887468
92	0x3d3b9a31	0.045801345
93	0x3d235b62	0.03988207
94	0xbbd0ae43	-0.00636843
95	0x3db21071	0.08694542
96	0xbd104a87	-0.035227325
97	0xbd2c0eaf	-0.04200619
98	0x3d0e183a	0.034691073
99	0x3da1d17c	0.07901284
100	0xbd9fa77b	-0.07795616
101	0x3da6716b	0.081271015
102	0x3d65a0be	0.0560615
103	0x3d49fb12	0.049311705
104	0x3d1fdec6	0.039030813
105	0x3dbb2265	0.091374196
106	0x3d5e9fb9	0.054351542
107	0xbd5cf492	-0.053944178
108	0x3d8769c5	0.06611971
109	0xbd950d34	-0.07277909
110	0x3d3beab5	0.04587813
111	0x3d5e421e	0.054262273
112	0xbc7a26a9	-0.015268006
113	0x3dbcb45f	0.092140906
114	0xbc192f3c	-0.00934964
115	0x3dad137f	0.08450984
116	0x3d9b4cb5	0.0758299
117	0x3d87183b	0.065964185
118	0x3d0eb349	0.03483895
119	0xbc8c7bbb	-0.017148843
120	0x3dc32ee9	0.09530432
121	0x3dc3278c	0.09529027
122	0x3d8d2fb9	0.06893868
123	0xbd00e84b	-0.03147153
124	0xbd0bde11	-0.034147326
125	0x3dfbcf89	0.122954436
126	0xbd2271ee	-0.039659433
127	0xbbcaa22d	-0.0061838836
128	0x3c00c6e8	0.007859923
129	0xbcbcf376	-0.02306531
130	0xbd123b29	-0.03570095
131	0xbb548427	-0.0032427402
132	0xbd014235	-0.03155728
133	0xbdb294ac	-0.08719763
134	0x3d293087	0.041306045
135	0xbd1bde07	-0.03805354
136	0xbd010211	-0.03149611
137	0xbd880b94	-0.06642833
138	0xbd8fc583	-0.07020094
139	0xbd3c0a86	-0.045908473
140	0x3c425468	0.011860944
141	0xbc856b9c	-0.016286664
142	0x3d4388e2	0.047737963
143	0xbd61c4ea	-0.055119433
144	0xbdb91d76	-0.09038822
145	0xbd847d8e	-0.0646926
146	0xbdbb03dc	-0.091315955
147	0x3d523756	0.051322304
148	0x3c2ff9e4	0.010740731
149	0x3d97fce0	0.07421279
150	0xbd81b140	-0.06332636
151	0x3c885e6a	0.016646583
152	0xbda01fdc	-0.07818577
153	0xbbe57bef	-0.0070032994
154	0x3d8b9ba0	0.068167925
155	0x3d908e3c	0.07058379
156	0xbc9f2638	-0.019427404
157	0x3ce934d9	0.028467583
158	0xbdd4ac99	-0.10384483
159	0xbd0d78b5	-0.034538943
160	0xbdba3f69	-0.09094126
161	0xbd0c0a9e	-0.034189813
162	0xbcd5b0f9	-0.026085364
163	0x3c9440b2	0.018097255
164	0xbb322f8f	-0.0027188992
165	0xbdaa7569	-0.083231755
166	0xbc41a013	-0.01181795
167	0xbd3c364c	-0.04595022
168	0x3c91de54	0.01780621
169	0xbd311caa	-0.043240227
170	0xbd1841ee	-0.03717225
171	0x3d7be1ec	0.061494753
172	0xbca1fffd	-0.019775385
173	0x3d24a004	0.040191665
174	0x3d0e3c03	0.0347252
175	0xbdab117f	-0.083529465
176	0xbd46c8ab	-0.048531216
177	0x3cad16a0	0.021128953
178	0xbc697bcf	-0.01425071
179	0x3c0af3d5	0.008480986
180	0xbd859e03	-0.06524279
181	0x3d81cc3d	0.063377835
182	0xbda4f0ff	-0.08053779
183	0x3db951d8	0.090488136
184	0xbd758706	-0.05994322
185	0xbd61c257	-0.055116978
186	0x3d528b15	0.05140217
187	0x3d6dcf3f	0.058058973
188	0x3d1ec78a	0.038764514
189	0x3d270591	0.040776793
190	0xbc8d7069	-0.017265515
191	0x3c8e13fe	0.017343517
192	0xbde384ac	-0.111092895
193	0xbc909ab0	-0.017651886
194	0x3d989ec4	0.07452157
195	0xbc679743	-0.014135185
196	0x3d21e026	0.039520405
197	0x3d86c341	0.065802105
198	0xbdb5dae5	-0.088796414
199	0x3d265ae3	0.04061402
200	0xbd6216a6	-0.05519738
201	0x3c8f1612	0.017466579
202	0xbcd7c83d	-0.026340598
203	0xbcf6d197	-0.030129237
204	0xbd6c1f7f	-0.057647225
205	0xbd886d8c	-0.066615194
206	0x3d25e851	0.040504757
207	0xbd4c9249	-0.049944196
208	0xbdb08176	-0.08618443
209	0x3d9d03de	0.07666753
210	0xbc7efd50	-0.015563324
211	0xbca3579a	-0.019939233
212	0xbd96351e	-0.0733435
213	0xbd46d334	-0.048541263
214	0x3cd0dd8a	0.025496263
215	0xbc232f39	-0.009959989
216	0xbd976827	-0.07392912
217	0x3d51ae36	0.05119153
218	0xbd833a3c	-0.06407592
219	0xbd1035b0	-0.03520745
220	0xbc3600e8	-0.0111086145
221	0xbd8d5442	-0.069008365
222	0x3beda758	0.007252615
223	0xbd9e408a	-0.077271536
224	0xbd91fafb	-0.07127949
225	0x3cfa204c	0.030532978
226	0x3d70f10a	0.058823623
227	0xbe14b74c	-0.14523047
228	0xbd5848cb	-0.052803796
229	0xbd60db30	-0.054896533
230	0x3d90ff99	0.070800014
231	0x3d9eb24b	0.077488504
232	0x3cebf3b9	0.02880274
233	0xbce0d9bd	-0.027447576
234	0x3d3c238f	0.04593235
235	0xbd9b62cf	-0.075872056
236	0xbd72d8b4	-0.059288695
237	0x3d017624	0.03160681
238	0xbcd57a01	-0.026059153
239	0x3d8cf1d5	0.06882063
240	0xbd8c5598	-0.06852263
241	0x3dacd274	0.08438578
242	0xbc25cb8b	-0.010119329
243	0xbda271f0	-0.07931888
244	0xbda4c3bb	-0.08045145
245	0x3d4776c9	0.048697267
246	0xbd19f676	-0.03758856
247	0x3d6e437f	0.058169838
248	0x3aa02fdc	0.0012221294
249	0xbd76e37a	-0.060275532
250	0xbdc44b02	-0.09584619
251	0x3c5a65bc	0.013329919
252	0xbb36779f	-0.0027842296
253	0x3d5088e3	0.050911795
254	0x3d3475d9	0.0440577
255	0xbd8da6ed	-0.06916604

lstm.bias_hh_l0 f4 [512]
0	0xbd19736f	-0.0374636
1	0x3dc9cb74	0.09853259
2	0x3d7d4735	0.061835486
3	0xbd9581ca	-0.07300146
4	0x3dc6d28e	0.09708129
5	0x3d963211	0.07333768
6	0x3d90baee	0.07066904
7	0xbd7a2519	-0.061070535
8	0x3d9c0203	0.07617571
9	0xbc093394	-0.008374114
10	0xbcb65c5b	-0.022260835
11	0xbd3c659d	-0.045995343
12	0xbd7fe32f	-0.06247252
13	0xbbe4e347	-0.0069851014
14	0xbcf644ef	-0.030062167
15	0x3d05d33a	0.032672144
16	0x3e25c895	0.16189797
17	0x3d89e1fb	0.067325555
18	0x3d3a67e5	0.045509238
19	0xbc81df35	-0.015853504
20	0x3d55ba04	0.05217935
21	0x3d736fed	0.059432913
22	0x3db44c86	0.08803658
23	0x3dcc2a97	0.09969061
24	0x3c827778	0.015926108
25	0x3d70ffc0	0.058837652
26	0x3d94abc7	0.072593264
27	0xbcdf36de	-0.027247842
28	0xbcb9dd75	-0.022688607
29	0x3d430be3	0.047618758
30	0x3cb39c6b	0.021925172
31	0x3db72db9	0.08944268
32	0x3d99102b	0.07473787
33	0x3d92e590	0.07172692
34	0xbd58697e	-0.05283498
35	0x3cbfe67f	0.023425339
36	0xbb623739	-0.0034517779
37	0x3de856f8	0.11344713
38	0x3d39c384	0.045352474
39	0x3dd4e983	0.10396101
40	0xbd3bee75	-0.045881707
41	0xbd9dd3c3	-0.07706406
42	0xbd1f3dbe	-0.03887724
43	0x3d9da8af	0.076981895
44	0xbcdbd3b2	-0.026834343
45	0x3e0a9a01	0.1353531
46	0x3b1f8805	0.0024342549
47	0xbccd6afd	-0.02507543
48	0xbdbd876d	-0.09254346
49	0x3d89fb9a	0.06737442
50	0xba16efb0	-0.0005757762
51	0xbcfdfeaf	-0.031005232
52	0x3d9a4b85	0.075339355
53	0x3d859a55	0.06523577
54	0xbd1b92cc	-0.037981793
55	0x3d35b3e0	0.044360995
56	0x3dd36e4d	0.103237726
57	0xbd775340	-0.060382128
58	0x3d93918b	0.072054945
59	0xbd79c44f	-0.06097823
60	0xbd59e2c4	-0.053194776
61	0xbd12c8ce	-0.035836034
62	0x3d0dc022	0.03460706
63	0xbd50c4b4	-0.05096884
64	0x3e7ee0e2	0.24890473
65	0xbd0c33f0	-0.03422922
66	0x3d91a7aa	0.071120575
67	0x3e3a73a8	0.18208182
68	0x3ccabb32	0.024747465
69	0x3aff44a8	0.0019475417
70	0xbc5bcedf	-0.013416021
71	0xbbd4ea89	-0.0064976853
72	0x3e077033	0.13226394
73	0x3d8e5190	0.069491506
74	0xbd97c662	-0.074108854
75	0x3c6d9d30	0.014502808
76	0x3d1e3125	0.038621087
77	0x3db8d756	0.09025447
78	0xba3ff7aa	-0.00073229766
79	0xbd2f58e6	-0.04280939
80	0x3d9b66e0	0.07587981
81	0xbd48d3ff	-0.0490303
82	0x3da65f70	0.08123672
83	0x3d1fabb1	0.038982097
84	0x3da416ea	0.08012183
85	0x3d8b3eaf	0.06799065
86	0xbca44160	-0.020050704
87	0x39f27548	0.00046245218
88	0xbd5afef0	-0.053465784
89	0x3db88692	0.09010042
90	0x3c3f9ea3	0.011695537
91	0x3db17f3c	0.08666846
92	0x3deabc39	0.11461682
93	0xbbecced7	-0.0072268057
94	0x3d84e38f	0.06488716
95	0x3d0e85c7	0.03479555
96	0x3dc8d09b	0.09805413
97	0x3d97a6fd	0.07404897
98	0x3d393937	0.04522058
99	0x3e48fc07	0.19627391
100	0x3dbdfeaa	0.09277089
101	0x3da905ce	0.0825306
102	0x3db8ea61	0.09029079
103	0xbd053955	-0.03252538
104	0xbd893888	-0.067002356
105	0x3d87be85	0.066281356
106	0xbafc4acd	-0.0019248367
107	0xbd458149	-0.048219
108	0xbb448025	-0.0029983607
109	0x3d14eeb8	0.036360472
110	0xbb927da3	-0.0044705435
111	0x3d1b6b51	0.03794414
112	0x3d3eb633	0.046560477
113	0xbd32f27d	-0.043688286
114	0xbd3ed567	-0.046590235
115	0x3cb7f1f0	0.022454232
116	0xbc553baa	-0.013014713
117	0x3d8a394c	0.0674921
118	0xbd4f9380	-0.050677776
119	0xbd830d40	-0.063990116
120	0xbd509f42	-0.05093313
121	0x3e2d98d1	0.16952826
122	0x3d286335	0.041110236
123	0xbd9efb75	-0.07762805
124	0x3c7f1d61	0.015570969
125	0x3e051d4f	0.12999462
126	0x3d3b4dd0	0.045728505
127	0xbd59c685	-0.05316784
128	0x3ccfa951	0.025349291
129	0x3a8b2cd2	0.0010618216
130	0x3d1e8848	0.038704187
131	0x3a959bbb	0.0011414209
132	0xbd451bf5	-0.048122365
133	0x3d05a393	0.0326267
134	0xbd366dde	-0.04453837
135	0x3d38b6b7	0.045096125
136	0x3cbd3fc1	0.02310169
137	0xbd4b2363	-0.049594294
138	0xbd26d5ad	-0.04073112
139	0x3c72286c	0.014780145
140	0xb9246a2a	-0.00015679808
141	0x3da77358	0.08176297
142	0xbd73bf70	-0.05950874
143	0xbd315471	-0.04329342
144	0xbdd4be0c	-0.10387811
145	0xba81f3ac	-0.0009914539
146	0xbd0e4251	-0.034731213
147	0xbcf33f7f	-0.029693363
148	0xbd279a78	-0.040918797
149	0x3da18b0d	0.0788785
150	0xbda843c3	-0.082160495
151	0xbd1654e5	-0.036702055
152	0xbdbd63f9	-0.09247584
153	0x3d0923ea	0.033481516
154	0xbcd42f10	-0.025901347
155	0xbd203222	-0.03911031
156	0x3ceace36	0.028662782
157	0xbd8a8490	-0.067635655
158	0xbcdd0df9	-0.026984202
159	0x3c0f7714	0.008756418
160	0xbd207fbc	-0.039184317
161	0x3d452c8f	0.048138198
162	0xbd5dcb4c	-0.054148957
163	0x3c8245a2	0.015902344
164	0x3d013f33	0.031554412
165	0x3ba93bd8	0.0051646046
166	0xbd7d7760	-0.061881423
167	0xbd906b2d	-0.07051692
168	0xbd8d0d39	-0.06887288
169	0xbd3a79c9	-0.0455263
170	0xbac29988	-0.0014846781
171	0xbc87db50	-0.016584069
172	0x3db4912e	0.08816753
173	0xbd519854	-0.051170662
174	0xbd182352	-0.03714306
175	0x3c579c52	0.013159828
176	0xbd0360e8	-0.03207484
177	0xbd84969e	-0.064740404
178	0x3d7006e1	0.05860031
179	0xbc95f8ed	-0.018307174
180	0x3d79ef4f	0.061019238
181	0x3c973771	0.018459054
182	0xbd9110fa	-0.07083316
183	0x3db06dc0	0.08614683
184	0xbbbb857f	-0.005722701
185	0x3c655599	0.013997459
186	0xbc3dd7d2	-0.0115871
187	0x3d7d3bb9	0.061824534
188	0xb8a01b54	-7.634485e-05
189	0xbdc98f70	-0.09841812
190	0x3ced67e1	0.028980197
191	0xbd840930	-0.06447065
192	0xbe09d353	-0.1345952
193	0x3d07dd51	0.03317005
194	0x3cb260a5	0.0217746
195	0xbd8814e7	-0.06644612
196	0xbb6a8327	-0.003578374
197	0xbd133096	-0.035935007
198	0x3c386712	0.011255043
199	0xbd50239d	-0.050815213
200	0xbccdf7cb	-0.025142571
201	0xbdd11cdc	-0.102105826
202	0x3bc2f39f	0.005949452
203	0x3d749266	0.05970993
204	0xbd81c9e5	-0.063373365
205	0x3be78c3b	0.0070662773
206	0xbd3a3e7d	-0.04546975
207	0x3b9a9c09	0.004718308
208	0xbdad2412	-0.084541455
209	0x3d5525e8	0.052038103
210	0x3d9c342f	0.07627141
211	0x3b95641f	0.0045590545
212	0x3cfe49d9	0.031041073
213	0x3cdb956b	0.026804646
214	0x3da2b1b7	0.07944053
215	0x3a112684	0.00055370503
216	0xbd90a9ab	-0.070636116
217	0x3d9e5fc3	0.07733109
218	0x3c001702	0.0078179855
219	0xbd774e0f	-0.060377177
220	0x3bed7d04	0.007247569
221	0xbcf96863	-0.030445283
222	0xbd44388a	-0.047905482
223	0xbd142174	-0.036164716
224	0xbda7aac2	-0.08186866
225	0xbd8061cc	-0.06268653
226	0x3dae4abf	0.085103504
227	0xbdabdc7e	-0.08391665
228	0xbc71d591	-0.014760391
229	0xbd18b0d5	-0.037278015
230	0x3c893e27	0.01675327
231	0xbcfb5bb9	-0.030683385
232	0x3d5e374e	0.05425196
233	0xbabbf2a7	-0.0014339284
234	0xbda94465	-0.08264998
235	0xbd055cae	-0.03255909
236	0x3d423e4b	0.04742269
237	0x3d86aa2b	0.06575426
238	0xbd219a1d	-0.039453615
239	0xbd994cab	-0.074853264
240	0x3cd73651	0.026271017
241	0x3d93898c	0.07203969
242	0x3b8e9863	0.004351662
243	0xbd603f3c	-0.054747805
244	0xbdc3ec25	-0.09566525
245	0x3ce2aa5a	0.02766912
246	0x3da076b6	0.07835142
247	0x3c94a987	0.018147243
248	0xbc8e74ed	-0.017389739
249	0x3d44ec6b	0.04807703
250	0xbd62dd67	-0.055386927
251	0x3d4d196a	0.050073065
252	0x3d62219c	0.055207834
253	0x3d794ea9	0.06086603
254	0xbd7e797d	-0.06212758
255	0x3db64d03	0.089014076

lstm.weight_ih_l1 f4 [512, 128]
0	0xbd42b6b2	-0.047537513
1	0xbd6bc724	-0.057562962
2	0xbd4e7474	-0.050404027
3	0x3d908e24	0.07058361
4	0x3d46b463	0.048511874
5	0x3d56898b	0.052377265
6	0xbd2518db	-0.040306907
7	0xbdaf79d7	-0.08568161
8	0xbd43bda4	-0.047788277
9	0xbc33ba87	-0.010969765
10	0xbd58f614	-0.052969053
11	0x3d7c809f	0.0616461
12	0x3d9bb358	0.076025665
13	0x3da75635	0.081707396
14	0xbd2827c3	-0.041053545
15	0x3d818b10	0.06325352
16	0xbd8b9d23	-0.06817081
17	0x3cc24e8e	0.023719098
18	0x3cf5f3bc	0.030023448
19	0xbd9343b1	-0.071906455
20	0x3c099a74	0.008398641
21	0x3d260409	0.040531192
22	0xbcdad2d2	-0.026711855
23	0x3d52efe0	0.051498294
24	0x3d791500	0.060811043
25	0xbd8505d1	-0.0649525
26	0xbd6e6eb1	-0.058211032
27	0x3d9e4498	0.07727927
28	0xbd06f689	-0.032949958
29	0x3d617c50	0.055050194
30	0x3dbbe8b7	0.09175246
31	0x3ce89847	0.028392924
32	0x3d74458d	0.05963664
33	0xbc8f1a05	-0.017468462
34	0x3c41b4ca	0.011822889
35	0xbdb49d86	-0.08819108
36	0xbda51265	-0.08060149
37	0xbbe9ef23	-0.007139103
38	0x3ca90b02	0.020635132
39	0xbda1e098	-0.07904166
40	0xbd9fd2d7	-0.078038864
41	0x3bc30592	0.005951592
42	0xbd7fbaaf	-0.062433895
43	0x3cd096cd	0.025462532
44	0xbd3736cd	-0.044729996
45	0x3d9164fd	0.0709934
46	0x3b3285c5	0.0027240377
47	0xbc5fc039	-0.013656669
48	0xbc845129	-0.016151981
49	0xbdab0b95	-0.083518185
50	0xbc6ce7d8	-0.014459573
51	0xbd94ea48	-0.07271248
52	0x3d7e77e8	0.06212607
53	0xbd3ed48b	-0.046589416
54	0x3a8e3ee4	0.0010852483
55	0x3d749c5d	0.059719432
56	0xbd8e41c9	-0.06946141
57	0xbda3c1fd	-0.07995985
58	0x3d709345	0.058734197
59	0x3cc71feb	0.024307212
60	0xbd230114	-0.03979595
61	0xbca3b222	-0.019982401
62	0xbc4115ac	-0.011784952
63	0xbc1f4564	-0.009721134
64	0xbd83f699	-0.06443519
65	0x3d87dda2	0.0663407
66	0xbd52d3d1	-0.051471535
67	0x3d5b5032	0.053543277
68	0xbd5fd5eb	-0.054647367
69	0x3bd379bd	0.0064537213
70	0x3dab718c	0.08371267
71	0x3d1f0c33	0.038829993
72	0xbd8effa0	-0.0698235
73	0xbb230592	-0.0024875146
74	0x3d7e8d9a	0.06214676
75	0x3cd286f8	0.025699124
76	0xbcf3d2e8	-0.029763654
77	0xbd76dd53	-0.060269665
78	0xbd376534	-0.04477425
79	0xbdb64189	-0.088992186
80	0xbbefddd5	-0.0073201456
81	0xbd564647	-0.052313115
82	0x3d95dc2d	0.07317386
83	0x3cc6c3a8	0.024263218
84	0x3d46db63	0.048549067
85	0xbd62f6b6	-0.055411063
86	0xbdc6ade4	-0.09701136
87	0x3aa33bc6	0.0012453727
88	0x3caea40e	0.021318462
89	0x3c88539f	0.016641436
90	0xbd96ae94	-0.07357517
91	0x3dae7f39	0.085203595
92	0x3cb94f14	0.022620715
93	0xbcd19974	-0.025585867
94	0xbd9de9d2	-0.07710613
95	0xbca46b58	-0.020070717
96	0xbd4954c0	-0.04915309
97	0xbd4305db	-0.047613006
98	0xbd8350eb	-0.06411918
99	0xbd9f4e81	-0.07778645
100	0xbda7ebec	-0.081992954
101	0xbd48d714	-0.04903324
102	0xbd609c0f	-0.05483633
103	0xbd7d8f78	-0.0619044
104	0x3d576fec	0.05259697
105	0x3d5857fe	0.05281829
106	0x3d8c6877	0.068558626
107	0xbd4ac6a8	-0.04950586
108	0xbd9d9d07	-0.07695966
109	0x3d6bbc0b	0.05755238
110	0x3d90ebdd	0.07076237
111	0xbd3dc56e	-0.04633086
112	0xbca82ae3	-0.020528262
113	0x3c76d32e	0.015064998
114	0xbc4374ec	-0.011929732
115	0x3d55313f	0.052048918
116	0xbb1ffb1f	-0.0024411154
117	0xbd5bd9aa	-0.053674378
118	0x3d5bd6c6	0.05367162
119	0xbd0ff97a	-0.03515003
120	0x3c016b10	0.007899061
121	0xbc7a32fa	-0.015270943
122	0xbb34b728	-0.002757499
123	0xbc544250	-0.012955263
124	0x3d49f5f1	0.049306814
125	0x3c450a64	0.012026403
126	0xbd1b6479	-0.037937615
127	0xbd805a94	-0.062672764
128	0xbe4afc46	-0.19822797
129	0x3d98fcf1	0.0747012
130	0x3d46ab4f	0.048503216
131	0x3d2a2f6b	0.041549128
132	0xbddf7905	-0.109117545
133	0xbcbcac4a	-0.023031373
134	0xbc729d8d	-0.014808071
135	0x3d434f4c	0.047683045
136	0xbcad15b0	-0.021128505
137	0x3d26042a	0.040531315
138	0xbc8229a0	-0.015888989
139	0x3d982b68	0.07430154
140	0x3cbc6521	0.02299744
141	0xbc46753f	-0.012112915
142	0x3d6f159f	0.05837023
143	0xbb7074b9	-0.0036690666
144	0x3ba87a56	0.0051415367
145	0x3a0a71a5	0.00052812166
146	0xbcc78220	-0.02435404
147	0x3d8e9e72	0.06963815
148	0x3dcd120e	0.10013209
149	0x3dc71364	0.09720495
150	0x3e0b0ceb	0.13579147
151	0xbbdb6244	-0.006695064
152	0xbd73056b	-0.05933134
153	0x3dbe274b	0.09284838
154	0x3d0e9946	0.03481414
155	0x3c4d6f12	0.012538688
156	0xbccb735b	-0.02483528
157	0xbe05558b	-0.13020913
158	0x3d9aa3e7	0.07550793
159	0xbd82fdd5	-0.06396071
160	0x3d400a53	0.046884846
161	0xbc895aed	-0.01676699
162	0xbdc72de5	-0.097255506
163	0x3d7070d8	0.058701366
164	0xbd17832e	-0.036990337
165	0xbdb2bea7	-0.0872777
166	0xbd02112e	-0.031754665
167	0xbb63b198	-0.0034743305
168	0xbd37f0e5	-0.04490747
169	0xbdaaf837	-0.083481245
170	0x3bee73a7	0.0072769704
171	0xbd8f9387	-0.070105605
172	0x3d82a64b	0.06379374
173	0x3cb15da5	0.021651099
174	0x3bdb6cbe	0.0066963127
175	0x3d021bd2	0.031764813
176	0x3da7ba30	0.08189809
177	0xbd978029	-0.073974915
178	0x3d88f6c8	0.06687695
179	0xbd4960ca	-0.04916457
180	0xbd694488	-0.056950122
181	0x3b8c7727	0.004286665
182	0xbc918aae	-0.017766323
183	0x3dd37547	0.10325103
184	0xbdb2b264	-0.087254316
185	0x3dc8d6fd	0.09806631
186	0x3cc115ef	0.023570029
187	0xbd050d42	-0.032483347
188	0xbcad7cc7	-0.021177663
189	0x3d69cbcd	0.057079125
190	0x3d8e8049	0.06958062
191	0xbd74e67a	-0.059790112
192	0xbe155bbf	-0.1458578
193	0xbd0de644	-0.034643427
194	0xbd1904ad	-0.037357975
195	0xbde99fcc	-0.11407432
196	0x3d39c881	0.04535723
197	0xbc5651df	-0.013081043
198	0xbc3368de	-0.010950295
199	0xbd8d94b1	-0.06913126
200	0x3dd694b0	0.10477579
201	0xbd29a86b	-0.04142038
202	0xbd2e4adb	-0.042551856
203	0xbdd27842	-0.102768436
204	0x3dab6e77	0.08370679
205	0x3d4f5390	0.0506168
206	0x3d0188fa	0.03162477
207	0xbd85dab1	-0.06535853
208	0xbd097826	-0.033561848
209	0xbcdcc8e6	-0.026951265
210	0x3b8fd439	0.0043893126
211	0x3df5ab95	0.11995617
212	0xbbb568a5	-0.0055361562
213	0xbc1f7488	-0.009732373
214	0x3c8df955	0.017330805
215	0xbd7fa5cc	-0.062413976
216	0xbd828026	-0.063720986
217	0xbcb8a42f	-0.022539226
218	0xbc84f0e8	-0.016228154
219	0xbbb2b89a	-0.005454135
220	0xbd6b4554	-0.057439163
221	0x3d095518	0.033528417
222	0xbd803169	-0.06259424
223	0xbc3366b2	-0.010949777
224	0xbd6e79c9	-0.058221612
225	0xbdd56427	-0.10419493
226	0xbc462c5a	-0.012095535
227	0x3e15d0f2	0.14630488
228	0x3c74df87	0.014945871
229	0x3cecbbf5	0.028898219
230	0xbd6f815d	-0.05847298
231	0x3d34cb4c	0.04413919
232	0x3d33c362	0.043887503
233	0xbd9321d8	-0.071841896
234	0xbb81d619	-0.00396229
235	0xbd7d6272	-0.061861463
236	0x3ca5930e	0.020211723
237	0x3d991c4e	0.07476102
238	0xbd67c45a	-0.05658374
239	0x3b87141f	0.0041222717
240	0xbd12dcc6	-0.035855077
241	0xbcbac838	-0.02280055
242	0x3db78cb5	0.089623846
243	0xbbe9197e	-0.0071136346
244	0x3c739a95	0.014868398
245	0xbc657ab6	-0.014006307
246	0x3d771047	0.060318258
247	0x3cae65d9	0.0212888
248	0xbdf2639c	-0.11835405
249	0x3e36fa0f	0.17868827
250	0x3e070eb2	0.131892
251	0xbd7867c8	-0.06064585
252	0xbd8d31b1	-0.068942435
253	0xbc622a5b	-0.013804044
254	0xbcc8c3c6	-0.024507415
255	0xbc0d1157	-0.008610091

lstm.weight_hh_l1 f4 [512, 128]
0	0x3d8ff94d	0.07029972
1	0x3d5f7a27	0.054559853
2	0x3bd9546a	0.0066323774
3	0xbd977136	-0.0739464
4	0xbbadf852	-0.005309143
5	0xbda8cbbb	-0.082419835
6	0x3d8ce021	0.06878687
7	0x3cc01e40	0.023451924
8	0x3c9e1baf	0.01930031
9	0x3d9105ce	0.07081185
10	0xbc3ea544	-0.011636082
11	0x3bd82641	0.006596357
12	0xbcf5c83b	-0.030002704
13	0xbd88b4c8	-0.06675106
14	0x3c246f4a	0.010036299
15	0x3daeb683	0.08530905
16	0x3ca671db	0.020317962
17	0xbb5cbffa	-0.0033683763
18	0xbc9754f7	-0.018473132
19	0xbc851450	-0.016245037
20	0x3da352d0	0.079747796
21	0x3d70a535	0.058751304
22	0x3dac22e2	0.08405091
23	0xbd44b405	-0.048023243
24	0xbd0c94d9	-0.03432164
25	0xbd712f6a	-0.05888311
26	0x3d6c2a3a	0.057657458
27	0xbd844b88	-0.06459719
28	0x3d4924be	0.049107306
29	0xbb710124	-0.0036774362
30	0x3d954c23	0.072899126
31	0xbd883102	-0.066499725
32	0xbd699603	-0.057027828
33	0x3d861b72	0.065482035
34	0xbd777680	-0.060415745
35	0xbdc4e63d	-0.09614227
36	0x3db3fb08	0.08788115
37	0xbca28814	-0.019840278
38	0x3c8f2e41	0.01747811
39	0xbb76c8dd	-0.0037656345
40	0xbcdfb227	-0.02730663
41	0xbd5a8f85	-0.053359527
42	0xbd6f3f61	-0.058410052
43	0xbc4e2792	-0.0125826765
44	0xbc48a554	-0.012246449
45	0xbdb2560b	-0.08707818
46	0xbd3ac940	-0.045602083
47	0x3d9228ed	0.07136712
48	0xbd59c7d4	-0.053169087
49	0xbd19b583	-0.03752662
50	0x3db3dbef	0.087821834
51	0xbc181b59	-0.009283864
52	0x3d93abec	0.07210526
53	0x3c9301d0	0.0179452
54	0xbdb5ce4c	-0.08877239
55	0xbda435bf	-0.08018064
56	0xbca4c524	-0.020113535
57	0xbd037fc6	-0.032104276
58	0xbcd9105c	-0.026497059
59	0x3d968e58	0.07351369
60	0xbcafd452	-0.021463547
61	0xbd0ee900	-0.034890175
62	0xbd7016e3	-0.058615576
63	0xbd00949f	-0.031391736
64	0xbda452cd	-0.080236055
65	0x3bb7e5bf	0.0056121047
66	0xb9e66fcd	-0.00043952317
67	0xbc73d378	-0.014881961
68	0xbce5461c	-0.027987532
69	0xbce9d547	-0.028544081
70	0xbd4ce619	-0.050024126
71	0xbd5bcfae	-0.053664856
72	0xbd19644d	-0.03744917
73	0x3da2ccf4	0.07949248
74	0xbd3e97dc	-0.046531543
75	0x3da6713d	0.08127067
76	0x3da4822e	0.08032642
77	0xbd2896ce	-0.041159444
78	0x3d7538ad	0.059868503
79	0xbd256db0	-0.04038781
80	0xbd52107c	-0.051285252
81	0xbd0d57f3	-0.034507703
82	0xbd2e1904	-0.042504326
83	0xbc8751da	-0.016518522
84	0xbc51ea29	-0.012812176
85	0x3d8fdf7d	0.07025049
86	0xbd5ba88b	-0.053627532
87	0xbcb7bdb3	-0.022429323
88	0xbda19ca5	-0.07891206
89	0xbd487460	-0.04893911
90	0xbd5c04df	-0.053715583
91	0xbcfe78e4	-0.031063505
92	0xbd3316ba	-0.043722846
93	0xbda3c302	-0.07996179
94	0x3d920cd6	0.071313545
95	0xbd998b29	-0.07497246
96	0x3c861cd7	0.016371174
97	0xbc96c400	-0.018404007
98	0xbd0ff356	-0.035144173
99	0xbda4fdde	-0.08056234
100	0xbb3a2d92	-0.002840851
101	0x3d3bfa26	0.045892857
102	0x3d2a558f	0.0415855
103	0xbc337ea0	-0.010955483
104	0xbc9cd6c2	-0.019145373
105	0x3c50175c	0.012700882
106	0xbda96862	-0.082718626
107	0xbc894189	-0.016754882
108	0x3c8d9922	0.017284933
109	0xba09ec05	-0.0005261305
110	0x3d57ed8b	0.052716773
111	0x3b0d273f	0.0021538285
112	0xbd389c18	-0.045070738
113	0x3d9cbd2d	0.0765327
114	0x3d33036c	0.043704435
115	0x3cb679e6	0.022274923
116	0x3c3ee9fa	0.011652464
117	0x3d830041	0.06396533
118	0xbd729829	-0.059227142
119	0xbd9c2e86	-0.07626061
120	0x3c922842	0.017841462
121	0xbd5e4828	-0.054268032
122	0x3d96b8e2	0.07359482
123	0x3d60f6b5	0.05492278
124	0xbd31b884	-0.04338886
125	0xbcd0b21a	-0.02547555
126	0xbd0f7da5	-0.035031933
127	0xbd106f8e	-0.035262637
128	0xbdbb84f3	-0.091562174
129	0xbd7645f3	-0.060125303
130	0x3cbf3162	0.023338977
131	0xbd96fd7f	-0.07372569
132	0x3d4e602c	0.050384685
133	0xbd9597bd	-0.073043324
134	0x3d10c62e	0.03534525
135	0xbcc98061	-0.024597349
136	0xbd12f157	-0.03587469
137	0x3b73e9df	0.0037218255
138	0xbd81404f	-0.06311094
139	0xbd32ad85	-0.043622512
140	0x3ca644e0	0.020296514
141	0xbda9cef6	-0.08291428
142	0x3c9df044	0.019279607
143	0x3b5718a2	0.0032821079
144	0xbd01a321	-0.031649712
145	0xbd8c8712	-0.068617
146	0x3d9e0125	0.07715062
147	0x3d292c0b	0.04130177
148	0x3d435ef6	0.047697984
149	0xbd32d821	-0.043663148
150	0x3c889dd1	0.016676815
151	0x3d0a81dd	0.033815254
152	0xbb0813b0	-0.0020763688
153	0x3bdf5174	0.00681513
154	0x3cc789c2	0.02435768
155	0x3d64bfea	0.055847086
156	0x3c14356a	0.009045938
157	0xbd7cf7ae	-0.061759643
158	0x3d8cf2c6	0.06882243
159	0xbbadf7e8	-0.0053090937
160	0xbd9a3402	-0.07529451
161	0xbd31b3de	-0.043384425
162	0x3d5811ec	0.052751467
163	0x3d6e529a	0.058184244
164	0x3b395328	0.0028278325
165	0xbd8695e4	-0.06571558
166	0x3d875885	0.06608681
167	0x3cfde697	0.030993743
168	0x3d91d68c	0.07121
169	0xbd0290c6	-0.031876348
170	0xbccd33ef	-0.025049178
171	0x3d5939e4	0.053033724
172	0xbd83b671	-0.06431282
173	0x3d969827	0.073532395
174	0x3d579cfe	0.052639954
175	0xbd156458	-0.03647265
176	0xbd5fa55d	-0.054601062
177	0xbd1a4ddb	-0.037671905
178	0xbdaf331a	-0.08554669
179	0x3d92259e	0.07136081
180	0xbc214751	-0.009843663
181	0xbce786cf	-0.028262524
182	0x3b769d0c	0.0037630228
183	0x3d10ef4e	0.03538447
184	0x3ccb62da	0.02482741
185	0xbd8fa9b6	-0.07014792
186	0x3d9ac76b	0.07557567
187	0x3daa72ca	0.083226755
188	0x3c807e5c	0.015685253
189	0xbd55679a	-0.052100755
190	0xbd1d2238	-0.03836271
191	0x3d619c7e	0.055080883
192	0xbd8fa1c9	-0.0701328
193	0xbcd81e5a	-0.02638166
194	0x3c8594d7	0.016306324
195	0x3d87990a	0.06620987
196	0xbd8a9240	-0.06766176
197	0xbdb1b3f3	-0.08676901
198	0xbd68bb8b	-0.05681948
199	0xbd092644	-0.03348376
200	0x3cbc8bcd	0.023015881
201	0x3daf1d19	0.08550472
202	0xbd3b27f2	-0.04569239
203	0xbc8ac706	-0.016940605
204	0xbb734574	-0.0037120255
205	0x3d966692	0.073437825
206	0x3c679033	0.014133501
207	0x3cf768a1	0.030201258
208	0x3c1c3b29	0.009535589
209	0xbd83fb8a	-0.06444462
210	0xbd7315be	-0.059346907
211	0xbd8ea718	-0.06965464
212	0xbc50c957	-0.012743316
213	0x3d1d4be0	0.03840244
214	0xb9989286	-0.00029100868
215	0x3c8e6ee8	0.017386869
216	0xbb450b4d	-0.003006655
217	0xbcca626a	-0.02470513
218	0xbb6a922d	-0.0035792694
219	0xbcbb4ba6	-0.02286322
220	0xbd436a0c	-0.047708556
221	0x3d99fa61	0.07518459
222	0xbd81495f	-0.063128226
223	0xbd8d4dfc	-0.0689964
224	0xbcf19702	-0.029490951
225	0x3d18b78d	0.037284423
226	0xbd83c67c	-0.06434342
227	0x3c03964b	0.008031438
228	0x3db369fc	0.08760449
229	0x3d649d9d	0.055814374
230	0x3d71a75c	0.058997497
231	0x3cbf6b9a	0.023366738
232	0xbcd24beb	-0.025670966
233	0x3daef65a	0.085430816
234	0x3b812111	0.0039407094
235	0xbc919626	-0.017771792
236	0x3caee349	0.021348612
237	0x3d97863d	0.07398651
238	0xbd00ea8c	-0.03147368
239	0x3da1001e	0.078613505
240	0xbd909223	-0.07059123
241	0x3c6eab7a	0.01456725
242	0xbd2cc9f4	-0.042184785
243	0xbd6b6aa2	-0.05747474
244	0x3cb018ae	0.021496143
245	0xbd9e118d	-0.07718191
246	0xbdb7d448	-0.08976036
247	0xba6feeda	-0.0009152718
248	0x3cbcb52e	0.023035612
249	0xbd9b3a67	-0.07579499
250	0x3d8f9bda	0.07012148
251	0x3c2e2797	0.010629556
252	0xbdbaadc9	-0.09115178
253	0xbd86d83f	-0.065842144
254	0xbdc38e5d	-0.09548638
255	0xbd532d10	-0.051556647

lstm.bias_ih_l1 f4 [512]
0	0x3b4d45c3	0.0031322099
1	0xbb2d6655	-0.00264587
2	0x3dbe4c26	0.09291868
3	0xbd1a1c09	-0.037624393
4	0x3d200177	0.039063897
5	0xbca6a886	-0.02034403
6	0x3d03d256	0.032183014
7	0x3c97a462	0.018511001
8	0x3d60eb73	0.054912042
9	0x3da786ed	0.08180032
10	0x3d9dd157	0.07705944
11	0x3e30d11d	0.1726727
12	0x3d407883	0.04698993
13	0xbd9da6bf	-0.0769782
14	0xbd3860e4	-0.045014277
15	0x3c37d76b	0.011220793
16	0xbdc33896	-0.09532277
17	0x3d122613	0.03568084
18	0x3d8bb5a2	0.06821753
19	0x3d99460f	0.07484066
20	0x3dc18aa8	0.09450275
21	0xbd6cbc67	-0.057796862
22	0xbd909296	-0.07059209
23	0xbd9c28bf	-0.07624959
24	0xbd0e5715	-0.034751017
25	0x3c3a844a	0.011384079
26	0x3d7de6ae	0.06198757
27	0xbcd99c6b	-0.026563844
28	0x3d5d4f43	0.054030668
29	0x3dac35b4	0.084086806
30	0x3d414288	0.04718259
31	0xbcabc0c2	-0.020965938
32	0x3d9480ca	0.07251127
33	0x3d936dd8	0.071986854
34	0xbd2a0d90	-0.04151684
35	0xbc979181	-0.018501999
36	0x3d0f7c10	0.035030425
37	0xbdccec4d	-0.10006008
38	0xbcbad526	-0.022806715
39	0x3d067869	0.032829676
40	0xbaf51821	-0.0018699208
41	0xbb859ad1	-0.0040772934
42	0xbcfef7b7	-0.031123979
43	0xbc4cb97e	-0.012495397
44	0xbd4aace7	-0.0494813
45	0x3b1e1744	0.0024122754
46	0x3cd782de	0.02630752
47	0x3d1996c9	0.037497316
48	0xbd1a6d71	-0.037702028
49	0x3d39c6f6	0.04535576
50	0xbc818096	-0.015808385
51	0x3d9c72d1	0.07639087
52	0xbb5e83ae	-0.0033953
53	0xbd746d39	-0.059674475
54	0x3e124d7b	0.14287369
55	0xbcfce079	-0.030868756
56	0x3d8a03cf	0.06739008
57	0xbda6079c	-0.0810692
58	0x3d7703ac	0.060306236
59	0x3d942369	0.072333165
60	0x3db6f17d	0.08932779
61	0xbaf1ed8a	-0.0018457633
62	0x3cf64d33	0.030066108
63	0x3ce46d9e	0.0278843
64	0xbcb31ead	-0.021865213
65	0xbd26bc0c	-0.04070668
66	0x3d8829da	0.066486076
67	0xbd16f0c2	-0.0368507
68	0xbd15b528	-0.036549717
69	0x3b9d0112	0.0047913874
70	0xbd2eb221	-0.042650346
71	0xbcaebba5	-0.02132971
72	0x3cf897ed	0.030345881
73	0x3da674c1	0.08127738
74	0xbd912a3c	-0.07088134
75	0xbd95a3aa	-0.07306607
76	0x3c886ed1	0.016654404
77	0x3d496185	0.049165267
78	0xbd89621b	-0.06708165
79	0xbd2dfae5	-0.0424756
80	0x3c8178de	0.015804704
81	0xbd465e26	-0.04842963
82	0xbd7ab00b	-0.061203044
83	0x3bd6ab90	0.0065512136
84	0xbb8ed38d	-0.004358715
85	0xbd81dd7f	-0.06341075
86	0x3da8bb7a	0.08238883
87	0xbc5a601f	-0.013328581
88	0x3db7ba59	0.0897109
89	0x3db8a1b3	0.09015217
90	0xbd973e32	-0.0738491
91	0x3bf36be5	0.0074286335
92	0x3d2de37e	0.04245328
93	0xb8c72572	-9.496034e-05
94	0x3db61b31	0.08891905
95	0x3d96844e	0.07349454
96	0xbcc954b0	-0.024576515
97	0x3c3716cf	0.011174872
98	0xbc4d1b5e	-0.012518732
99	0xbc464055	-0.012100299
100	0xbdac5a0e	-0.08415614
101	0x3d84c717	0.06483286
102	0xbd8b50d8	-0.06802529
103	0x3d532588	0.051549464
104	0xbca44e29	-0.0200568
105	0xb9f42f0f	-0.00046574368
106	0x3da2fba4	0.07958153
107	0x3d5f8e46	0.054579042
108	0x3d63aaaf	0.0555827
109	0xbc641666	-0.013921356
110	0xbd518965	-0.05115642
111	0xbd947717	-0.07249277
112	0xbd8c518d	-0.06851492
113	0x3d08fc9d	0.033444036
114	0xbc1463f4	-0.009057034
115	0xbbd26453	-0.006420651
116	0x3ce973ad	0.028497541
117	0xbd163c34	-0.036678508
118	0x3d703d29	0.058652077
119	0xbd869fc5	-0.06573442
120	0x3d653e8e	0.05596786
121	0xbc02b606	-0.007977968
122	0x3cbec607	0.023287786
123	0xbd3e6d56	-0.04649099
124	0x3cc1f9aa	0.02367862
125	0xbd4c0788	-0.04981187
126	0xbda3927f	-0.07986926
127	0x3dc80c68	0.09767991
128	0xbda58ae8	-0.08083135
129	0xbd7c41f8	-0.06158635
130	0x3d9d3966	0.076769635
131	0x3d33a58d	0.043859053
132	0xbd872ba3	-0.0660012
133	0x3cd54586	0.026034128
134	0xbdbbb317	-0.09165018
135	0x3da1f3a3	0.07907798
136	0xbd27977e	-0.04091596
137	0x3d1acd60	0.037793517
138	0xbd66d2d6	-0.056353413
139	0xbe034cc9	-0.1282226
140	0x3d9b70ec	0.075898975
141	0x3d6032f2	0.054736085
142	0x3db1fbb2	0.08690585
143	0xbd28b521	-0.041188363
144	0xbd1a5ea0	-0.037687898
145	0xbd5cd889	-0.05391744
146	0xbdb4d00f	-0.088287465
147	0xbd7a8cef	-0.06116956
148	0xbd248704	-0.040167823
149	0x3dacb97e	0.08433817
150	0x3da86296	0.08221929
151	0xbd0b1781	-0.033957962
152	0xbd6d1112	-0.057877608
153	0x3d2b3d4e	0.04180651
154	0x3d812259	0.063053794
155	0xbb514cc2	-0.003193662
156	0xbd6c4386	-0.057681583
157	0xbd63b752	-0.05559475
158	0x3c700571	0.014649735
159	0xbdd99560	-0.10624194
160	0xbc16e660	-0.009210199
161	0xbda81bc2	-0.082084194
162	0xbcca8f99	-0.024726676
163	0x3cb03db3	0.021513795
164	0xbda6037f	-0.081061356
165	0x3bf2ac68	0.0074058063
166	0xbd9b76a9	-0.07590992
167	0xbd62ba60	-0.055353522
168	0xbc815353	-0.015786802
169	0xbdf9241b	-0.1216509
170	0x3ce76559	0.028246569
171	0xbd715488	-0.058918506
172	0xbc925783	-0.017863994
173	0xbc47852a	-0.012177745
174	0x3ba43911	0.0050116857
175	0xbd89eeff	-0.06735038
176	0x3d07511f	0.033036347
177	0xbd1d8bb3	-0.038463306
178	0xbd4c5542	-0.049885996
179	0xbcc546e6	-0.024081659
180	0xbcd803cf	-0.026369004
181	0xbd54a7db	-0.051917892
182	0x3d140a51	0.03614265
183	0xbdc832c1	-0.097753055
184	0xbc3e0e02	-0.011600019
185	0xba3cb0a3	-0.0007197952
186	0x3c7ec011	0.015548722
187	0x3c97a39b	0.01851063
188	0xbd5bd8c7	-0.05367353
189	0xbc437b71	-0.011931286
190	0x3d51fc97	0.05126628
191	0xbd0f15e8	-0.034933
192	0xbd7c12d0	-0.06154138
193	0x3d552d3c	0.052045092
194	0x3dc2c1ce	0.095096216
195	0x3d86f839	0.065903135
196	0x3d44975e	0.047995917
197	0xbdada778	-0.08479208
198	0x3b3f8aff	0.0029227135
199	0xbc4b185d	-0.012395945
200	0x3c43c11f	0.011947899
201	0x3c432802	0.011911394
202	0xbd2e64aa	-0.04257647
203	0xbd50ed69	-0.051007662
204	0x3caedd60	0.021345794
205	0x3d2402a3	0.040041577
206	0xbd827cdd	-0.06371472
207	0xbdac685f	-0.08418345
208	0xbd218d1f	-0.039441224
209	0xbd94bad0	-0.07262194
210	0x3d40bd2f	0.04705542
211	0x3da7169b	0.081586085
212	0x3d1b9e63	0.037992846
213	0xbce12cf6	-0.02748726
214	0x3d0795a3	0.03310169
215	0xbd847457	-0.064675026
216	0xbd7c8106	-0.061646484
217	0xbd8f7116	-0.07003991
218	0x3d951dab	0.07281049
219	0xbc467243	-0.012112203
220	0x3bb7535a	0.005594653
221	0x3c94f522	0.018183295
222	0xbdb582a8	-0.08862811
223	0x3d8dc236	0.069218084
224	0xbd7a7f0c	-0.061156318
225	0x3d46a70c	0.048499152
226	0x3d8d3349	0.068945475
227	0xbcc1ebbf	-0.023671983
228	0xbc9de005	-0.01927186
229	0x3d5f683a	0.054542758
230	0x3d3b566d	0.04573672
231	0xbda25596	-0.079264805
232	0x3d37193b	0.044701796
233	0xbd882430	-0.06647527
234	0xbcc82226	-0.024430346
235	0xbba4e3a3	-0.005032019
236	0x3b13d318	0.0022556242
237	0x3da1ca6a	0.078999355
238	0x3d4dc720	0.05023873
239	0xbd906b8c	-0.07051763
240	0xbd0a4f9a	-0.03376732
241	0xbd0725ae	-0.03299492
242	0x3d3b46b0	0.04572171
243	0xbd91b8a2	-0.07115294
244	0xbb469cb5	-0.0030305807
245	0x3d214c58	0.039379448
246	0x3b9a4016	0.0047073467
247	0xbd9ae6b8	-0.07563537
248	0xbc7b033e	-0.015320597
249	0xbda18533	-0.07886734
250	0x3a9b6ad4	0.0011857399
251	0x3d8a1958	0.06743115
252	0xbd0d7319	-0.034533594
253	0x3d583159	0.052781437
254	0x3cf1e5f4	0.029528596
255	0xbd6ef410	-0.058338225
